code/Test1_official_demo/Lenet7.pth (torch, 487483 bytes, 10 tensors)

conv1.weight f4 [16, 3, 5, 5]
0	0xbe462882	-0.1935139
1	0x3e094213	0.13404112
2	0x3de4cc63	0.11171796
3	0x3dc6b8e4	0.09703234
4	0xbdf6896e	-0.120379314
5	0xbd137d97	-0.036008444
6	0x3e6ac632	0.22927168
7	0xba22c073	-0.0006208487
8	0x3d6f60c4	0.058441892
9	0xbd2d1f3f	-0.042266127
10	0x3de61ad8	0.11235589
11	0x3d914831	0.070938475
12	0x3cf4138f	0.029794483
13	0xbe01cbae	-0.12675354
14	0xbd4c978e	-0.04994922
15	0xbdebd39d	-0.115149714
16	0xbe312f8d	-0.17303295
17	0xbde78c0d	-0.113060094
18	0x3da0eadf	0.07857298
19	0x3c652908	0.013986833
20	0xbc9ab331	-0.018884273
21	0xbde75e6c	-0.112973064
22	0x3cbc7eda	0.023009706
23	0x3d1b48d8	0.037911266
24	0x3d890279	0.06689925
25	0xbd9bf57d	-0.076151825
26	0xbd7e4ee3	-0.06208695
27	0x3daa3d22	0.083124414
28	0xbd767aad	-0.060175586
29	0xbda86b8f	-0.0822364
30	0x3e04ce6d	0.1296937
31	0x3d9bada9	0.076014824
32	0x3cde7dc5	0.027159581
33	0xbe2a8f71	-0.16656281
34	0xbe1fe615	-0.15615113
35	0x3e58c33e	0.21168229
36	0xbd55e18f	-0.052217063
37	0xbe770002	-0.24121097
38	0xbe82b925	-0.2553188
39	0xbd883b78	-0.06651968
40	0x3dabc6c7	0.08387523
41	0xbe7e6533	-0.24843292
42	0xbe517636	-0.2045525
43	0xbdf3319f	-0.11874699
44	0x3e4a8b8b	0.19779794
45	0xbdbea60e	-0.09309016
46	0xbdf6fbc5	-0.1205974
47	0x3d9071c0	0.07052946
48	0x3e032a7d	0.12809177
49	0x3df53ee5	0.11974887
50	0x3d1e59f6	0.038660012
51	0x3d3865a4	0.045018807
52	0x3dc54703	0.09632685
53	0x3dfb1ed1	0.12261737
54	0xbdc12e65	-0.09432677
55	0x39439b34	0.00018654467
56	0x3e4303cd	0.19044419
57	0x3da03e9a	0.0782444
58	0xbe079b5b	-0.13242857
59	0x3ccc5b87	0.024945987
60	0x3e393254	0.18085605
61	0x3da1613d	0.07879875
62	0xbe0399e6	-0.12851676
63	0xbe26d091	-0.162905
64	0x3d73a62a	0.05948464
65	0x3dde925a	0.10867758
66	0xbe3e2518	-0.18568838
67	0xbe470053	-0.19433717
68	0xbdad8754	-0.084730774
69	0x3e47efa5	0.19525011
70	0xbe0b0695	-0.1357673
71	0x3d048674	0.032354787
72	0xbcfced3a	-0.030874837
73	0x3ddeefd8	0.1088559
74	0x3dad9d03	0.08477213
75	0x3c5b7fe0	0.013397187
76	0x3de0e698	0.10981482
77	0x3e3da480	0.18519783
78	0x3dbee1dd	0.09320424
79	0xbe2267e9	-0.15859951
80	0x3dd19ef8	0.10235399
81	0x3e68d4cc	0.22737426
82	0x3e08cd18	0.13359487
83	0x3e5ea54f	0.21742748
84	0x3d31a2b8	0.04336807
85	0x3e144393	0.14478903
86	0x3e556741	0.2084017
87	0x3e69763f	0.22799014
88	0x3e2adc3f	0.1668558
89	0x3d838f68	0.06423837
90	0x3d08c12a	0.03338734
91	0x3dbcca32	0.09218253
92	0xbcd6be07	-0.026213659
93	0xbcea236d	-0.028581345
94	0xbe2ef38d	-0.17085095
95	0xbdcdaef8	-0.10043138
96	0xbc9d5692	-0.019206319
97	0xbd2ce83e	-0.04221367
98	0xbb7dafd4	-0.0038709538
99	0xbea7ac9c	-0.32748878
100	0xbd0b705f	-0.034042712
101	0xbd333e59	-0.04376063
102	0xbe40dd16	-0.18834338
103	0xbcafab0c	-0.021443866
104	0x3ccac111	0.024750264
105	0xbe006409	-0.1253816
106	0xbe54e0a9	-0.20788826
107	0xbd770344	-0.06030585
108	0xbdf3ce15	-0.119045414
109	0xbd23b281	-0.039965156
110	0x3c136b10	0.008997694
111	0xbd2d17dd	-0.042259086
112	0xbdf9c094	-0.121949345
113	0xbd07011d	-0.032960046
114	0xbe3ce3da	-0.18446293
115	0xbd252f53	-0.040328335
116	0xbdfe030f	-0.12402927
117	0xbcd8a671	-0.026446553
118	0xbc970ba9	-0.018438177
119	0xbde57a02	-0.11204912
120	0x3e13ca2f	0.14432596
121	0x3d2db415	0.042408068
122	0x3d0b4ea1	0.034010533
123	0x3d8f654c	0.07001743
124	0x3d99605c	0.07489082
125	0xbd0a1e45	-0.033720274
126	0xbd6333a5	-0.055469174
127	0x3c1723be	0.00922483
128	0x3d3c7494	0.046009615
129	0x3dcf39eb	0.10118469
130	0xbcf8b61d	-0.030360276
131	0xbdc129d2	-0.09431805
132	0xbdf829f6	-0.121173784
133	0xbe14133a	-0.1446046
134	0x3bad5c6e	0.0052905595
135	0xbe2c83de	-0.16847178
136	0xbe1c9aa9	-0.15293373
137	0xbde0b0de	-0.10971235
138	0xbd8ba24d	-0.06818066
139	0xbcd3ed6b	-0.025870046
140	0xbdc4a59e	-0.096019015
141	0x3c60c4f4	0.013718832
142	0xbbb84895	-0.005623887
143	0x3d9c0d10	0.07619679
144	0x3dfc64c6	0.123239085
145	0xbc578ecb	-0.013156603
146	0x3dcb07cb	0.09913596
147	0x3d4ba562	0.04971827
148	0x3dfe3e55	0.12414233
149	0x3e4ecfbc	0.20196432
150	0xbe1bd995	-0.1521972
151	0xbbda50b0	-0.0066624507
152	0xbe88ee18	-0.2674415
153	0x3d94e154	0.072695404
154	0xbdaf432b	-0.08557733
155	0xbdc6cd04	-0.097070724
156	0xbdfaa86e	-0.12239157
157	0xbd9f163a	-0.07767911
158	0x3d82c280	0.06384754
159	0xbe55f1da	-0.2089304
160	0x3da21197	0.07913511
161	0xbe3a43db	-0.18189947
162	0xbd61b19c	-0.055101022
163	0xbcc1de64	-0.023665614
164	0xbe2890fa	-0.16461554
165	0x3e1b5d2f	0.15172265
166	0x3d67b961	0.056573275
167	0xbe1ba838	-0.15200889
168	0x3e4fa90f	0.20279334
169	0x3e2fa670	0.17153335
170	0xbdfcba31	-0.12340201
171	0xbc7ecfc6	-0.015552467
172	0xbe30c844	-0.17263895
173	0xbaec3a3f	-0.001802273
174	0xbe13ecbe	-0.14445779
175	0x3e23f75c	0.16012329
176	0x3e173cd0	0.14769292
177	0x3dd1dbc7	0.10246997
178	0x3e87f930	0.26557302
179	0x3cc9dd4d	0.024641657
180	0x3dc04eff	0.09390067
181	0x3c64e080	0.013969541
182	0x3cbb09ef	0.022831885
183	0x3e43aa03	0.19107823
184	0x3dda82f6	0.1066951
185	0x3e7437ad	0.23849364
186	0xbc1ee0ed	-0.009697181
187	0x3cd2c199	0.02572708
188	0x3e851f1b	0.26000294
189	0xbd7258b7	-0.059166636
190	0x3cef4ba2	0.02921087
191	0x3e726a19	0.23673286
192	0x3e28528a	0.16437736
193	0x3e79498c	0.24344462
194	0x3e250a3b	0.16117184
195	0x3c84f110	0.016228229
196	0x3da6f268	0.08151704
197	0x3bd6fbfe	0.0065608015
198	0x3c3a46b3	0.011369395
199	0xbc9f45b0	-0.01944241
200	0x3d184c24	0.03718199
201	0x3dbccdad	0.09218917
202	0xbe1e3203	-0.15448765
203	0xbd03ff24	-0.032225743
204	0xbde7067d	-0.112805344
205	0xbdde9241	-0.108677395
206	0xbc01b035	-0.007915546
207	0xbde876a3	-0.11350753
208	0x3d57a368	0.05264607
209	0x3c094b2f	0.008379742
210	0x3c62ce57	0.013843141
211	0xbdc17737	-0.094465666
212	0xbd53cb1d	-0.051707376
213	0xbdaff308	-0.085912764
214	0xbe3e82df	-0.18604611
215	0xbde82f88	-0.11337191
216	0x3d9f4526	0.07776861
217	0xbddab44c	-0.1067892
218	0x3d43a6ad	0.047766376
219	0x3cf23596	0.029566567
220	0xbdee2780	-0.11628628
221	0xbd0836bd	-0.033255327
222	0xbde2404e	-0.110474214
223	0xbe1e7c2c	-0.15477055
224	0xbceb6553	-0.028734839
225	0xbc177360	-0.009243816
226	0x3d916ef3	0.0710124
227	0xbb7900fd	-0.0037994974
228	0xbd2eae22	-0.042646535
229	0x3da5ae07	0.08089834
230	0xbdb48f7d	-0.08816431
231	0xbd1da238	-0.038484782
232	0xbcc770e7	-0.024345828
233	0xbdfb7242	-0.12277652
234	0x3d047eda	0.032347538
235	0xbd2ccd53	-0.042188
236	0x3d3e075d	0.04639374
237	0xbdd92e6b	-0.10604557
238	0x3ccf7042	0.025322083
239	0xbbe37173	-0.0069410144
240	0xbdcde712	-0.10053839
241	0xbe362921	-0.17789127
242	0xbe57f6d4	-0.21090251
243	0xbe3c05ad	-0.1836154
244	0xbd3c4782	-0.045966633
245	0xbdc3a910	-0.095537305
246	0xbdc7efd8	-0.097625434
247	0xbd87dbb6	-0.066337034
248	0xbd5e88d6	-0.054329716
249	0xb9a02151	-0.000305424
250	0x3bc6d7ad	0.006068191
251	0xbdca2c62	-0.098717466
252	0xbe049906	-0.12948999
253	0x3d18c711	0.03729922
254	0xbd8f7686	-0.070050284
255	0x3d2270ed	0.039658476

conv1.bias f4 [16]
0	0xbe92d26f	-0.28676173
1	0xbe86d563	-0.26334676
2	0xbde805ae	-0.11329208
3	0x3da623ae	0.08112274
4	0xbdb1886f	-0.08668601
5	0xbd9f0b5d	-0.07765839
6	0xbd927fcf	-0.07153284
7	0xbeab27fb	-0.3342894
8	0x3b5f4de4	0.0034073526
9	0xbdb5be41	-0.08874179
10	0xbe3cb5c6	-0.18428716
11	0xbd5aafe0	-0.053390384
12	0x3e11564a	0.14193073
13	0xbe87e795	-0.2654387
14	0xbcb8fbc4	-0.022580989
15	0xbe08fbab	-0.13377254

conv2.weight f4 [32, 16, 5, 5]
0	0x3d091e06	0.0334759
1	0x3d843f11	0.064573415
2	0x3d046b98	0.032329172
3	0xbd1045ec	-0.035222933
4	0xbc0b569a	-0.008504534
5	0xbd6e3e2f	-0.05816477
6	0x3c862d83	0.016379124
7	0xbd159fb5	-0.03652926
8	0xbdaf8d74	-0.08571902
9	0xbe323b3e	-0.17405412
10	0xbda8d9af	-0.08244645
11	0xbde166f8	-0.11005968
12	0xbd9c5c73	-0.07634821
13	0xbdae3d68	-0.08507806
14	0xbd9193df	-0.07108282
15	0xbcb13e4b	-0.021636149
16	0xbd934f28	-0.07192832
17	0xbe1cf8dd	-0.15329309
18	0xbe57f252	-0.21088532
19	0xbe4e0d07	-0.20122157
20	0xbca3efeb	-0.020011863
21	0xbd15aae7	-0.03653994
22	0xbe2a021e	-0.1660237
23	0xbe8604c7	-0.2617552
24	0xbdd34e9e	-0.103177294
25	0x3b0c8cd0	0.0021446235
26	0xbdb21190	-0.08694756
27	0xbca1c879	-0.019748913
28	0x3c075777	0.008260599
29	0x3cdb9d1e	0.026808318
30	0xbcf9cb90	-0.030492574
31	0x3d331650	0.04372245
32	0x3cb140d3	0.021637356
33	0x3da1a453	0.078926705
34	0xbccf1708	-0.025279537
35	0xbe0c1b4e	-0.13682291
36	0x3d845966	0.06462364
37	0xbd0fb2fc	-0.035082802
38	0xbdfc1c2d	-0.123100616
39	0xbddab694	-0.10679355
40	0xbda7b6f5	-0.08189193
41	0x3b9a1279	0.004701909
42	0xbdcdcaad	-0.10048423
43	0xbd193909	-0.03740791
44	0x3d160473	0.036625337
45	0x3d0ad2fd	0.03389262
46	0x3d1f4d44	0.038892046
47	0xbe1b0cb9	-0.15141572
48	0xbe20c773	-0.15701084
49	0xbc537bb6	-0.012907913
50	0xbe7f341a	-0.24922219
51	0xbe1d187b	-0.1534137
52	0xbe66f1ac	-0.22553128
53	0xbdfd7d83	-0.12377455
54	0xbe0fdc32	-0.14048842
55	0x3c9c400b	0.019073507
56	0x3c96ae5c	0.018393688
57	0xbd018616	-0.031622015
58	0xbdac9577	-0.08426946
59	0xbd465ae5	-0.048426528
60	0x3dc4bbae	0.096061096
61	0x3e2edbca	0.1707603
62	0xbd305e7d	-0.04305886
63	0xbdbdedac	-0.09273848
64	0xbe1faa20	-0.15592241
65	0x3d323a34	0.043512538
66	0x3db34412	0.08753218
67	0x3e40f58a	0.18843666
68	0x3d32eadf	0.04368102
69	0xbdbae097	-0.09124868
70	0xbd50edfe	-0.051008217
71	0xbd23ea32	-0.040018268
72	0x3d4d7448	0.050159723
73	0x3d0328b5	0.032021243
74	0xbcdbafe2	-0.026817266
75	0x3d17797a	0.036981083
76	0x3d5b5bbf	0.053554293
77	0xbda0add1	-0.07845653
78	0xbd9d7ee5	-0.07690219
79	0x3cd4a46a	0.025957305
80	0x3da3aabd	0.0799155
81	0xbca7c45b	-0.020479372
82	0xbda946a6	-0.08265428
83	0xbc4ed75b	-0.012624587
84	0x3d904eff	0.07046317
85	0x3d49050d	0.049077082
86	0x3b6892ca	0.0035487884
87	0x3d033199	0.032029722
88	0x3db267b2	0.087111846
89	0x3d90b74f	0.07066213
90	0x3d561a39	0.0522711
91	0xbd558340	-0.052127123
92	0xbd67534d	-0.056475926
93	0xbb28d011	-0.0025758783
94	0x3d3cf8cf	0.04613572
95	0xbe03489a	-0.12820664
96	0xbddd093b	-0.10792776
97	0xbd54900f	-0.051895197
98	0xbd42a7c2	-0.047523268
99	0x3d19649e	0.03744947
100	0x3bb2b8e5	0.00545417
101	0x3c031986	0.008001691
102	0xbe10a028	-0.14123595
103	0xbe8afce3	-0.27146062
104	0xbe422bb8	-0.1896199
105	0x3d6d02c7	0.057863977
106	0xbdca0459	-0.098641105
107	0xbeac2bac	-0.3362707
108	0xbe9a2867	-0.3010895
109	0xbe502ec0	-0.20330334
110	0x3d2469cd	0.040139962
111	0xbc1d75b4	-0.009610582
112	0xbe41b263	-0.18915705
113	0xbe36642e	-0.17811653
114	0xbe72c762	-0.23708871
115	0x3d701659	0.058615062
116	0x3cd8ad32	0.026449773
117	0xbc63aa1c	-0.013895538
118	0xbdd380e4	-0.10327318
119	0xbe27e2c3	-0.16395096
120	0x3ddbc42d	0.10730777
121	0x3d33b0b9	0.043869708
122	0x3e120a74	0.142618
123	0x3e28f03a	0.16497889
124	0xbdae46ac	-0.08509573
125	0x3c27101c	0.010196712
126	0x3d7e8d5e	0.062146537
127	0x3dd6f552	0.1049601
128	0x3e2324b0	0.15931964
129	0x3e669d4f	0.22520946
130	0xbd01e561	-0.031712893
131	0x3c83369f	0.016017256
132	0x3dc7f1b1	0.09762896
133	0x3d9c1fc5	0.07623247
134	0x3e4cd9d9	0.20004977
135	0xbc0c5c8e	-0.008566989
136	0x3e3a13c8	0.18171608
137	0x3d17b76a	0.03704015
138	0xbcb82dab	-0.022482714
139	0xbd9c502a	-0.076324776
140	0xbde90ffd	-0.11380003
141	0x3c910896	0.01770429
142	0x3e1e49ca	0.15457836
143	0x3d31ce5f	0.0434097
144	0xbc1ffef5	-0.009765376
145	0xbda8634f	-0.082220666
146	0xbe826c64	-0.2547332
147	0xbe0cf6e2	-0.13766053
148	0x3df70da2	0.12063147
149	0x3e31dfc1	0.17370512
150	0x3e517b98	0.20457304
151	0xbcb7e00d	-0.022445703
152	0xbd9d44cd	-0.07679138
153	0x3d85c662	0.06531979
154	0xbb33feb0	-0.0027465038
155	0x3e798919	0.24368705
156	0x3d14ad96	0.036298357
157	0xbd796c98	-0.06089458
158	0xbc9db29c	-0.019250207
159	0x3c278f77	0.010227076
160	0x3e64ca7f	0.22342871
161	0x3e22f781	0.15914728
162	0x3d65fc99	0.0561491
163	0xbd2985fa	-0.041387536
164	0xbd005b32	-0.03133697
165	0x3dfa1295	0.122105755
166	0x3e41155d	0.18855806
167	0x3e46a7d2	0.19399956
168	0x3e59496b	0.21219413
169	0x3ddd1806	0.10795598
170	0x3e42e4a6	0.19032535
171	0x3e2c15a2	0.16805127
172	0x3e43b345	0.19111355
173	0x3e35af8c	0.17742747
174	0x3e679862	0.22616723
175	0x3d908a4f	0.0705763
176	0x3d3eac55	0.046551067
177	0x3d208be0	0.039195895
178	0xbdbfcca0	-0.09365201
179	0xbd3a71ff	-0.04551887
180	0x3c331d13	0.010932225
181	0x3dae5e15	0.085140385
182	0x3c581210	0.0131879
183	0xbd021d10	-0.031765997
184	0x3c70ddb0	0.014701292
185	0xbdf3889c	-0.118912905
186	0xbd29b344	-0.041430727
187	0x3c3a855b	0.0113843335
188	0xbc86f76a	-0.016475398
189	0xbd223e56	-0.03961023
190	0xbda704d2	-0.08155216
191	0xbdece98c	-0.11567983
192	0x3b50c917	0.003185814
193	0xb9be2400	-0.00036266446
194	0x3c460e91	0.012088434
195	0xbd238fb1	-0.039931957
196	0xbd98a37b	-0.074530564
197	0xbaa2d6e4	-0.0012423662
198	0xbda783ea	-0.081794575
199	0xbd9a4b17	-0.075338535
200	0x3de7b20b	0.11313256
201	0x3da352a5	0.079747476
202	0x3d7c431e	0.061587445
203	0xbb9d4eed	-0.0048006685
204	0xbcdc0581	-0.026858093
205	0x3dc49226	0.09598188
206	0x3cdfcd06	0.027319442
207	0xbd0156d2	-0.03157694
208	0xbe1ec078	-0.15503109
209	0xbe02ca2f	-0.1277244
210	0x3c860e2e	0.016364183
211	0xbc3e8bdc	-0.011630025
212	0xbd0ee837	-0.034889426
213	0xbdbb0731	-0.09132231
214	0xbd940223	-0.0722697
215	0xbda78a2b	-0.0818065
216	0xbe000208	-0.12500775
217	0xbe1f0f83	-0.15533261
218	0xbcca9962	-0.024731342
219	0xbcecec7d	-0.02892136
220	0x3e0182c4	0.1264754
221	0x3bb67e99	0.005569291
222	0xbe42d4ca	-0.19026485
223	0xbcc2c251	-0.023774298
224	0xbc8f6aae	-0.017506924
225	0xbc5cd24b	-0.013477872
226	0xbdc48bc5	-0.095969714
227	0xbe2836fe	-0.16427228
228	0xbd6512a4	-0.05592598
229	0xbd1c1590	-0.0381065
230	0x3dd9816e	0.1062039
231	0x3d5ae110	0.053437293
232	0xbcb7f3f0	-0.022455186
233	0xbd92af6c	-0.07162365
234	0x3cadd397	0.021219058
235	0x3df40991	0.11915887
236	0xbd07bf12	-0.033141203
237	0x3d1cfcb9	0.038326953
238	0xbceb6556	-0.028734844
239	0xbde07a99	-0.10960884
240	0x3e1e81e8	0.15479243
241	0x3dad3f5a	0.08459349
242	0x3d244250	0.040102303
243	0xbd86948d	-0.065713026
244	0xbd6872b0	-0.05675
245	0x3eb43166	0.35193938
246	0x3e78ed0c	0.24309176
247	0x3e0f3a99	0.13987197
248	0x3bcd1786	0.0062589077
249	0xbc01721a	-0.007900739
250	0x3e77ed56	0.2421163
251	0x3e20b8dc	0.15695518
252	0x3d556f78	0.052108258
253	0xbd49be0a	-0.0492535
254	0xbda24b5e	-0.079245314
255	0x3e1288dd	0.14310022

conv2.bias f4 [32]
0	0x3e13ec07	0.14445506
1	0x3e5eed0c	0.21770114
2	0xbe908cf6	-0.28232545
3	0x3cad0e5b	0.02112501
4	0x3e212c9b	0.15739672
5	0x3c0e2d7f	0.008677839
6	0x3cae1a76	0.021252852
7	0x3ebfa5bc	0.37431133
8	0xbea3ac6b	-0.31967482
9	0xbd8e4105	-0.06945995
10	0x3df29ace	0.11845933
11	0xbbf32d93	-0.0074212044
12	0xbe30ab2e	-0.172528
13	0xbd066898	-0.032814592
14	0xbea99fd0	-0.3312974
15	0x3dc9af8d	0.09847937
16	0x3ddbba9d	0.10728953
17	0x3de9c321	0.11414171
18	0xbe6aaa48	-0.2291652
19	0xbd17bac6	-0.037043355
20	0xbdcb141a	-0.099159434
21	0x3e5c1929	0.21493973
22	0xbca348ef	-0.019932238
23	0xbd482d82	-0.048871525
24	0x3e69bbd3	0.22825556
25	0x3e347be0	0.1762538
26	0xbe6500ea	-0.2236363
27	0x3e41e1d5	0.18933804
28	0x3ebebd52	0.37253815
29	0xbd83cebc	-0.06435916
30	0x3ef2fe24	0.4745952
31	0x3db79fb4	0.08966008

fc1.weight f4 [120, 800]
0	0xbc4ba2c1	-0.01242894
1	0xbc6254e5	-0.013814186
2	0x3ce184f0	0.02752921
3	0x3b82f7aa	0.003996809
4	0xb94525ac	-0.00018801418
5	0x3c7207f4	0.014772404
6	0xbbc7abf8	-0.0060934983
7	0xbccaa41f	-0.024736462
8	0xbad742b4	-0.0016423077
9	0x3cd6e6d9	0.026233124
10	0xbd1a481b	-0.03766642
11	0x3c459f07	0.012061841
12	0xbc9f5286	-0.01944853
13	0xbcb8cb30	-0.022557825
14	0x3c901af2	0.017590974
15	0xbc373abb	-0.011183436
16	0xbb46e310	-0.0030347742
17	0xbce002b8	-0.027345046
18	0x3cc36a31	0.023854347
19	0xbd066fac	-0.032821342
20	0xbc3b3dbd	-0.011428294
21	0xbd6b7806	-0.05748751
22	0xbd27e03c	-0.04098533
23	0x3c818d98	0.015814587
24	0x3cb4996c	0.022045814
25	0xbc823227	-0.015893055
26	0x3cbda18c	0.02314832
27	0xbd0d8051	-0.0345462
28	0x3c16a3ec	0.009194355
29	0xbb0f0530	-0.002182316
30	0xbc9a8cc2	-0.018865947
31	0xbcb3a138	-0.021927461
32	0x3a40d4c0	0.0007355921
33	0x3cc1f796	0.023677628
34	0xbc88daf0	-0.01670596
35	0xbd7b2d97	-0.061322775
36	0xbbc6c33c	-0.006065754
37	0x3c5b6d28	0.013392724
38	0x3cc50d36	0.024054151
39	0x3d0e42c5	0.034731645
40	0xbc0fa5d0	-0.00876756
41	0x3b4968b0	0.0030732565
42	0xbd1c50dd	-0.038163055
43	0x3c564800	0.01307869
44	0xbd254817	-0.040351953
45	0xbcb0fe1a	-0.02160554
46	0xbc9dadd4	-0.019247927
47	0x3c5378aa	0.0129071865
48	0xbd03e76d	-0.032203127
49	0xbc551283	-0.013004902
50	0x3aa91acc	0.0012901663
51	0x3cc38c46	0.023870599
52	0xbc19306f	-0.009349926
53	0x3b9742f0	0.004616134
54	0xbcd054a1	-0.02543098
55	0xbcbac700	-0.022799969
56	0x3cde1dac	0.027113758
57	0xbd2a1b78	-0.041530102
58	0xbd81d181	-0.06338788
59	0xbceb6870	-0.028736323
60	0x3b32e9d0	0.0027300008
61	0xbceafc4f	-0.028684763
62	0xbd457d19	-0.048215006
63	0xbd11559d	-0.035482038
64	0xbd8468d1	-0.06465305
65	0xbd00bd22	-0.03143037
66	0xbd097588	-0.033559352
67	0xbccedbf4	-0.025251366
68	0x3a89617a	0.0010481321
69	0xbc425753	-0.01186164
70	0xbc30106c	-0.010746103
71	0xbaf4809b	-0.001865405
72	0x3bbc2f81	0.0057429676
73	0xbb884805	-0.004158976
74	0xbbbda863	-0.0057878955
75	0xbbb6074b	-0.0055550686
76	0x3c2e561b	0.010640646
77	0xbc0a07e8	-0.008424737
78	0x3c388ada	0.011263574
79	0xbc4349e5	-0.011919473
80	0x3b512d2b	0.0031917791
81	0xbb1a707a	-0.0023565576
82	0xbca33611	-0.019923242
83	0xbcb0b450	-0.021570355
84	0xbccf728b	-0.025323173
85	0xba770981	-0.00094237184
86	0x3cab3690	0.02090004
87	0xbcc2369f	-0.023707686
88	0xbd2858b8	-0.041100234
89	0xbd136fdf	-0.03599536
90	0x3bdafab5	0.0066827186
91	0x3c88adc9	0.01668443
92	0x3c0d98e9	0.008642414
93	0x3cc95891	0.024578365
94	0xbc4ca4a5	-0.012490426
95	0xbd18165a	-0.03713069
96	0x3b8af1da	0.0042402567
97	0xbd83fa41	-0.064442165
98	0x3c0a00bb	0.008423026
99	0x3c1fc5e4	0.009751771
100	0xbd5993c7	-0.053119447
101	0xbb9ca732	-0.0047806734
102	0xba218888	-0.00061620073
103	0x3884311e	6.303399e-05
104	0x3c17b2d7	0.009258947
105	0xbc345b66	-0.011008119
106	0x3bca7cda	0.0061794342
107	0x3bafd913	0.0053664534
108	0xbd252ebb	-0.04032777
109	0x3c936c34	0.017995931
110	0xbc953cc0	-0.018217444
111	0xbc367908	-0.011137255
112	0xbc9eaf73	-0.01937077
113	0xbd25709e	-0.040390603
114	0xbbc8f63f	-0.0061328704
115	0xbd39d06b	-0.04536478
116	0xbd84c42e	-0.06482731
117	0xbc930fd8	-0.01795189
118	0x3b203a4b	0.0024448808
119	0xbcdbcb44	-0.026830323
120	0xbd3309ca	-0.043710507
121	0xbcf5c7f2	-0.030002568
122	0xbc7abfe0	-0.015304536
123	0xbd0d1270	-0.03444141
124	0xbd36648f	-0.044529494
125	0xbce6601c	-0.028122
126	0xbcdbf5a1	-0.026850523
127	0x3b350643	0.002762214
128	0xbc8b2a03	-0.016987806
129	0xbcf11524	-0.029429026
130	0xbb0c2433	-0.002138388
131	0xbc617a36	-0.0137620475
132	0x39d9bbe2	0.0004152945
133	0xb85cbe73	-5.2629457e-05
134	0x3bf08088	0.007339541
135	0xbc8c8fe3	-0.017158454
136	0x3b86f3de	0.0041184267
137	0x3c4e39d6	0.012587031
138	0xbc09fc66	-0.008421993
139	0xbccf329c	-0.025292687
140	0x3ccdb5cb	0.0251111
141	0x3c5486dc	0.012971606
142	0xbd189528	-0.03725162
143	0xbc86f757	-0.016475363
144	0xbd07567d	-0.033041466
145	0xbce1b942	-0.027554158
146	0x3cb70937	0.022343261
147	0xbbed9def	-0.007251493
148	0xbcbe4b65	-0.02322931
149	0xbc5f9d37	-0.013648323
150	0x3b59b553	0.003321965
151	0xbc956166	-0.01823492
152	0xbc766111	-0.015037791
153	0xbd278c69	-0.04090539
154	0xbc331efc	-0.01093268
155	0xbca55d55	-0.020186106
156	0xbcc83084	-0.024437197
157	0xbc045455	-0.008076747
158	0xbd107c4a	-0.03527478
159	0xbcea804c	-0.02862563
160	0xbc94af71	-0.018150063
161	0x3c5f2894	0.013620514
162	0xbd03f108	-0.032212287
163	0xbcd66e18	-0.026175544
164	0xbd7e7457	-0.06212267
165	0x3c980699	0.018557834
166	0xbd25c64b	-0.04047231
167	0xbd058424	-0.032596722
168	0xbb88baf7	-0.0041726786
169	0xbd3cfa6c	-0.04613726
170	0x3c909d56	0.017653149
171	0x3c3c41c8	0.011490293
172	0xbcade780	-0.021228552
173	0xbcfb2375	-0.030656556
174	0xbd24ef62	-0.040267356
175	0x3c94542b	0.01810654
176	0x3cac1d87	0.021010173
177	0xbcc371bc	-0.023857944
178	0xbcdac3e6	-0.02670474
179	0xbcbb1467	-0.022836877
180	0x3c4d9986	0.01254881
181	0xbb1435a0	-0.002261497
182	0xbd05d95d	-0.032677997
183	0xbc82454a	-0.01590218
184	0xbc8599d1	-0.016308697
185	0xbc9d2bc2	-0.019185904
186	0xbc81ab40	-0.015828729
187	0xbd24219f	-0.040071126
188	0x3cc3b35f	0.023889242
189	0x3c851779	0.016246544
190	0xbc0f7b7e	-0.00875747
191	0xbc82e934	-0.01598034
192	0x3ca05de8	0.019576028
193	0x3be88edf	0.0070971097
194	0x3abef500	0.0014568865
195	0xbcd9d2da	-0.0265898
196	0x3bb92830	0.0056505427
197	0xbc8836d0	-0.0166277
198	0x3c26e5f0	0.010186657
199	0x3c3a0e8d	0.011356008
200	0xbc9e66dc	-0.019336157
201	0xbd648319	-0.055789087
202	0xbc5870ea	-0.013210515
203	0xbc9b0dc9	-0.018927472
204	0xbd67558e	-0.056478076
205	0x3d051bef	0.032497343
206	0xbd5c1923	-0.05373491
207	0xbd380b4c	-0.04493265
208	0x3afefe22	0.00194544
209	0xbd1d9baa	-0.03847853
210	0xbd19b874	-0.037529424
211	0xbd23bf07	-0.0399771
212	0xbc033187	-0.008007414
213	0xbd60ce86	-0.054884456
214	0xbd7fe3a8	-0.06247297
215	0xbc3bedf6	-0.0114703085
216	0xbd661dbe	-0.056180708
217	0xbc152153	-0.009102183
218	0xbbba9332	-0.0056938166
219	0xbd446902	-0.047951706
220	0xbc9e86a6	-0.019351315
221	0xbd570012	-0.0524903
222	0xbd5033b3	-0.050830554
223	0xbcb7f423	-0.02245528
224	0x3a755786	0.00093590503
225	0xbbe2baa8	-0.006919224
226	0xbcfd2f40	-0.03090632
227	0xbcec2a13	-0.028828656
228	0xbd04efe2	-0.032455333
229	0xbd0eefe9	-0.034896765
230	0xb9e7ac80	-0.00044188276
231	0x3cc1eb78	0.02367185
232	0xbaaf1384	-0.0013357257
233	0xbd85162b	-0.06498369
234	0xbd319d5a	-0.043362953
235	0xbc1ee407	-0.009697921
236	0xbba4cb20	-0.005029097
237	0xbca2cff9	-0.01987456
238	0xbc2d4d61	-0.010577531
239	0xbd8274ad	-0.063699104
240	0xbd3e03b5	-0.046390254
241	0xbc739b55	-0.014868577
242	0xbd10073e	-0.035163157
243	0xbd870902	-0.06593515
244	0xbc99e4af	-0.018785803
245	0xbd810705	-0.06300167
246	0xbc93f295	-0.018060008
247	0xbd6cc56a	-0.057805456
248	0xbd0fd999	-0.035119627
249	0xbd0d03af	-0.03442734
250	0xbd1f12c3	-0.038836252
251	0xbd27243b	-0.040806036
252	0xbbe2e8f5	-0.0069247433
253	0x3c1b2b68	0.009470798
254	0xbd0f239a	-0.03494606
255	0xbbb03baf	-0.0053782086

fc1.bias f4 [120]
0	0xbd40bc42	-0.047054537
1	0xbd84dc9a	-0.06487389
2	0xbd51e2d6	-0.05124172
3	0xbced00b3	-0.028930997
4	0x39c7d7fe	0.00038117165
5	0xbd9a4e44	-0.07534459
6	0xbdf9efff	-0.12203979
7	0xbd7a9f39	-0.061187003
8	0x3d3d52d3	0.046221565
9	0xbcac2b58	-0.021016762
10	0xbe32ea99	-0.17472304
11	0x3e7fad8b	0.24968545
12	0x3e8821f1	0.26588395
13	0x3ea664df	0.32498834
14	0xbd7c18cc	-0.061547086
15	0xbcd11815	-0.025524179
16	0x3dec98c4	0.11552575
17	0xbe79a834	-0.2438057
18	0x3b660ad7	0.0035101676
19	0xbc9a07a0	-0.018802464
20	0xbc8f4c89	-0.01749255
21	0xbd42e6f2	-0.047583528
22	0xbd3afe21	-0.045652512
23	0xbd1302ca	-0.03589133
24	0xbc89f9ec	-0.016842805
25	0xbcdf21ef	-0.02723786
26	0xbd5440a8	-0.051819474
27	0xbc0fcd56	-0.008776983
28	0xbd0930fb	-0.033493977
29	0x3df424bb	0.11921068
30	0xbbaee22d	-0.005337021
31	0x3ca83aca	0.020535845
32	0xbcd98404	-0.026552208
33	0xbd02dd57	-0.031949367
34	0xbc94b798	-0.01815395
35	0xbd40af2e	-0.047042064
36	0x3e861c1b	0.26193318
37	0x3e7a58f3	0.24447994
38	0xbd6871f9	-0.056749318
39	0x3d58ce70	0.05293125
40	0xbe026fae	-0.12737915
41	0xbd1d73f9	-0.03844068
42	0xbd54441c	-0.051822767
43	0xbd3dda27	-0.046350624
44	0x3d9b45ca	0.075816706
45	0x3e41e591	0.18935229
46	0xbecf708a	-0.40515548
47	0xbe13f0e3	-0.1444736
48	0xba56d193	-0.0008194681
49	0x3ca04064	0.019561954
50	0x3e94f4c6	0.29092997
51	0xbda5a8f6	-0.08088867
52	0xbcd2b03a	-0.025718797
53	0xbca6c8ee	-0.020359483
54	0xbd07e352	-0.033175774
55	0x3df24f2b	0.11831506
56	0xbabfb3e4	-0.0014625755
57	0xbd3998c3	-0.0453117
58	0xbd5dd0c9	-0.05415419
59	0xbe29ad18	-0.16569936
60	0x3cb58b17	0.02216105
61	0xbda3c992	-0.07997431
62	0x3ec9e8a6	0.3943531
63	0x3e6d0b9d	0.23148961
64	0x3ea8966f	0.32927272
65	0x3eb580b2	0.3544975
66	0x3ee73d64	0.45164025
67	0x3f13c36c	0.57720065
68	0xbd71eaa5	-0.059061665
69	0x3c4ce234	0.012505103
70	0x3be29009	0.006914143
71	0xbd4151e9	-0.047197256
72	0x3ea2c73f	0.31792638
73	0x3c8d65ca	0.01726045
74	0xbd85adf6	-0.06527321
75	0x3c674e33	0.014117765
76	0xbd4108c5	-0.047127504
77	0x3d9e1432	0.07718696
78	0x3d87279d	0.065993525
79	0x3e4ebef7	0.20190035
80	0x3e0e7bf3	0.1391447
81	0x3de0fe30	0.109859824
82	0xbe418df9	-0.18901815
83	0xbd888699	-0.066662975
84	0xbc0de5bc	-0.00866073
85	0x3e5e1d18	0.21690786
86	0x3db43d62	0.0880077
87	0xbd25aefd	-0.040450085
88	0x3baa4113	0.0051957457
89	0xbeabc3ca	-0.33547813
90	0xbc353ee0	-0.011062354
91	0x3d8574a5	0.06516389
92	0xbe4a3c05	-0.19749458
93	0xbd286e82	-0.041121013
94	0x3d1ec7ef	0.03876489
95	0x3e4054a8	0.18782294
96	0x3beb5ad4	0.0071824584
97	0x3e8ee334	0.27907717
98	0xbcf6610d	-0.030075574
99	0xbe2ce9ca	-0.16886058
100	0x3e910f03	0.28331766
101	0x3d77aa0f	0.060464915
102	0x3ed61da8	0.418195
103	0x3d2fd82d	0.04293077
104	0x3eb8cb5b	0.36092648
105	0xbd1bd643	-0.038046133
106	0xbd2e76f4	-0.04259391
107	0xbd35c06f	-0.044372972
108	0x3c945daa	0.018111069
109	0xbd407835	-0.04698964
110	0x3e11b509	0.14229216
111	0x3d0fde1a	0.035123922
112	0x3e3c5be3	0.18394427
113	0x3e6ce6a3	0.23134856
114	0x3e78fbe9	0.24314846
115	0x3d905581	0.070475586
116	0x3d84110f	0.06448566
117	0xbd58209e	-0.05276548
118	0xbcdfea05	-0.027333269
119	0xbcce0c10	-0.025152236

fc2.weight f4 [84, 120]
0	0xbd82d925	-0.06389073
1	0x3d76c6b1	0.06024808
2	0xbd9afa61	-0.07567287
3	0xbdb02491	-0.086007245
4	0xbe153ed3	-0.14574747
5	0x3c48f749	0.012265989
6	0xbe3024eb	-0.17201583
7	0xbda9f697	-0.082989864
8	0xbe286577	-0.16444956
9	0x3cfdfff4	0.031005837
10	0x3d03a2c2	0.03213764
11	0xbd4cb2c4	-0.04997517
12	0xbda9f3a0	-0.08298421
13	0xbcdf4e55	-0.027259031
14	0xbcd876bd	-0.026423806
15	0xbdfa835c	-0.12232086
16	0xbc204d63	-0.009784075
17	0x3d89f404	0.067359954
18	0x3d661f8b	0.056182425
19	0xbd535c17	-0.051601496
20	0xbdf7e081	-0.121033676
21	0x3d8cf407	0.06882482
22	0x3db1b7de	0.08677648
23	0xbd70306b	-0.058639925
24	0xbe101919	-0.14072074
25	0xbdc39134	-0.0954918
26	0xbcf99944	-0.03046859
27	0x3cc9f61a	0.024653483
28	0x3c261510	0.010136858
29	0xbd3340fb	-0.043763142
30	0xbda304c1	-0.07959891
31	0xbde3da54	-0.11125627
32	0x3d82e08f	0.063904874
33	0x3d03e290	0.03219849
34	0xbd07fc4c	-0.033199593
35	0xbd23271c	-0.03983222
36	0x3c2c8e5f	0.010531991
37	0x3dd92377	0.106024675
38	0x3ad56b99	0.0016282677
39	0x3d9eaeee	0.07748209
40	0xbb40060d	-0.0029300482
41	0xbd2632b9	-0.040575717
42	0x3d1c623b	0.038179617
43	0x3d0694ae	0.032856636
44	0xbcb5253e	-0.022112485
45	0xbdf42009	-0.11920173
46	0xbd3e290c	-0.046425864
47	0xbe32b0e8	-0.17450297
48	0xbd751895	-0.059837896
49	0x3cf98064	0.03045673
50	0xbd855f9a	-0.06512375
51	0xbd0f2860	-0.034950614
52	0xbd54a6b9	-0.05191681
53	0xbda9efcb	-0.0829769
54	0xbd868f84	-0.06570342
55	0xbc4f59c3	-0.012655678
56	0xbc82ed7d	-0.015982384
57	0xbd989250	-0.07449782
58	0x3d3d73f5	0.046253163
59	0xbd6076ea	-0.054800905
60	0x3d4e2763	0.05033053
61	0x3da57f10	0.08080876
62	0x3c7c25b5	0.015389849
63	0xbe258598	-0.16164243
64	0xbdd8101e	-0.10549949
65	0x3c2379f4	0.009977806
66	0x3dc07df0	0.09399021
67	0xbe0a7a0b	-0.13523118
68	0x3dda995c	0.10673782
69	0x3d1c7b39	0.03820345
70	0xbdef4f9a	-0.11685105
71	0xbd211a83	-0.039331924
72	0xbdafa0ec	-0.08575615
73	0xbd22d3c6	-0.039752744
74	0xbbb44217	-0.0055010426
75	0x3caf3ade	0.021390375
76	0xbd19a95e	-0.037515037
77	0x3def21b6	0.11676352
78	0x3dde3e99	0.10851783
79	0x3d0416d1	0.032248322
80	0x3dac6eed	0.08419595
81	0x3d575041	0.05256677
82	0x3cf92707	0.030414118
83	0x3da07e1a	0.07836552
84	0xbd8736c0	-0.066022396
85	0xbd1f1b9d	-0.038844693
86	0x3d364974	0.044503644
87	0xbcf96e98	-0.030448243
88	0xbdaf635b	-0.085638724
89	0xbc612247	-0.0137410825
90	0xbd25096e	-0.040292196
91	0xbddf9641	-0.109173305
92	0x3d7cc259	0.061708782
93	0x3c8aed01	0.016958715
94	0x3d6b5dc5	0.057462472
95	0x3d2b65e8	0.041845232
96	0x3d962648	0.0733152
97	0xbd6415ff	-0.05568504
98	0x3c5ad9a0	0.01335755
99	0xbd9e3d69	-0.07726557
100	0x3d2376e9	0.039908323
101	0xbd297c31	-0.041378204
102	0xbc5a749c	-0.013333466
103	0xbc88ed9b	-0.016714862
104	0xbe0f507c	-0.13995546
105	0x3d395ac8	0.04525259
106	0xbd0b65f2	-0.03403277
107	0x3d8a6340	0.06757212
108	0xbdbd6707	-0.092481665
109	0xbd9a4b67	-0.07533913
110	0x3c2f0126	0.010681426
111	0x3df32210	0.11871731
112	0x3cbd0d2e	0.023077574
113	0xbe058880	-0.13040352
114	0x3d6c5140	0.057694674
115	0x3d459c0c	0.04824452
116	0xbe0c2d2b	-0.13689105
117	0xbe03c835	-0.12869342
118	0x3c185597	0.00929775
119	0xbc94f603	-0.018183714
120	0x3dce34ad	0.10068641
121	0xbc021f2f	-0.007942005
122	0x3cd5ffbd	0.026122922
123	0xbdda0578	-0.10645574
124	0xbcd70152	-0.026245747
125	0x3cb9710f	0.022636918
126	0x3d43dff0	0.047820985
127	0x3c44793e	0.011991797
128	0x3e0c7ded	0.13719912
129	0xbd16e6d5	-0.036841232
130	0x3d684cea	0.056713976
131	0x3e443cff	0.19163893
132	0xbc8c7eab	-0.017150244
133	0xbd9f7e9c	-0.07787821
134	0xbc05bb59	-0.008162343
135	0xbd465c57	-0.048427906
136	0x3d974092	0.07385363
137	0x3df27836	0.11839335
138	0x3b28770c	0.0025705723
139	0x3d87950a	0.06620224
140	0xbd2556bd	-0.040365923
141	0xbc445f0b	-0.011985551
142	0x3d213202	0.03935433
143	0xbbe07124	-0.006849425
144	0xbd417f24	-0.04724039
145	0x3cc7bc90	0.024381906
146	0x3cdd07d2	0.026981268
147	0x3d297565	0.04137172
148	0xbd89927c	-0.06717393
149	0x3d1047d6	0.035224758
150	0x3d07f51c	0.03319274
151	0xbdfdd6c2	-0.123944774
152	0xbc83285d	-0.016010458
153	0xbd8d4235	-0.068973936
154	0x3cbe6f2c	0.02324637
155	0x3e483648	0.19551957
156	0xbde9039b	-0.11377641
157	0x3ce7865e	0.028262313
158	0xbde032a8	-0.10947162
159	0xbe302762	-0.17202523
160	0xbd1b117c	-0.03785847
161	0x3d0db7fd	0.034599293
162	0x3d521b9d	0.051295865
163	0xbdb228e0	-0.086992025
164	0x3e24088d	0.16018887
165	0xbe200914	-0.15628463
166	0x3d4f65f6	0.050634347
167	0xbc7f34ac	-0.015576523
168	0x3daeb0cf	0.08529817
169	0xbd6ce2b1	-0.057833377
170	0xbe16dbd7	-0.147323
171	0xbcfb7217	-0.03069405
172	0xbd00a0a0	-0.031403184
173	0xbc9d8edc	-0.01923316
174	0xbcd27a47	-0.025693072
175	0x3ce7b927	0.02828653
176	0xbc6bef82	-0.014400365
177	0x3d842a98	0.064534366
178	0xbbb907d9	-0.0056466875
179	0x3dc7f844	0.0976415
180	0xbd8a1be8	-0.06743604
181	0x3d55b72b	0.052176636
182	0x3d6a90ae	0.057266884
183	0x3e28dfb0	0.1649158
184	0x3e234eb0	0.15947986
185	0x3d7525d7	0.05985054
186	0xbddc971e	-0.10771011
187	0x3ca96fa7	0.020683123
188	0x3d6b2863	0.057411563
189	0xbdd1d77d	-0.10246179
190	0x3db33699	0.08750648
191	0x3e03f6d6	0.12887129
192	0xbe950ea0	-0.2911272
193	0xbcd05da1	-0.02543527
194	0xbc83865d	-0.01605528
195	0x3d36ecf4	0.04465957
196	0xbd05ae46	-0.032636903
197	0x3df74260	0.12073207
198	0xbbd0e24f	-0.0063746343
199	0x3e05e48a	0.13075462
200	0xbd9a1b42	-0.0752473
201	0x3e19b7e3	0.15011553
202	0xbd2cf1df	-0.042222854
203	0x3cb8c436	0.022554498
204	0x3c5b0242	0.0133672375
205	0x3d6bf73e	0.057608835
206	0x3dfc7a51	0.123280175
207	0x3d8b516d	0.0680264
208	0x3d565aaf	0.052332576
209	0x3d896839	0.06709332
210	0x3c9b1685	0.018931637
211	0x3e28fc57	0.1650251
212	0xbdc32a8e	-0.09529601
213	0xbd63a485	-0.05557682
214	0x3d9e8bbc	0.07741496
215	0x3da8156b	0.0820721
216	0xbd2589ac	-0.040414497
217	0xbdc0b298	-0.09409064
218	0xbb9984c6	-0.0046850173
219	0x3d02584d	0.03182249
220	0xbe011858	-0.12606943
221	0xbd1ef333	-0.03880615
222	0xbdc5e29f	-0.09662365
223	0x3d680de4	0.056653872
224	0xbd565f32	-0.05233688
225	0x3d9113e1	0.0708387
226	0xbd280905	-0.041024227
227	0x3acd7a25	0.0015676661
228	0x3dd6df09	0.10491759
229	0x3d8b85c1	0.06812621
230	0xbe21ad57	-0.1578878
231	0x3d5beac3	0.053690683
232	0x3e14fbfb	0.14549248
233	0x3c8fc89a	0.017551709
234	0x3d8b4a22	0.06801249
235	0xbdc66c1a	-0.096885875
236	0xbdd0ae7f	-0.101895325
237	0x3da55aef	0.08073985
238	0x3d7a47d8	0.06110367
239	0x3cd699e5	0.02619643
240	0x3c323c98	0.0108787045
241	0x3d2cc01c	0.042175397
242	0xbbd4d140	-0.006494671
243	0xbe40a94a	-0.18814579
244	0x3dddcf1e	0.1083052
245	0xbdbf3569	-0.09336359
246	0x3e2930d0	0.16522527
247	0x3c9a26c0	0.018817306
248	0xbd8773d3	-0.066138886
249	0xbd5d2965	-0.053994555
250	0xbd164333	-0.03668518
251	0x3d17722b	0.036974113
252	0x3d3dcdb6	0.04633876
253	0xbd39a3b8	-0.04532215
254	0x3d5198dc	0.05117117
255	0xbde30cc2	-0.11086418

fc2.bias f4 [84]
0	0x3d129cc3	0.03579403
1	0x3deca981	0.11555768
2	0x3ec9fdca	0.39451438
3	0x3e8a6a5f	0.2703428
4	0x3d3c4b1f	0.04597008
5	0x3ed424bc	0.41434276
6	0x3e265fd7	0.16247497
7	0xbe617d4e	-0.22020456
8	0xbe1c9bfa	-0.15293875
9	0xbd021bfa	-0.03176496
10	0xbd9b3628	-0.07578689
11	0xbdd8a9e9	-0.10579283
12	0x3ed9a0a0	0.4250536
13	0x3d8d038f	0.068854444
14	0x3e2572cc	0.16157073
15	0x3a7e9cef	0.0009712716
16	0xbd5c1ff8	-0.053741425
17	0x3e1e9cd9	0.1548952
18	0xbd7fe5c3	-0.062474977
19	0xbcd52e9d	-0.026023204
20	0x3ed933f5	0.42422453
21	0x3e6c154e	0.23055002
22	0x3cd9256a	0.026507098
23	0x3e9b52ca	0.303366
24	0x3e0916c9	0.13387598
25	0x3dca2a27	0.09871321
26	0xbd2be46e	-0.041965894
27	0xbc672afa	-0.0141093675
28	0xbe4d6480	-0.20057869
29	0x3ea9d86b	0.33172926
30	0xbe0d37ce	-0.13790819
31	0x3d1b9bd4	0.037990406
32	0xbdc829e0	-0.09773612
33	0xbcfc84c0	-0.030825019
34	0x3e85854e	0.26078266
35	0xbd8bd849	-0.068283625
36	0x3c8f49ae	0.017491188
37	0x3de2355b	0.11045333
38	0xbcf92c91	-0.030416759
39	0x3da3ee92	0.08004488
40	0xbcacbe09	-0.02108671
41	0x3e400779	0.1875285
42	0x3ec9faa7	0.39449045
43	0x3e103bb1	0.1408527
44	0xbd47ee0c	-0.048811004
45	0xbd959ceb	-0.0730532
46	0x3e72f3fe	0.23725888
47	0xbc8d469d	-0.017245585
48	0x3d6eb407	0.058277156
49	0x3e44f7b0	0.1923511
50	0xbd7277bd	-0.059196223
51	0xbe7541e9	-0.23950924
52	0x3ee04da8	0.43809247
53	0x3d5cf8d2	0.05394823
54	0x3ded40aa	0.11584599
55	0x3ee0585f	0.43817422
56	0x3ea7dd02	0.32785803
57	0xbda96b5d	-0.08272431
58	0xbe93b8c0	-0.2885189
59	0x3e25b4d1	0.16182257
60	0x3d4ead69	0.050458346
61	0xbcedcac9	-0.02902736
62	0x3ea213e3	0.31655797
63	0x3e577ba1	0.21043254
64	0x3c39c55d	0.011338559
65	0xbe0a93a1	-0.13532878
66	0x3e089590	0.13338304
67	0xbdcc197d	-0.09965799
68	0x3dc0437f	0.09387874
69	0xbdafb5f0	-0.08579624
70	0x3e21329a	0.15741959
71	0x3efaf2d1	0.4901338
72	0xbe485ab3	-0.19565849
73	0x3ec88181	0.39161304
74	0x3da4fde6	0.0805624
75	0x3d69290b	0.056923907
76	0xbd11fafb	-0.035639744
77	0x3d2ea9d7	0.04264244
78	0xbd82aa0e	-0.063800916
79	0x3d6f571b	0.05843268
80	0x3eec4c8e	0.46152157
81	0x3e2be2fc	0.16785806
82	0xbe25030c	-0.16114444
83	0xbdaadf5b	-0.08343383

fc3.weight f4 [10, 84]
0	0xbda6d2ed	-0.081457
1	0xbe278b07	-0.16361628
2	0xbe5a984a	-0.21347156
3	0xbe0a44f6	-0.13502869
4	0x3b644e95	0.0034836878
5	0x3d63bf3a	0.05560229
6	0xbdde1a40	-0.108448505
7	0x3c71955d	0.014745084
8	0x3e3c5f61	0.18395759
9	0xbe92e4f8	-0.28690314
10	0x3dc22163	0.09479024
11	0xbdfab4ee	-0.12241541
12	0xbd8c839d	-0.06861041
13	0xbcbdfbf0	-0.023191422
14	0xbe60065a	-0.21877423
15	0xbe228672	-0.158716
16	0xbe227245	-0.15863903
17	0x3d9c6e07	0.076381736
18	0xbe6f7051	-0.23382689
19	0xbe19873a	-0.14992991
20	0xbe1c430e	-0.15259954
21	0xbc98a7b1	-0.018634649
22	0xbe3c0363	-0.18360667
23	0xbeb44c3d	-0.35214415
24	0xbcdaabe3	-0.02669329
25	0xbd83fcde	-0.06444715
26	0x3cad4f2b	0.021155914
27	0xbdb82cdc	-0.08992931
28	0x3d922084	0.07135108
29	0x3e0d1663	0.13778071
30	0xbe0b53d0	-0.1360619
31	0xbe7b82b9	-0.24561585
32	0x3c4bfcb5	0.012450387
33	0xbe43cf76	-0.19122109
34	0xbe12581a	-0.1429142
35	0xbd232034	-0.039825633
36	0x3bd3969d	0.0064571635
37	0xb9f8876a	-0.00047403137
38	0xbd054310	-0.03253466
39	0x3dadaa83	0.08479788
40	0x3d6c1697	0.05763873
41	0x3e169d06	0.14708337
42	0xbdb7a803	-0.089675926
43	0x3da4bcef	0.08043849
44	0x3e03587e	0.12826726
45	0x3d3907da	0.045173503
46	0xbe0919b8	-0.13388717
47	0xbdccfa9c	-0.100087374
48	0x3e0a631e	0.13514373
49	0x3d27186f	0.040794786
50	0xbe47f44b	-0.19526784
51	0x3deb183c	0.11479232
52	0xbcb3b167	-0.021935178
53	0x3e32ccd5	0.1746095
54	0x3d913a80	0.07091236
55	0x3e2230cc	0.15838927
56	0xbea02111	-0.31275228
57	0xbd6e8226	-0.058229588
58	0x3c89c103	0.016815668
59	0x3c88da56	0.016705673
60	0x3db8abb8	0.09017128
61	0x3d9c9e86	0.076474234
62	0xbe5d93c4	-0.216384
63	0x3b83b6a9	0.0040195775
64	0x3d0dce4c	0.03462057
65	0xbd29b8c8	-0.041435987
66	0xbd806538	-0.06269306
67	0x3c1362e0	0.008995742
68	0x3e05edaf	0.1307895
69	0x3db112fb	0.08646198
70	0x3db25f19	0.08709545
71	0xbea0a2b6	-0.3137414
72	0x3ddcbf92	0.10778727
73	0xbe0196b5	-0.12655146
74	0xbe7fabbb	-0.24967854
75	0xbd7bef4f	-0.06150752
76	0xbd512880	-0.051064014
77	0x3d05401f	0.032531854
78	0xbcde654b	-0.02714791
79	0xbe1868af	-0.14883684
80	0x3e17b11c	0.14813656
81	0x3d6882ba	0.056765296
82	0x3d862318	0.06549662
83	0x3b8721ac	0.004123887
84	0x3c8c9f6a	0.017165858
85	0xbe1628fb	-0.1466407
86	0xbe18fbf8	-0.14939868
87	0xbd7d6d0a	-0.061871566
88	0xbe8256cd	-0.2545685
89	0xbd8fc00b	-0.07019051
90	0x3e14844e	0.14503595
91	0x3e157d04	0.14598471
92	0xbc415e17	-0.011802218
93	0xbe3516d0	-0.17684484
94	0xbe600de7	-0.21880303
95	0x3bddf9a1	0.006774143
96	0xbe296598	-0.16542661
97	0x3daebd42	0.08532192
98	0xbe0bb4e2	-0.1364322
99	0xbdda2015	-0.106506504
100	0x3e63e359	0.22254695
101	0xbddb8ad8	-0.10719842
102	0xbd07d166	-0.033158682
103	0x3e4937ba	0.19650164
104	0xbe6bf670	-0.23043227
105	0xbe3cae26	-0.18425807
106	0xbe2754fa	-0.1634101
107	0x3d4c4c40	0.049877405
108	0xbe75f052	-0.24017456
109	0xbd07f059	-0.033188198
110	0xbe080e8c	-0.13286799
111	0xbe37515d	-0.17902131
112	0x3df4ba65	0.119496144
113	0xbe069137	-0.13141333
114	0xbece10cb	-0.40247187
115	0x3c5f1cc8	0.013617702
116	0x3d5032ff	0.050829884
117	0xbe3e3c0f	-0.18577598
118	0x3cd8e3b2	0.026475761
119	0x3d973d65	0.07384757
120	0xbe0a5f40	-0.13512897
121	0xbe13770a	-0.14400879
122	0xbe11a499	-0.14222945
123	0xbe14a2d1	-0.14515235
124	0xbdca3d04	-0.09874919
125	0xbe17162d	-0.14754553
126	0xbe5c88cc	-0.21536559
127	0xbcd9f239	-0.026604759
128	0x3d0e9117	0.034806337
129	0x3c4c0217	0.01245167
130	0x3c405b39	0.011740499
131	0xbe919511	-0.2843404
132	0x3e1857f3	0.148773
133	0x3d9b25db	0.0757558
134	0xbd01fcba	-0.03173516
135	0x3dd4da6d	0.10393224
136	0xbd8b4aed	-0.068014
137	0xbbb27058	-0.0054455213
138	0x3dc2c335	0.09509889
139	0xbe98c194	-0.29835188
140	0xbe7d58b4	-0.24740869
141	0xbdef1ab7	-0.11675017
142	0x3e09b159	0.13446559
143	0x3dee0521	0.11622072
144	0xbcce5f55	-0.025191942
145	0xbdb2a042	-0.08721973
146	0xbe1209c2	-0.14261535
147	0x3d809fc6	0.06280474
148	0xbcb8ae6f	-0.022544114
149	0xbddecb33	-0.10878601
150	0x3d3f0819	0.046638582
151	0xbdc25ca9	-0.0949033
152	0xbc938c8b	-0.018011352
153	0xbe42f751	-0.19039656
154	0xbda95986	-0.08269028
155	0xbd10dca0	-0.035366654
156	0x3dd5e4c7	0.104440264
157	0x3d0c7e15	0.03429993
158	0x3dfca341	0.12335826
159	0x3e318cf0	0.1733892
160	0xbe1c7fcd	-0.15283127
161	0x3e1c48d2	0.15262154
162	0x3d49c710	0.049262106
163	0x3e31ed50	0.17375684
164	0x3c734f8c	0.014850508
165	0x3c24d185	0.010059719
166	0x3ce4002f	0.027832119
167	0x3d080d1c	0.033215627
168	0xbe1f627e	-0.15564916
169	0xbcb5c66c	-0.022189341
170	0x3d62f76c	0.05541174
171	0xbd504da3	-0.05085529
172	0x3d70d2e0	0.058794856
173	0x3de08119	0.109621234
174	0xbdce0cac	-0.10061011
175	0xbe027b73	-0.12742405
176	0x3dd86565	0.105662145
177	0xbe0ed3b6	-0.13947949
178	0x3dc7f3cb	0.09763297
179	0xbc5d438d	-0.013504875
180	0x3cfc6a6a	0.03081246
181	0xbe161bab	-0.14658992
182	0x3e16fa26	0.14743862
183	0x3d05b07c	0.03263901
184	0x3d97ffc9	0.07421834
185	0x3dc0f0aa	0.09420903
186	0xbde7d71a	-0.11320324
187	0xbe8f7599	-0.28019407
188	0x3e527d04	0.20555502
189	0xbe77e12d	-0.24206991
190	0xbdaa4012	-0.08313002
191	0xbe22e130	-0.15906215
192	0x3c8d0239	0.017212974
193	0x3d594259	0.05304179
194	0x3cdd2ba1	0.026998343
195	0xbd314288	-0.04327634
196	0x3e141df0	0.14464545
197	0xbcf8d3ab	-0.030374369
198	0x3d8df92a	0.0693229
199	0x3d5064d9	0.050877426
200	0xbcb16cb1	-0.021658273
201	0x3e184059	0.14868297
202	0xbce9cbfd	-0.028539652
203	0xbe696bc3	-0.22795014
204	0xbc28da30	-0.010305926
205	0x3e22426a	0.15845647
206	0xbbd427de	-0.006474479
207	0x3e0bc300	0.13648605
208	0x3de4ab8a	0.11165531
209	0x3e32eb06	0.17472467
210	0xbdbe4596	-0.09290616
211	0xbdb302bc	-0.08740756
212	0x3e03edbf	0.12883662
213	0xbe04bc72	-0.12962511
214	0x3cd423eb	0.025896033
215	0xbdf0860b	-0.11744317
216	0xbe4aa9d5	-0.19791348
217	0xbe817be0	-0.25289822
218	0xbbe84217	-0.0070879566
219	0x3d9084ec	0.07056603
220	0xbc9d2d78	-0.01918672
221	0x3e1e5c38	0.15464866
222	0xbe066faa	-0.13128534
223	0x3dd47bc6	0.103751704
224	0x3cf18540	0.029482484
225	0xbe23848f	-0.15968536
226	0x3deb967c	0.11503312
227	0xbd78fe63	-0.060789477
228	0xbe81c58e	-0.25346035
229	0x3e67880a	0.22610489
230	0xbe719e96	-0.23595652
231	0x3cc51525	0.024057934
232	0x3cac0f52	0.021003399
233	0xbc445e48	-0.011985369
234	0x3dd14fe7	0.10220318
235	0xbca9ca68	-0.020726398
236	0xbdebc9fb	-0.11513134
237	0x3cfe0cee	0.031012025
238	0x3dab7d60	0.08373523
239	0xbd93e722	-0.072218195
240	0xbddd5e9a	-0.108090594
241	0xbdf1ea3b	-0.11812254
242	0x3e3e0437	0.18556295
243	0xbb949298	-0.004534077
244	0x3c74ef17	0.014949582
245	0xbd5a6cea	-0.053326525
246	0xbe58f0ee	-0.21185657
247	0xbd3050f7	-0.043045964
248	0xbe9bcc6c	-0.304294
249	0xbd653e93	-0.05596788
250	0xbdae38aa	-0.085069016
251	0xbcbcf780	-0.023067236
252	0x3c2e2580	0.010629058
253	0x3deccaad	0.11562095
254	0xbcfd4035	-0.030914405
255	0xbe03cca3	-0.12871031

fc3.bias f4 [10]
0	0xbde8f0c9	-0.11374051
1	0xbe969864	-0.2941314
2	0x3c903664	0.01760406
3	0x3db9dcde	0.0907533
4	0x3e74d966	0.23911056
5	0xbde45696	-0.111493275
6	0x3da1f515	0.07908074
7	0xbe06d868	-0.1316849
8	0x3e0b717b	0.13617508
9	0xbe2de4fc	-0.16981882
