code/Test1_official_demo/Lenet.pth (torch, 487471 bytes, 10 tensors)

conv1.weight f4 [16, 3, 5, 5]
00000000: 976d e33d 022a d7bd 26eb 27bd 36cd 32be
00000010: 9e39 043e 9e3e 1b3c e2d5 aebd 6187 2bbc
00000020: bdbb 19be 0985 a63d 85be 2bbe bfbe 9f3b
00000030: c3f0 193e d6a4 3b3e 3b5e 363d 1b77 e23d
00000040: 507e 6b3d d2da 31bd 379f d13d ef89 60be
00000050: e206 393d 3c30 80bc f744 2bbe 69e9 2dbc
00000060: a7e2 13be ed17 a4bc 303f 1dbd 03e3 debd
00000070: 216a e6bd 11cc a53d 0a03 80bc 7742 a2bd
00000080: 9ec8 0ebe 956a 35be c783 2e3e 1eec 85bd
00000090: ab1b de3d 16f7 703e 1c86 9b3e d609 603d
000000a0: e759 a33c fb65 403e c17f 653d a250 f83d
000000b0: 7224 38be 0a0e e8bc 88b1 2f3d 7351 e2bd
000000c0: eabb 80bd 7cf4 22bd 63d9 353d 40cf 57bd
000000d0: db55 08be 6633 0fbe 8cab 8b3c e3f1 bdbd
000000e0: ed76 febd 282d 663d 559d 0dbe 2775 09bc
000000f0: a73c 823d 8283 b7bd 7aa6 0b3e 4e7b 5f3e
00000100: bd29 433d f89e fcbc aa8d e23c ccbb 5a3d
00000110: 34e1 cf3d 8015 09be 9dc8 a03d 6594 7e3d
00000120: b82d d0bd 7f11 363d d634 2c3a 4a4b 173e
00000130: 1f9f debd 121e edbd 6468 20bc fa62 0f3d
00000140: c798 493e 2ecf 243d c225 13be fd2a 433d
00000150: 3f0a 2b3e 9c17 1a3e 44fe 58bd 68a2 ecbd
00000160: 3b22 00be 1ecd 9a3d 418d e5bc d8cb 9e3d
00000170: 55fe e0ba c3db 8a3c f70f 41be a741 dfbd
00000180: df8f af3d a8c1 723d 41c3 313d 501f 13be
00000190: 9491 dd3d 6fe9 d93c a8ec f5bd c582 c7bd
000001a0: 0eb5 b7ba 5b06 3d3e db00 94bd d39a 5bbe
000001b0: 091b 02be c858 9e3d 81a5 533e 1c7f 3abd
000001c0: c6b8 b0bd fcef 1ebe 2b73 0f3e 62b2 b1bd
000001d0: f5d5 9cbc fde9 3b3e cb61 fa3b b1cb 28be
000001e0: 4cfb 523c 8a14 033d a09b 123e 8393 9e3d
000001f0: b610 0bbe b8eb b63d d487 86bc 0961 42bd
00000200: 8f89 78bd 7789 ec3d 0ccb 413d 9bd6 5e3b
00000210: 5922 b7bd e1b1 53bc 40e6 19bd 15a7 ae3d
00000220: 95ae 9b3c c468 f2bd 6eec b0bc 66b0 f53d
00000230: dc76 4bbd 6187 233e d44f 203e 3f6d 993c
00000240: 7511 e8bd fe4b 03be 6a59 bd3d 77a6 033d
00000250: 617d f73d 21b3 15be bad1 04be 5c56 cebd
00000260: 124a 2cbd bc7e 893d 922c eabc 0c7b 133e
00000270: 3e49 863e f51a 443e 20c9 8a3e f9f4 053e
00000280: 1cc0 313e ce0d 343e 4937 d73d 2c0d 063e
00000290: ad9d 593d 9dd3 a4bd 7105 dbbc 1484 c33c
000002a0: 12b5 14bd 81a6 40be c654 3dbe 2f9b dabd
000002b0: 0c45 36bd bf74 d2bb dd00 7a3c 887a 053d
000002c0: 2157 19bd 2771 95bd e78a 51bd ae65 f53c
000002d0: d4a2 b2bd 7675 783c 87a6 ef3c 8328 2a3d
000002e0: 8454 0fbd 9a32 9a3d c892 4fbc 1a08 193c
000002f0: 8a39 cd3c 1603 10bc f13a 27be 91eb 47be
00000300: 68e7 35be d33c aebd e738 51be ff8f d4bd
00000310: 3030 633d a390 ddbd c313 6bbd bfbd 23bd
00000320: 3805 463b 4ef0 943d e0ff 233d a54c 373d
00000330: bf30 b33d 3967 4d3d f050 96bd 6393 183e
00000340: 7d18 44bd 0110 8cbd af08 163e 8115 7abb
00000350: e0c8 c8bc e31c 05bd 5593 ee3d 2482 04bc
00000360: 9c9d e8bd 491b 81bb 04de 78bd ab7e 88bd
00000370: 384c d93d 11aa d33c d43e 00bd c9cc 60bc
00000380: 2eaa 303d ca4d 383d 5eee c2bd 37ac 2b3c
00000390: 0038 a63c 286d fa3d 0d77 5b3d 88da bdbb
000003a0: b5a0 54bd a2c3 0d3d d110 093c 874e b2bd
000003b0: 6ef1 37be c956 30be 07cb aebc f7e5 feba
000003c0: 58f7 bbbd 69a3 e2bd d0f8 bc3c 6b4c 423d
000003d0: 4762 4abd 2987 93bd 5ecd a0bd 8ec6 053d
000003e0: 8844 babc 22da d83b 075c b53b 439c 15be
000003f0: 61ab b33c 2b66 9ebd 96e9 61bd ad54 fc3b
0.11104887 -0.10506059 -0.04099574 -0.17461094 0.12912604 0.009475378 -0.08536889 -0.010469289
-0.15013023 0.08130843 -0.16771896 0.0048750336 0.1503325 0.18324599 0.04452346 0.11057874
0.057493508 -0.043421574 0.10235446 -0.21927617 0.04517258 -0.015648 -0.16725527 -0.010614731
-0.1444193 -0.02003094 -0.03839034 -0.10883143 -0.11250711 0.08095563 -0.01562645 -0.079228334
-0.13943717 -0.17716439 0.17042457 -0.065391764 0.10845121 0.23531756 0.30375755 0.05469688
0.01994033 0.18788902 0.05603004 0.121247545 -0.17982653 -0.028327007 0.042893916 -0.110506915
-0.06285842 -0.03978394 0.04439677 -0.052687883 -0.13314001 -0.1398445 0.017049573 -0.09274652
-0.12425027 0.056195408 -0.13829549 -0.008389748 0.06359225 -0.0896063 0.13637725 0.21824381
0.047647227 -0.030837521 0.027655441 0.053401753 0.10150376 -0.13387108 0.07850764 0.06215324
-0.1016497 0.04445028 0.00065691525 0.14774814 -0.10870194 -0.11578001 -0.009790514 0.0350065
0.19687186 0.040236644 -0.14369872 0.04764842 0.16703127 0.15048069 -0.05297686 -0.11554414
-0.12513058 0.07558654 -0.028021457 0.07753724 -0.0017165641 0.016950494 -0.18853746 -0.10901194
0.08572363 0.059266716 0.0433991 -0.14367414 0.108187824 0.026600568 -0.12008029 -0.09741739
-0.001401575 0.18459456 -0.07226726 -0.2144578 -0.12705626 0.077317774 0.20668603 -0.045531377
-0.08628993 -0.15521234 0.14008777 -0.08676602 -0.019144991 0.18350978 0.0076410524 -0.16483952
0.012877297 0.03200201 0.14317179 0.077429794 -0.13580593 0.089316785 -0.01642219 -0.04745582
-0.06067806 0.11549657 0.04731278 0.0034002427 -0.08942098 -0.012920828 -0.0375731 0.08527962
0.019004146 -0.11836389 -0.021597113 0.11996536 -0.0496739 0.15969612 0.15655452 0.01872885
-0.11331455 -0.12821957 0.0924557 0.032141175 0.12084461 -0.14619114 -0.1297063 -0.100750655
-0.042062826 0.06713626 -0.028585706 0.14402407 0.26227754 0.19150908 0.2710657 0.13081731
0.1735844 0.17583391 0.10508592 0.13090962 0.053128887 -0.080481745 -0.026735993 0.02386669
-0.036305495 -0.18813516 -0.1848937 -0.1067413 -0.044499442 -0.0064226086 0.015258995 0.032587558
-0.03743661 -0.07296973 -0.05115786 0.029955711 -0.08722463 0.015164724 0.029254211 0.04154254
-0.03499271 0.07529183 -0.012669273 0.0093403105 0.02505185 -0.008789798 -0.16331078 -0.19523455
-0.17764056 -0.08507695 -0.20431863 -0.103790276 0.055465877 -0.10818603 -0.057391893 -0.039975878
0.0030215513 0.07272397 0.040038943 0.04475083 0.08749532 0.05014727 -0.07339656 0.14899974
-0.047874916 -0.0683899 0.1465175 -0.003815979 -0.024509847 -0.03249825 0.11649195 -0.008087669
-0.113581866 -0.00394002 -0.060758606 -0.06664785 0.10610241 0.02583793 -0.031309918 -0.0137207
0.043131046 0.04499606 -0.09518121 0.010478071 0.020290375 0.12227851 0.053580333 -0.005793873
-0.051911075 0.034610398 0.008365826 -0.08706384 -0.17963192 -0.17220606 -0.021337045 -0.0019447197
-0.091780365 -0.11066324 0.023067862 0.04743616 -0.04941013 -0.07203514 -0.07851671 0.03266006
-0.022737756 0.0066178003 0.005534652 -0.1461039 0.021932306 -0.07734331 -0.055154406 0.007700524

conv1.bias f4 [16]
00000000: b842 75bc 82ac a73d 2ba7 15be 93a6 88be
00000010: 5ae9 0bbe 0c42 083e 3b89 303e 6bae 45bd
00000020: 12cf 623c 5b38 81bc d8cd 123d fdad bbbd
00000030: f167 0a3c 07a6 1a3a ddf3 b53d 73b1 62be
-0.01496952 0.081872 -0.14614551 -0.26689586 -0.13663235 0.13306445 0.1723985 -0.04826204
0.013843315 -0.015773943 0.03584084 -0.09164045 0.008447633 0.0005899374 0.08884404 -0.22138004

conv2.weight f4 [32, 16, 5, 5]
00000000: 88fd b9bd 15c0 c3bd ccef 4ebd ab9e 80bd
00000010: 035d 20bd fd2a 07be 80ab c1bd e71b febd
00000020: 23cc 57bd b0e4 5aba 4c1c f1ba 0ad4 c9bb
00000030: 3aed acbc 36eb 0f3b 9b02 113e 35be 2c3d
00000040: 2958 2bbc edd4 0abd 891d be3c 30a4 0b3e
00000050: 2fb8 8d3c 4f66 afb9 b2ee e93c c456 803d
00000060: e24f d23d 1718 463d 14f3 c8b8 4d66 b9bd
00000070: e29a 00be c23c 3abd d17c 153d 8abc 03bd
00000080: 0276 93bd a306 11be 4a24 dcbd bd39 a63d
00000090: 79a8 a43b ec40 d9bd 32f6 82bd ea49 e5bd
000000a0: cd7b a63d cce3 c33b 9139 d7bd dbd2 88bd
000000b0: 7bb6 afbd a565 1d3d 47c8 c43c acf7 02be
000000c0: 2d44 1bbe 46bf 0abe d27b 013e b6ee 313d
000000d0: 1f4b 6c3d adbd 853d 6042 df3d b53a e23d
000000e0: 1870 923d aed0 b63d 3186 a73d 27af 323d
000000f0: 094a 163e 12d6 3f3e dd49 163e 9430 2d3e
00000100: f4af 043e 960c 7d3b aabd 053d b878 983c
00000110: beb2 bc3d 729d a03d daa1 1bbe 1506 fdbd
00000120: 4d57 11bc d6b2 3f3c feba 69bc 589e 883c
00000130: 31e3 3f3c a447 4ebd b66c 4ebd c6ec bd3d
00000140: 8600 ad3d e21e 483d 7638 2f3d c099 693a
00000150: 0789 1d3d f962 b93d d264 023d cbff 3c3c
00000160: ea62 5eba aca6 ba3d 375e bf3d f58d bc3d
00000170: 83c9 863d f372 b33d 7235 723d a5fd 4d3d
00000180: e07d 8b3d 80dc 7f3d a513 303c 7c7a c93c
00000190: fc7b 90bc 6855 dfbd a38c cdbd f38a f0bd
000001a0: d653 9bbd d3c5 373d aafe 54bc dfdc d5bd
000001b0: 916d 26be 7450 95bc 4968 023e b799 0cbd
000001c0: 928e 1dbe 3b97 03be f891 19bd 6002 99bb
000001d0: 2ebf a5bd 4f8f e6bd 4906 06be cd87 80bc
000001e0: 6e7a e13a 87e3 31be f4b1 70be 258b 87be
000001f0: 0c3f 9ebd 3113 8c3d 3d69 e3bb dacc ccbc
00000200: b1be 343d 9514 bc3c 8dd6 b53d 9890 c73c
00000210: fedb bf3b c7c4 153d 9d37 853d 7e36 b53d
00000220: 1ca6 8ebc 1b05 bb3c 2d43 13bc 6a27 693a
00000230: 880d 013e 8c6a 0d3c 21e9 453d ec70 fd3c
00000240: b563 f6bc ad4b 213e f00c c03d 8adc 033d
00000250: 33a8 a3bc eacf 093d ef99 eebd 5cb2 98bd
00000260: 96c7 6dbd a7e2 3dbd 344f 2d3d d450 c9bd
00000270: b096 bbbd 9cea b2bd 1800 1f3c e62d 3b3d
00000280: c618 613b 836b e03b dd11 313c 1aba a93d
00000290: bc26 b53d a743 373c 6e25 d63c d336 a43c
000002a0: 7491 353d 3b86 d63d 2b40 0e3d a1cd 8c3c
000002b0: ac07 dcbc 390b 403d 92de b23d 1e77 b7bc
000002c0: 049e 123c e421 a63b 7467 cc3d bb6d 483d
000002d0: 78ee d93c 9249 da3c 87ad 683d eebf 953d
000002e0: 5229 c33d d7ed 693d 3d32 883d f98b 903d
000002f0: 7927 743d b838 f83c 7813 3f3d 0646 babb
00000300: 7a29 e7bc ce94 9f3c e1f4 2ebd 810f 36bc
00000310: 1f54 39bd d3a6 f7bd 0751 98bd 6e28 e9bc
00000320: 5ae6 733d 9bfc 9e3d f110 723d 9caf 553d
00000330: f94f 9a3d 37fe a63d d304 cfbc 8f41 43bc
00000340: 5350 a33c 9f13 97bc d6c0 8fbc 8051 aebd
00000350: 792d 31bd 0bb7 58bc ac57 9ebc b621 ac3c
00000360: c1be 5fbd 4201 b9bd 3462 08be a09f 28bd
00000370: ebbb 8e3d 86e5 1c3c 1e3d 903c fdc7 c43c
00000380: 2eb9 d03c 59c3 debd f868 cdbd 4f85 8dbd
00000390: 9565 93bd ca90 a03c 0e25 0abe 3d83 29be
000003a0: f388 01be dda6 f9bd ae12 363c 6f8d 1dbe
000003b0: 33d6 56be ea51 1dbe b6de 0dbe 96a9 103d
000003c0: bd9e 63bd 94e8 ffbd 444d d8bd cad2 85bd
000003d0: 830c aa3d b642 0dbd 16f7 e5bd 848e 3fbe
000003e0: 1351 e3bd 4eb7 fb3c 9861 803b 3d1a 0b3c
000003f0: 8610 81bd 8059 0cbe 19b9 21be dd30 033e
-0.090815604 -0.09558121 -0.050521657 -0.062802635 -0.039151203 -0.13199992 -0.09456539 -0.12407666
-0.052684914 -0.0008350117 -0.0018395274 -0.00615931 -0.021109212 0.0021960265 0.1416115 0.042173583
-0.010458031 -0.033894468 0.023207443 0.13636851 0.01729974 -0.00033454827 0.028556202 0.06266549
0.10269143 0.048362818 -9.58202e-05 -0.090527155 -0.12559083 -0.0454681 0.036495987 -0.032162227
-0.072002426 -0.14162688 -0.10749109 0.081164815 0.0050249663 -0.10608086 -0.06394614 -0.111957386
0.08129082 0.0059780832 -0.10509027 -0.066808425 -0.08579727 0.038427014 0.02402128 -0.12789792
-0.15162726 -0.13549528 0.1264489 0.043440543 0.05768883 0.065303184 0.10901332 0.11046354
0.071502864 0.08926521 0.08179892 0.04362407 0.1467668 0.18734005 0.14676614 0.16913062
0.12957746 0.0038612238 0.03265158 0.01861225 0.0921378 0.0784253 -0.1519846 -0.12354676
-0.008870912 0.011700353 -0.014265774 0.016677067 0.0117118815 -0.05036129 -0.050396644 0.092736766
0.084473655 0.048857577 0.042778455 0.0008911155 0.038460758 0.09052081 0.03183443 0.011535595
-0.0008483367 0.091138214 0.09344142 0.09206764 0.06581404 0.08762159 0.059133 0.050290722
0.06811118 0.062466145 0.010746871 0.024594538 -0.017637245 -0.10904962 -0.1003659 -0.117452525
-0.0758435 0.044866394 -0.01300017 -0.104425184 -0.16252734 -0.01822684 0.12735094 -0.03432628
-0.15386418 -0.12850659 -0.037492722 -0.0046694726 -0.08093105 -0.11257803 -0.13088335 -0.015689755
0.0017202625 -0.17371951 -0.23505384 -0.26473346 -0.07726869 0.06839598 -0.0069400356 -0.025000025
0.04412717 0.022959033 0.08878813 0.02436094 0.0058550825 0.036564615 0.06504748 0.08848284
-0.017413191 0.022829583 -0.008988184 0.0008894118 0.12602818 0.00863136 0.048318032 0.030937634
-0.03007684 0.15751524 0.09377468 0.032192744 -0.019977665 0.033645548 -0.11650454 -0.07455894
-0.058051668 -0.04635873 0.042311862 -0.0982987 -0.09159601 -0.087361544 0.009704612 0.04569807
0.0034347042 0.006848754 0.010807482 0.08287449 0.088452786 0.011185563 0.026140895 0.020045673
0.044328168 0.10474821 0.034729164 0.017187895 -0.026859127 0.046885703 0.08733858 -0.022395667
0.008948807 0.005069958 0.099806696 0.048932772 0.026602969 0.02664641 0.056806114 0.07311998
0.095293656 0.057111587 0.06650207 0.07057948 0.059607957 0.030300483 0.046649426 -0.005684617
-0.02821802 0.019480135 -0.042714003 -0.011112095 -0.04524624 -0.12092366 -0.0743733 -0.028461661
0.059545852 0.077630244 0.059098188 0.052169427 0.07534785 0.081539564 -0.025270855 -0.011917486
0.019935763 -0.018441973 -0.017548006 -0.08511639 -0.043256257 -0.013227235 -0.019328915 0.021012168
-0.054625276 -0.09033443 -0.13318712 -0.041167855 0.06969436 0.009576207 0.017607268 0.024021143
0.025478926 -0.10877103 -0.10029787 -0.06910192 -0.071971096 0.01960029 -0.13490698 -0.1655397
-0.12649898 -0.1219003 0.011112852 -0.15385984 -0.20980148 -0.15363279 -0.13854489 0.03531798
-0.055571306 -0.12495533 -0.10561612 -0.065343454 0.08303168 -0.03448745 -0.112287685 -0.18706709
-0.11099448 0.030727055 0.003917884 0.008490142 -0.0630198 -0.13706017 -0.15793265 0.12811609

conv2.bias f4 [32]
00000000: 7f33 543e ae4d 2abe 8475 983e ec4d 52bd
00000010: 1524 4abe 3cf6 da3d 263f 1f3e 564d 8d3d
00000020: 73eb 823e d53b 80bd d0ce 84bc c028 a0be
00000030: e9ee 08bd 8f02 6bbe 4c9a 833d d85b f43d
00000040: 5a39 163d 262f abbd 1329 47be 93ee 793e
00000050: 6ab8 0abd 87c5 173e a4d0 cb3b a2ff 963e
00000060: 2342 41bd e87f d13d 300a 93bd ca2d a1bd
00000070: dd85 4fbd 7800 0c3e c78c 223d c4b2 d83d
0.20722769 -0.16631195 0.29777157 -0.051343843 -0.19740327 0.10691497 0.15551433 0.06899516
0.25570258 -0.06261412 -0.016211897 -0.3128109 -0.033430967 -0.22950195 0.06425914 0.1193158
0.03667579 -0.08358602 -0.19449262 0.24407415 -0.033867277 0.14821444 0.0062199403 0.29491907
-0.047182214 0.10229474 -0.071796775 -0.07870062 -0.05066477 0.13672054 0.039685037 0.10580972

fc1.weight f4 [120, 800]
00000000: fd35 23bd 560d aebc bb3e 353d 6b6d 07bd
00000010: 3405 91bd 6674 60bd a25b 0ebd b5c1 013d
00000020: 4cb3 22bc c1ae 3dbd 9134 6c3b 10fc 5ebb
00000030: bdcd 90bd 6d8d 03bd 152a 20bc c247 143d
00000040: 7fa0 48bd d20c abbd 76bc 7fbd b442 a03b
00000050: 68a7 c5bc d20d e0bc 59ba a5bc e8f7 5d3c
00000060: ca62 6cbd d0f3 e83c a63e 2cbc 6d05 6fbd
00000070: f977 7cbc 6431 13bd e7c1 9cbc 5d9f 44bd
00000080: c55b c0bd a021 aabd 4ae0 f2bc 8097 38b6
00000090: 48af d5bd 56a8 bfbd c86d 97bd fac5 dfbb
000000a0: 4c15 063c f459 26bd b901 c5bd 0650 a6bc
000000b0: d668 19bc 29a7 7abd 2ec4 47bd 19c5 96bd
000000c0: bda9 78bc a350 dfbc 5c55 2bbe 9789 a6bd
000000d0: 19af 20be b0f2 f1bd ee1a b8bd 07fb b6bd
000000e0: af96 3abb 2d9e 183d 712b 69bd b05e cebd
000000f0: 5383 c8bd 6b7c c33c 57ef de3d af86 aa3d
00000100: 44a7 09bd 8649 7dbd 8688 853d ea48 c13d
00000110: be58 3c3d da2a 07bd 940f 92bc 993f 723d
00000120: a7b4 013d 7194 9e3a b86e 90bd 527f b8bc
00000130: 6828 b13a 5540 7fbd dcd9 8abc 1ee8 85bd
00000140: b3db 3f3c 6356 063d e6b7 8dbd 9041 59bd
00000150: 09fc 8abb a9a6 c83c 94da a13c 0401 c0bc
00000160: 1bf6 283c 3ff7 1dbc 6de4 413c a8f5 ec3c
00000170: f05b c8bc e1a3 eb3c e25c c4bc 6363 32bc
00000180: c9b6 89bd c131 13bd ec73 29bc 69e5 9dbc
00000190: d470 9e3d 1590 723d 217c 0a3e d66b 09bd
000001a0: e48a 2c3c 4967 743d c3a2 b2bd 634c 7d3d
000001b0: da7f 123d d747 21bd 96c2 f73c 4c70 c8bd
000001c0: 1201 fabd fc70 93bd 69b4 6bbc b3e2 be3d
000001d0: bd2b 903c 6f44 2abc fc51 ae3c e9eb af3d
000001e0: 9d26 123d 439e 56bc 3f3c d13c be70 013e
000001f0: 6b5a a33d 84cd 1a3d b39e a9bd 87a8 923d
00000200: 31c3 3a3c 63d7 6dbc 22bd c9bb 83ca 1cbd
00000210: 2024 3a3d 93db 2b3d 24af a93c bc13 34bc
00000220: 7675 e73c 44c6 943d f3fe 5c3d 42c0 0f3e
00000230: fe87 34bc 79ae 023e 9f13 ff3d 8894 843d
00000240: c551 103e cac2 33bd 1f0d 973d dbf4 1b3d
00000250: 2f22 c93c 4480 5a3d 24f8 823d fcb0 043c
00000260: d963 033d ccc4 403d bcff 833c 5578 073e
00000270: 6611 723d 5b68 dc3c b3e2 823c 2bbe 95bd
00000280: c7f0 0e3e aaa2 d43a e533 093d 6569 0fbd
00000290: 5edb 63ba 3fef 5f3d 80e5 0cb9 112e 663d
000002a0: b97d 28ba 60f6 abbc 39cb 30bd 58a6 68bd
000002b0: 3db0 93bc fb14 05bd df93 223d 6521 1e3e
000002c0: d6d8 123e f136 3b3d 80ad b33d c6a8 073e
000002d0: f4ea 1ebd e924 0ebd 3352 47bc 7c71 59bc
000002e0: a5e8 3bbc 4a09 85bc 227a 153c 57b9 f0bc
000002f0: 213e 7ebd 3742 82bc b5d7 773c f113 1dbd
00000300: c304 543b a8c4 aebc d399 deba 6e4e 153b
00000310: 22c0 ccbb 3a22 913d 2fbe cb3b 6d37 903d
00000320: 1bc7 1f3d 9c67 e93d 0bb8 8f3d f860 193d
00000330: 1bb8 e33d fcac 1c3d 5d7d b43d 8db9 e93d
00000340: 67f7 c43d 9add 873d 8008 ce3c 76e3 023e
00000350: f86e 2a3e 1120 c23d a948 c23d 47a1 a13d
00000360: 3b84 723c 7574 8ebc 126e 72bd f9fb 153c
00000370: fb7c c13d ce40 d73a 1eac 0dbd 6347 25bc
00000380: e1d3 3c3d 57b8 23bd d9d3 dbbc 7ac1 44bd
00000390: f8d1 e0bc 3395 cabd 7266 5abc 688b 733d
000003a0: 1a50 963d 5314 d8bb 9122 4cbd 18ef 0e3d
000003b0: fc63 e138 bf68 eb3b b012 0dbd d9a5 a83d
000003c0: a7b3 903d af82 0fbd 0d27 2b3d 21f5 5a3d
000003d0: 4001 ca3d fd0a 04bc 13dd 88bd 89e5 113d
000003e0: 9266 253d 41af 7cbc e0e9 143e 40cf 173d
000003f0: 003c bebd fd09 ddbc 9a52 b83d 5b59 ea3d
-0.03984641 -0.021246593 0.044249278 -0.033063333 -0.070810705 -0.054798506 -0.034755357 0.031678874
-0.009930443 -0.046309236 0.0036042074 -0.0034024753 -0.070704915 -0.032117296 -0.009775658 0.036201246
-0.048981186 -0.08352055 -0.06243559 0.004890764 -0.024127677 -0.02735034 -0.020230459 0.013547875
-0.0577114 0.028436571 -0.010512983 -0.058354784 -0.015409463 -0.035935774 -0.019135429 -0.048003543
-0.09392504 -0.08307195 -0.029647965 -2.7506321e-06 -0.10433823 -0.093582794 -0.07393986 -0.0068290206
0.0081837885 -0.04061313 -0.09619469 -0.02030183 -0.009363374 -0.061194573 -0.048771076 -0.07361812
-0.0151771875 -0.02726013 -0.16731781 -0.08131712 -0.15691794 -0.11813867 -0.089895114 -0.089345984
-0.0028471162 0.037260223 -0.056926195 -0.10076654 -0.09790673 0.023863038 0.10885494 0.0832647
-0.033606783 -0.061837696 0.065201804 0.094377354 0.04598307 -0.03299985 -0.017829694 0.059142683
0.031666424 0.0012098682 -0.07052368 -0.022521649 0.001351607 -0.06231721 -0.016949587 -0.065384135
0.011710095 0.03279723 -0.069198415 -0.05304104 -0.0042414707 0.024493532 0.019757546 -0.023437984
0.010312582 -0.009641468 0.011834246 0.028925732 -0.024457902 0.028764667 -0.023970071 -0.010887953
-0.067243166 -0.03593612 -0.010342579 -0.01927443 0.07736364 0.05921944 0.13523914 -0.033550106
0.010531161 0.059668813 -0.087224506 0.061840426 0.03576646 -0.039375152 0.030244153 -0.09787044
-0.122072354 -0.071992844 -0.014386275 0.09320583 0.017598981 -0.010392292 0.021279328 0.08589918
0.035681356 -0.013099256 0.025541423 0.12640664 0.0797623 0.03779365 -0.082822226 0.0716105
0.011399076 -0.014516684 -0.0061565796 -0.038279068 0.045444608 0.04195745 0.020713396 -0.010991033
0.028254252 0.07264379 0.053954076 0.14038184 -0.011018751 0.12761869 0.12454914 0.064736426
0.14093693 -0.043886937 0.073755495 0.03807531 0.024552433 0.05334498 0.06394985 0.008098837
0.032077644 0.04706268 0.016113155 0.13229497 0.059098624 0.02690523 0.01597724 -0.07311662
0.13959037 0.0016222794 0.033496756 -0.03501262 -0.0008692051 0.054671522 -0.00013436936 0.056196276
-0.00064274255 -0.020991504 -0.04316256 -0.056799263 -0.018028373 -0.03249071 0.039691802 0.15442427
0.14340529 0.045706693 0.08773327 0.13247976 -0.038798288 -0.03470317 -0.012165594 -0.013271686
-0.011469041 -0.016239781 0.009123357 -0.029385252 -0.06207097 -0.015900714 0.015127112 -0.038349096
0.003235147 -0.021334007 -0.0016983099 0.0022782343 -0.00624849 0.07086606 0.00621774 0.07041822
0.03900824 0.11396715 0.07017525 0.037445992 0.111191 0.03825091 0.08812974 0.11412344
0.09617501 0.06634064 0.025150537 0.12782082 0.16643894 0.094787724 0.09486515 0.07892089
0.014802034 -0.017389515 -0.059187002 0.009154313 0.09447666 0.0016422512 -0.034587972 -0.010087821
0.0461005 -0.039970722 -0.026834415 -0.048036076 -0.02744387 -0.09891739 -0.013330089 0.05945912
0.07339497 -0.0065942197 -0.049837653 0.034895986 0.000107474596 0.0071841176 -0.03444165 0.08234758
0.07065516 -0.03503674 0.04178529 0.05345643 0.0986352 -0.00805926 -0.066827916 0.035619292
0.04038102 -0.015422643 0.14542341 0.037062883 -0.09288788 -0.026982302 0.0900013 0.114428245

fc1.bias f4 [120]
00000000: c723 263e 09e7 0f3c 0022 c2bd 882b 183b
00000010: 3f8c 02bd 57ac 9e3c 30ed e23d 2a76 6e3b
00000020: 6c09 91bc 406d 033e 4d86 7ebd 9acf 0c3e
00000030: 4f07 03bc cd8d efbc 90b0 6b3e 9e40 453e
00000040: 07df e8bc e959 d6bc 0210 763e df55 2f3e
00000050: b80e e5bc 4d1c 4fbd cd1f a4bd e100 7dbd
00000060: 607e 93bd a6d3 e93d 61ac 0dbd f784 dd3d
00000070: f0e0 8d3c ff74 d3bb b1eb 0f3e 7cda a13e
00000080: 698a 03bc cb6c 4bbd a826 a63d 5fa0 73bd
00000090: 1683 74bc bcfe 5f3d 292a 18bd 83b3 e8bb
000000a0: b26f 093c 0d8b d13c 3bd6 6abe 37a7 ad3d
000000b0: 7a23 db3d f7b8 25bd f936 45bd c355 bebd
000000c0: 4290 d5bc 6b9d 633e d68a 113e 9721 753d
000000d0: 004f 4b3d d470 e3bd 4def 4cbd e304 1ebd
000000e0: 17df 1f3c df3a 7cbc 9ee4 27bd 9f01 a3bc
000000f0: 3136 05bd c207 723e c5a6 dcbc 7945 603e
00000100: a714 37bd 6efd e0bc 2446 11bd 4472 21bc
00000110: 2e25 0abd d617 0fbd d174 08bd fb4a 23bd
00000120: e295 c53a 9927 983d 0644 55be b813 463c
00000130: 6ade 373e 5d3e 5abd 74e1 d93c c551 2dbd
00000140: 7ca8 84bc 37dc 903d fc69 f13d 2aaf 983d
00000150: 0905 aebd 3dbf ce3c 81ad fc3b 79c9 a1bb
00000160: df99 32bc f173 d93c df14 27bd 1878 983d
00000170: 70d1 bcbd 12dd 393d 0e82 00bb 6980 c8bc
00000180: a4a3 fdbc 1fe2 14bd 25a8 2fbd cbe8 c5bd
00000190: 9c3b 89bd 0230 23bd 794b 87bd 1f54 5b3e
000001a0: 0fdd f0bb 1f5d f23d f8e4 48bd 30e3 9dbc
000001b0: 34d4 573e 117e c1bc c495 773e 88fe 8bbd
000001c0: 708d 80bd 26d2 313e ec9a 203e 549a 923e
000001d0: 20d4 2abe 803a 4f3e 1d16 04bd 57f3 703e
0.16224585 0.00878311 -0.09479141 0.0023219306 -0.03187203 0.019369287 0.11080396 0.003638635
-0.017704688 0.12834644 -0.062139798 0.13751069 -0.007997348 -0.02924242 0.23016572 0.19262931
-0.02842666 -0.02616592 0.24029544 0.17122601 -0.02796112 -0.0505641 -0.08013878 -0.061768416
-0.072018385 0.11417322 -0.03458822 0.10816377 0.017319173 -0.006453156 0.14054753 0.31612003
-0.008028605 -0.0496643 0.08112842 -0.059479114 -0.014923831 0.054686293 -0.037149582 -0.0071014776
0.008388447 0.025579 -0.22933285 0.08479159 0.10700126 -0.0404596 -0.04814813 -0.092937015
-0.026069764 0.22228019 0.14213118 0.059846487 0.049635887 -0.11105505 -0.050032903 -0.03857888
0.009757779 -0.015394895 -0.04098951 -0.019898234 -0.032522384 0.23635772 -0.02693499 0.21901502
-0.04469743 -0.027464595 -0.035467282 -0.009853903 -0.033726864 -0.03493484 -0.03331453 -0.03986643
0.0015074576 0.07429428 -0.2082673 0.012089662 0.17955938 -0.05328213 0.026596762 -0.04231431
-0.01619362 0.07073253 0.11787793 0.07455285 -0.08497054 0.025237674 0.007711113 -0.0049373475
-0.010900944 0.026544543 -0.04079139 0.07444781 -0.092196345 0.045376845 -0.0019608769 -0.024475293
-0.030961819 -0.03634846 -0.042884964 -0.09663542 -0.06700823 -0.039840706 -0.06606192 0.21418808
-0.007350571 0.11834168 -0.049046487 -0.01927337 0.21077043 -0.023619683 0.24178225 -0.06835657
-0.06276977 0.17365322 0.15684098 0.28633368 -0.16682482 0.2023716 -0.03224765 0.23530327

fc2.weight f4 [84, 120]
00000000: c96a ad3d 8448 18bd 4932 bf3c 5f72 23bd
00000010: b06b d83c cd7a 153d 93e5 8abd 0f62 1d3d
00000020: 04fd e03d d108 f83c dec6 c4bd a614 97bd
00000030: ab54 57bd 0895 9f3c a0f1 e43d 6e47 693d
00000040: 1f35 15bd 22b4 d2bd 3399 af3c fe57 3fbd
00000050: 0d19 48bd b84e 9fbd ea0b ffbd 6499 823c
00000060: 0850 25bd a2a3 7c3d 32a4 7f3c 11ba ab3d
00000070: f4e2 aa3d b667 423d 19fd 933d c901 f2bc
00000080: 9c34 a73d 8f20 723d eda9 c03c fed0 de3d
00000090: ceb6 cfbc 1d2e cfbd 221d 043c ec94 1abd
000000a0: 042e 8a3c 2e51 57bd 8c31 aabc c1d8 f93b
000000b0: 040f b3bc 3ae3 823d 0718 ba3c 2458 e0bd
000000c0: 6285 94bb ebb6 983d a6b1 5e3d 6786 233d
000000d0: 7fb7 133e 8e62 953b b373 933c 3159 ac3c
000000e0: 0c26 7c3d 8f0a 88bb 8ce1 73bd 97c5 803d
000000f0: 02ee 6c3b 7c7f d33d 4dc3 803d 81ee e03c
00000100: b2a4 76bd 39b0 0c3c 22fa 183d e8c1 7e3c
00000110: 2085 723d 9899 11bd 7df7 b83d b51d 41bd
00000120: 8658 ba3d 7c92 78bc ba31 ffbd 07a4 9a3c
00000130: 2b02 0bbe 9896 b0bc b5a3 fdbd 4075 ac3d
00000140: bdcc b6ba 533e 003e b82a 863d 3dcd cb3a
00000150: 1efd d33c c7a4 9c3c 760a 1d3c 6013 c93d
00000160: 8f8d 0fbc f8da 90bd 1d63 d23d d3d5 c43c
00000170: 9324 ab3d b175 0a3e 004f 7b3d 2bc7 903c
00000180: f3ac 7a3d 8094 72bd c088 413d d87f e03b
00000190: a192 3a3c 607a 803c 065b 033d b620 1d3e
000001a0: fbfb 9d3d eba6 4a3e f9ec 17bd 2393 323d
000001b0: 9924 423e 3acd 8e3c 31e4 d83d 7967 d9bd
000001c0: 89aa 8abd f874 1b3d 16dd dc3d 1e0f c83d
000001d0: 4a3f 5fbd 330f 033e fab4 84bd 98fd 3c3e
000001e0: 5d82 bfbd 1a8b 8ebd 38b1 9b3d 0028 3439
000001f0: 38cc b5bd 2800 ea3c f472 35bd 1ca6 443d
00000200: 2862 243d e882 aebd a86e 7bbc 28ff 00bd
00000210: c0b3 ad3b 944b 8bbd d00b 5cbc 5c46 6fbd
00000220: 9206 6bbd e34f a2bd e15b 96bc 1e48 043d
00000230: d63f a23d 4cd7 4a3d 8885 863d 30a6 b73d
00000240: d974 a2bd 4d9e 6cbd 7c08 b93c 343e 2b3d
00000250: 8914 84bc b6e8 87bd 93e1 e0bd 9ad6 8cbd
00000260: 649a 183d df4f cbbc 3d81 b7bd 52e0 a53d
00000270: cae2 b2bb 331c 95bc 200c 97bb e842 9a3c
00000280: 8876 ff3c 80ad e63b 9bdb d4bd ea8a 073b
00000290: c7ae ddbd 88d4 223d d566 e6bd beaf ffbd
000002a0: 8eca a6bd dfb2 c1bd e5c4 a63c 803b d4bd
000002b0: 5187 773b e736 9c3c 5caf 843d 0ca6 cd3c
000002c0: 20a3 e53b 8079 b4ba 787d f23c e0bd 9cbd
000002d0: 62ba 9a3d b902 cdbb 3853 803c bf6c cdbb
000002e0: a019 4e3c 42cc aebd 63f5 8ebd 1a30 963d
000002f0: c0dc 07bb acb7 4c3d e66b 893d 2ccc b4bd
00000300: a44b 163d 3f8c 963c 5cd1 12bd 3640 86bd
00000310: b53e 63bd e044 803d 9345 a5bd 7014 203d
00000320: d093 b53d ee5d aabd 70c8 373c 5a66 c0bd
00000330: c858 e6bd 4049 7cbc fc00 5fbd 1f02 d2bd
00000340: 789b b8bd 8b4e abbd b71e adbd 19f4 99bd
00000350: 946b 8cbc ce99 92bd d87f 40bc 381b 08bc
00000360: 1c03 953d 40d8 9f3b c0a0 ab3c b501 bcbd
00000370: 9425 e43c 90fe 2cbc e010 fabb 931f 69bd
00000380: b400 773d e436 94bd 833b 23bd b05b 5d3d
00000390: b5ed a03d e309 97bd 6d9a 89bd b480 51bc
000003a0: dcc7 0cbd 02cd babd b8c0 92bd b443 373d
000003b0: a30d b5bd b230 ce3c 862e 49bd 81b4 a63c
000003c0: 77d9 9dbc 76bb 4e3d d7e9 8e3d f682 74bc
000003d0: f8a0 a33d dd1a c7bc 14a1 cf3d 3f6b 5cbd
000003e0: 0ee0 e8bd c715 633c 304e 8b3c 029e d9bc
000003f0: 707f 523d 51ad 013c 491e fd3c ff79 133e
0.08467633 -0.03717853 0.023339408 -0.039903995 0.026418537 0.036494065 -0.06782069 0.038423594
0.10985759 0.030277641 -0.096082434 -0.07376985 -0.05257098 0.019480243 0.11178899 0.056952886
-0.036427613 -0.10288264 0.021435356 -0.046714775 -0.048852015 -0.07778686 -0.12453444 0.015942283
-0.040359527 0.06167949 0.015603112 0.08385099 0.08344069 0.047462188 0.07226009 -0.029541867
0.08164331 0.05911308 0.023518527 0.10879706 -0.025355723 -0.10116217 0.008063586 -0.03773968
0.016867645 -0.052567653 -0.020775579 0.007624716 -0.021857746 0.06390996 0.022716535 -0.109543115
-0.004532502 0.07456764 0.054368638 0.039923098 0.14425467 0.004558868 0.017999506 0.021038624
0.06155972 -0.0041516493 -0.05954127 0.06287687 0.0036152606 0.1032705 0.06287251 0.027457478
-0.06021566 0.008586937 0.03734792 0.015549161 0.05920899 -0.03554687 0.0903158 -0.04714747
0.09098916 -0.015171643 -0.124606565 0.018877042 -0.13575046 -0.021556184 -0.1238474 0.08420801
-0.0013946515 0.12523775 0.06551117 0.0015548837 0.025877532 0.01912154 0.009585014 0.098181486
-0.008761778 -0.07073015 0.102728106 0.02402774 0.08356585 0.13521458 0.061354637 0.017673096
0.061200093 -0.059223652 0.047249556 0.0068511777 0.011387498 0.015683353 0.03206923 0.1534451
0.07714077 0.19790237 -0.03709123 0.04359735 0.18959273 0.017431844 0.10590399 -0.10615439
-0.06770808 0.037953347 0.10784356 0.097685084 -0.054503717 0.12798767 -0.06479831 0.18456113
-0.09351037 -0.06960125 0.07602161 0.00017181039 -0.08876842 0.028564528 -0.04429908 0.048009977
0.04013267 -0.08521062 -0.015346207 -0.031493336 0.005300969 -0.06801525 -0.013430551 -0.05841671
-0.057379313 -0.079253934 -0.018354358 0.03229534 0.07922332 0.04952173 0.06568438 0.089672446
-0.07932443 -0.057768155 0.022587053 0.04180737 -0.016123073 -0.06636183 -0.10980525 -0.068768695
0.037256613 -0.024818359 -0.08960197 0.08099426 -0.0054591643 -0.018201923 -0.0046095997 0.018830732
0.03118445 0.007039726 -0.10393449 0.0020682164 -0.10824352 0.039753467 -0.112500824 -0.12484692
-0.08144103 -0.09457945 0.020357559 -0.10362911 0.0037769864 0.019069148 0.0647876 0.025103591
0.0070079714 -0.001376912 0.029600844 -0.07653403 0.07555081 -0.006256428 0.015664682 -0.006269067
0.012579352 -0.08535053 -0.069803976 0.073333934 -0.0020730942 0.04997985 0.06710033 -0.08828005
0.03669323 0.018377421 -0.035844192 -0.06555216 -0.055479724 0.06263137 -0.08069911 0.03908199
0.088660836 -0.08318697 0.011217222 -0.09394522 -0.112474024 -0.015398324 -0.0544443 -0.10254311
-0.09014028 -0.0836459 -0.08453124 -0.07517261 -0.017141141 -0.07158242 -0.01174923 -0.008307271
0.07275984 0.004878074 0.020950675 -0.09180013 0.02784995 -0.010558739 -0.007631406 -0.056914877
0.060303405 -0.07237032 -0.039851677 0.05404252 0.07857839 -0.073749326 -0.067189075 -0.012787033
-0.03437029 -0.091211334 -0.071656644 0.0447423 -0.088404916 0.025169704 -0.049116634 0.020349743
-0.019268734 0.050471745 0.06978195 -0.014923802 0.07989687 -0.024304802 0.10138145 -0.053813215
-0.1137086 0.013860173 0.017005056 -0.026564602 0.051391065 0.007914857 0.03089823 0.14402007

fc2.bias f4 [84]
00000000: 1668 533e 0f99 99bd 3c06 b73d 08e8 85bb
00000010: 2b03 163d b405 643e d9ae 183e 85ab b13e
00000020: 5b69 b53d 72ff 063e 35db db3d 4872 1c3d
00000030: 7580 27be bc8e 323e f27d eebd 2c77 083e
00000040: 1bd8 8e3e 6617 513e 7a41 a63c e56a ae3d
00000050: bec9 fd3d 73f0 533e 8f89 06be 200b 8b3d
00000060: 3b0a 813e 2af0 6dbd 77d5 22bb 095f 423e
00000070: e2a4 2fbc 0d94 88bd ffa9 a53d 55d2 bbbd
00000080: 2d09 8fbd 989c 1e3d 78e4 2c3e ff49 fa3d
00000090: 6d8f 463e 58ec 9dbc b93e d5bd 4b27 9d3d
000000a0: 2f33 083d 4455 283d fa53 0cbd 90cd f737
000000b0: 4309 873e 6480 bc3d cfb7 e93c 1a7e 82be
000000c0: 1e84 2fbd aa57 a93d 9c1d 6cbe cbe1 823c
000000d0: c68c 483e 117a 07be c87b 7e3e f043 003d
000000e0: b2f2 cbbd f10a ca3d 8355 aa3c e7d9 d2bd
000000f0: 78bc e53d e8b2 acbd 1541 4c3d be52 d83e
00000100: 71ee 7d3e 65a8 bbbd f773 da3d 8ece c33e
00000110: c5e1 7d3d 9276 933d 7335 aabd 0c08 94bd
00000120: 90c0 8bb9 25fc b13d edb2 053e 9939 4f3e
00000130: 8b65 e1bd 4d52 dd3c 8dae 63bd 2262 983d
00000140: 4a92 103d 7d1f 90bd bb85 93bd bda5 403c
0.20645174 -0.07499897 0.08936736 -0.004086498 0.036624115 0.222678 0.14910449 0.34701172
0.088579856 0.13183382 0.1073517 0.038194925 -0.16357596 0.17437261 -0.11645116 0.1332671
0.2789925 0.20419082 0.020294894 0.08516482 0.12391995 0.20697193 -0.13138412 0.06789231
0.25203118 -0.058090366 -0.0024846473 0.18981566 -0.0107204635 -0.066688634 0.08089065 -0.09170977
-0.06984172 0.03872356 0.16884029 0.12221145 0.1939065 -0.019277737 -0.10412354 0.0767351
0.033251937 0.04109694 -0.034259774 2.9540417e-05 0.26374254 0.09204176 0.02853003 -0.25486833
-0.042850606 0.08268674 -0.2305817 0.015976807 0.19584951 -0.13230158 0.24851906 0.03131479
-0.099584 0.09865368 0.020792728 -0.10295468 0.11217588 -0.08432561 0.049866755 0.42250627
0.2479799 -0.09162978 0.1066665 0.38243526 0.06198289 0.0720035 -0.08310976 -0.07228097
-0.00026655616 0.08690671 0.13056536 0.20236816 -0.11005696 0.027016783 -0.055586386 0.07440592
0.035295762 -0.07037256 -0.072032414 0.011758265

fc3.weight f4 [10, 84]
00000000: 88b3 1cbe e229 7bbd bead f53d ead6 91bd
00000010: d748 eebd 91d4 8f3d 9da6 0abe a067 6a3c
00000020: f2b0 78be 3367 b33d 5f20 74bd adb2 35be
00000030: 568c 013e 5e57 19be a29d fbbc 0918 a5bd
00000040: 68da b8bc 3e9d 4b3d 93b1 253c 18be e4bd
00000050: 8ed5 dfbd 9684 e93d dbd3 29be b7c0 1a3d
00000060: e645 32be b8ec 59bc 8020 5cbd a888 1dbe
00000070: db0d 1f3e a29c e8bd fd28 05be 2c18 193e
00000080: 7fbc b8bd a51e 77bd 6176 b53c 7839 033e
00000090: 3343 f63d 672e e7bd 592a 86bd 8261 453d
000000a0: aac7 26be 8e2c dc3d 9ce8 ac3d 94ad aabd
000000b0: 454e 993d 2b93 693d 3da1 05be baf6 8dbd
000000c0: 2590 063e b6b6 29be 51de 783c 3986 b4bd
000000d0: ac8f 693d 2b6b 993d 74b0 f5bd 229a 19bd
000000e0: f2e6 86bd 90ee a5bd 0221 713d 8aee a7bd
000000f0: 6960 e4bd 6331 1d3c 6e3a 3abe d880 093d
00000100: b509 443d c108 84bd c3d4 33be f48c 14bd
00000110: 222b 293c ed18 2ebd d181 6a3d e7cb 103e
00000120: 4b17 33bd 98ac 883d f5ce 893d 3232 033e
00000130: cd8d c2bd 4c67 67bd cd62 bf3d 543a 01be
00000140: 2139 82bd b5ca 0c3e 4f50 77bc a390 a03d
00000150: b4b8 37be ed45 e0bd bddb 14bb 5376 fa3d
00000160: 3f28 f5bc b968 41be 58ae cd3c 6f87 0dbe
00000170: 3067 693c 6770 883d b7c2 843d eada 083e
00000180: 4938 a43d 3bbf 26be 49db 553d 42d4 8e3d
00000190: 41b4 47bd 97c0 4fbe e7f5 9b3d 14c0 e9bd
000001a0: 7bfe bebd e0c6 db3c 6c7f 193e fbd2 d93d
000001b0: 8d70 ae3c b78c abbd e61d 50bd a0e0 0a3d
000001c0: cbc9 933d bb29 14be 8ea8 ab3d 11d4 24be
000001d0: 9ea0 bfbd c37c 75bd 3aba 643d f1d4 58be
000001e0: 618f 893b ea70 89bd a4c7 4cbd b7f6 6f3d
000001f0: 716e f5bd d528 c1bd 694a 94bd 35e3 c4bd
00000200: c7de 88bc c820 d93d 140e 0dbe 0510 983d
00000210: ecbb 1ebd a57b b23c e327 073e fab2 e83b
00000220: 097a 473c cd61 3f3e 98d5 4dbe f2e2 f9bd
00000230: fc3b cdbd a973 89bd d60c 06be 5821 b93c
00000240: f031 033d f09e 9dbd 3b6d d5bd cfd1 2cbe
00000250: 4e43 ffbd 98c0 a0bd 5430 1b3d a4f6 71be
00000260: fd98 8bbd 1513 fc3d d255 963c 32e2 a3bd
00000270: 344a 9d3d 5b46 c8bd 2af5 9abd ca9c fdbb
00000280: 7d66 1b3d 8099 f0bd 6a86 f2bc c7d3 dc3d
00000290: 5f4d 82bc 9cd4 523c 8807 31bc 4b79 a2bd
000002a0: 1b7f e53d f3b2 42be 5a83 273e 641a f53c
000002b0: 1898 a7be b5b4 a43d aad9 f9bb 9542 93bd
000002c0: 7e5d eebd a4fa c5bd d218 f13c 7649 063e
000002d0: 33ae 8b3c fbe2 473d af64 92bc 6960 dbbd
000002e0: 25e0 02be ab94 373e 1f20 fabd 6a30 a5bd
000002f0: 9a69 46bd edf4 953d 4421 43bd 064e d5bd
00000300: 6993 0dbd d2a5 aebd 3b2e a1bc a3d8 03be
00000310: cd99 3abe 8215 16be c0a5 2a3d 906b 333d
00000320: dc72 c1bc 970a 353d 9895 bcbd 9815 53bd
00000330: 4aa7 a73d 3fe2 1ebd 0866 003d c582 f63d
00000340: 6d95 61bc 4fa5 0d3e 46bd ccbb 400a 1b3e
00000350: e399 26be 583e 91bd 930d 023e fd02 693d
00000360: 3bb4 ecbd 940e 37bd 3702 013d 94cb 923d
00000370: a5ac 76bd 85f2 c5bd 33c4 00bd 5330 213d
00000380: ab91 8dbd 4b81 573e 448e f53d 6e8b 73bd
00000390: 4d40 0ebe 1d7d be3c a5d4 3cbe 712b 993c
000003a0: 2395 1ebd 9b05 d4bd 878b 18bd 7683 59bd
000003b0: b20d 44bd acd4 cdbd 0565 a6bd 1cae e23d
000003c0: 6baa b13d 48aa 4fbd 84cf d4bd 8e92 85bd
000003d0: 34ea a0bd b88c 443d a70d d23d e9dc 9fbd
000003e0: 8793 a23c ef76 01bd 20c2 a7bd 04fa 92bd
000003f0: 22d3 3bbd 62fe dbbd 1593 67bd 5d88 30be
-0.1530286 -0.06131924 0.11996029 -0.0712107 -0.11634987 0.07022966 -0.1354012 0.014306933
-0.2428625 0.08759918 -0.059601184 -0.1774394 0.1265119 -0.14974734 -0.030714814 -0.08061225
-0.022565082 0.049710505 0.010113138 -0.1116907 -0.10929404 0.11402242 -0.16584723 0.037781443
-0.17409477 -0.013301067 -0.053741932 -0.15384161 0.15532629 -0.11358 -0.13003917 0.14950627
-0.09020328 -0.06033196 0.022151174 0.12814891 0.12024536 -0.112881474 -0.06551046 0.048188694
-0.16287103 0.10750686 0.08442804 -0.08333889 0.07485632 0.057025116 -0.13049789 -0.06931825
0.13140924 -0.16573605 0.015189723 -0.088146634 0.05702178 0.07491144 -0.119965464 -0.037500508
-0.06587018 -0.08102143 0.05886937 -0.081997946 -0.11151201 0.009594294 -0.18186352 0.03357014
0.04786082 -0.06446982 -0.17561631 -0.036267236 0.010325225 -0.04250424 0.05725271 0.14140283
-0.043723386 0.06673545 0.06728927 0.12812117 -0.094997026 -0.056494996 0.09345017 -0.12619907
-0.06358553 0.13749202 -0.015094831 0.07840087 -0.17941552 -0.10950837 -0.0022713982 0.122296
-0.029926417 -0.18887605 0.025107548 -0.13821195 0.014245793 0.06662064 0.064824514 0.13364759
0.08018548 -0.16283886 0.05221108 0.06974079 -0.048755888 -0.20288311 0.076152615 -0.11413589
-0.09325882 0.02682823 0.14990014 0.106359445 0.021293903 -0.083764486 -0.050809763 0.033905625
0.07216223 -0.14469044 0.08381759 -0.16096522 -0.09356807 -0.059933435 0.055841662 -0.2117498
0.0041980003 -0.0671099 -0.04999508 0.058584895 -0.11983956 -0.09431616 -0.07240755 -0.09613649
-0.016707791 0.10601956 -0.13774902 0.074249305 -0.038753435 0.021787474 0.1319881 0.007101414
0.012175092 0.18689652 -0.20101011 -0.122014895 -0.10021207 -0.067115135 -0.13090834 0.022598907
0.032030046 -0.076963305 -0.10421225 -0.1687691 -0.12464009 -0.07849234 0.037887886 -0.23629242
-0.068162896 0.12308327 0.01835147 -0.08002128 0.07680169 -0.09779044 -0.075662926 -0.007739638
0.037939537 -0.11748028 -0.02960511 0.10782581 -0.015906034 0.012868073 -0.010805018 -0.07933291
0.11205884 -0.19013576 0.163587 0.02991981 -0.32733226 0.0804228 -0.0076248245 -0.07190434
-0.11638926 -0.096669465 0.02943078 0.1311396 0.017050838 0.04880045 -0.017870275 -0.10711748
-0.12780817 0.17927806 -0.12213158 -0.08065875 -0.048440553 0.073221065 -0.047639146 -0.104152724
-0.03456441 -0.085277215 -0.019675365 -0.12875609 -0.18222733 -0.14656642 0.041661978 0.04380375
-0.02361434 0.044199552 -0.0920822 -0.051534265 0.08186205 -0.038789984 0.031347305 0.12036661
-0.013768536 0.13832591 -0.006248149 0.15140629 -0.1626964 -0.07091969 0.1270049 0.056887615
-0.11557814 -0.044691637 0.031496253 0.07167736 -0.06022324 -0.096653976 -0.03143711 0.039352726
-0.069125496 0.21045415 0.11990026 -0.059459142 -0.13891716 0.023253018 -0.18440492 0.018697472
-0.038716447 -0.10352632 -0.03724244 -0.053103887 -0.047864623 -0.100503296 -0.08124737 0.11068365
0.08675083 -0.050699502 -0.10391143 -0.06522094 -0.07857171 0.047985762 0.1025651 -0.07805807
0.019845737 -0.031607565 -0.08191323 -0.07176593 -0.04585565 -0.10741879 -0.056536753 -0.17239518

fc3.bias f4 [10]
00000000: 208a 22be 93b5 5ebe 9e25 c93d af02 b03d
00000010: 5309 4b3e 9079 16bd a1eb a7bd 4aed 20be
00000020: ded2 383e f39c ca3a
-0.15873003 -0.21748953 0.09821628 0.08594262 0.19827776 -0.036737025 -0.081992395 -0.15715519
0.1804919 0.0015458151
