code/write_numbers_demo/Lenet2.pth (torch, 180603 bytes, 10 tensors)

conv1.weight f4 [6, 1, 5, 5]
0	0x3de504b5	0.111825384
1	0x3d503e22	0.050840504
2	0xbebeda3d	-0.37275878
3	0xbe52f6cf	-0.20601963
4	0xbeeed80e	-0.46649212
5	0xbc506d6f	-0.0127214035
6	0xbb936805	-0.004498484
7	0x3c82828b	0.015931388
8	0xbe40c8a7	-0.18826543
9	0xbeac7cd7	-0.33688995
10	0xbc4a25d7	-0.012338123
11	0x3e92b116	0.2865073
12	0x3e11717b	0.14203446
13	0x3eae482a	0.34039432
14	0x3e91cf07	0.28478262
15	0x3cbf47b9	0.02334963
16	0x3d112d63	0.035443675
17	0x3ed98d11	0.42490438
18	0x3db6dd15	0.08928887
19	0x3e946913	0.28986415
20	0xbd68dca1	-0.056851033
21	0xbde7ba54	-0.11314836
22	0xbe1bf5f7	-0.15230547
23	0x3e202781	0.1564007
24	0xbe0b5e82	-0.1361027
25	0x3ebfc7f4	0.3745724
26	0x3ed22a70	0.41048002
27	0xbd8dc3ef	-0.06922137
28	0xbef3c1bd	-0.47608748
29	0xbe8624f3	-0.26200065
30	0x3ede1af1	0.4337993
31	0x3eb61cd0	0.35568857
32	0xbea5cb00	-0.3238144
33	0xbe69c311	-0.22828318
34	0xbe608ee0	-0.21929502
35	0x3f1d76f8	0.61509657
36	0x3e0e7d22	0.13914922
37	0xbe83c344	-0.25734913
38	0xbe8d3f62	-0.2758742
39	0xbebacb34	-0.36483157
40	0x3ed952b9	0.42445925
41	0x3ed96d06	0.4246599
42	0xbddc7a27	-0.10765486
43	0xbe7a3443	-0.24433999
44	0xbe822038	-0.25415206
45	0x3ecd1682	0.40056235
46	0x3ec7cfc5	0.39025703
47	0x3e78d550	0.24300122
48	0x3d4c6e22	0.04990972
49	0xbd6cf7fd	-0.057853688
50	0xbe8bc523	-0.2729884
51	0xbe40b6a3	-0.1881967
52	0xbcdce00f	-0.026962308
53	0xbd98d482	-0.07462408
54	0x3dad3c3f	0.08458757
55	0xbe1c325d	-0.15253587
56	0xbe343333	-0.17597656
57	0xbe9e7bcd	-0.30953828
58	0xbe897bd4	-0.26852286
59	0xbe75d092	-0.24005345
60	0xbe388e3f	-0.18023013
61	0xbe9536bf	-0.2914333
62	0xbeb433ee	-0.3519587
63	0xbee94e57	-0.4556758
64	0xbeb31262	-0.34974962
65	0xbe8a68cc	-0.2703308
66	0xbe60cf78	-0.21954143
67	0xbedc6131	-0.430429
68	0xbe14cd9d	-0.1453156
69	0xbef13100	-0.47107697
70	0xbd98a40d	-0.07453165
71	0xbe3e28c8	-0.18570244
72	0xbe6e9f2f	-0.23302911
73	0xbec33a05	-0.38130203
74	0xbe66bd42	-0.22533134
75	0xbe9c7213	-0.30555782
76	0x3c63d10c	0.013904821
77	0x3bb6740b	0.0055680326
78	0x3e17b1b2	0.14813879
79	0x3e857d72	0.2607227
80	0xbea03f7b	-0.31298432
81	0xbd6a08c7	-0.057137277
82	0x3ea8e168	0.3298447
83	0x3e923642	0.2855702
84	0xbd7a62e7	-0.061129477
85	0xbe1eaa47	-0.15494643
86	0x3ea6feeb	0.32616362
87	0x3ee25048	0.44201875
88	0xbdb1035f	-0.08643221
89	0xbd968c7b	-0.07351013
90	0x3d24870c	0.040167853
91	0x3e895923	0.26825818
92	0x3e53f139	0.20697488
93	0xbe4b994a	-0.19882694
94	0xbeaabd21	-0.3334742
95	0x3a0c39f0	0.00053492095
96	0x3ebd5117	0.3697593
97	0x3d5fa70f	0.05460268
98	0xbdd8f451	-0.10593475
99	0xbe184956	-0.14871725
100	0xbe2284f8	-0.15871036
101	0x3e83f7b9	0.25774935
102	0x3e2b8c4a	0.16752735
103	0xbe323c0e	-0.17405722
104	0xbea0aea8	-0.31383252
105	0xbd10f380	-0.03538847
106	0x3ec4e991	0.38459447
107	0x3ee11e1d	0.43968287
108	0x3e9f5138	0.31116652
109	0x3dd61ea0	0.1045506
110	0x3be381c6	0.0069429604
111	0x3de48e23	0.11159923
112	0x3e9bfb2d	0.3046507
113	0x3e84d815	0.25946108
114	0x3d59cb36	0.053172313
115	0xbe069763	-0.13143687
116	0xbeb3d7bc	-0.3512553
117	0xbd611299	-0.054949377
118	0x3e2401b4	0.16016275
119	0x3e347892	0.17624119
120	0xbee34350	-0.44387293
121	0xbe693194	-0.22772819
122	0x3b0712cb	0.0020610567
123	0x3e2deec9	0.1698562
124	0x3e68ba26	0.2272726
125	0xbeafbdc8	-0.3432448
126	0xbe9e4d90	-0.3091855
127	0x3d45c7a0	0.04828608
128	0x3e67d329	0.22639145
129	0x3e9b6845	0.3035299
130	0xbe944515	-0.28958955
131	0xbeb708cf	-0.35748908
132	0xbe0872c5	-0.13325031
133	0x3ed2c390	0.41164827
134	0x3d5d4f0d	0.054030467
135	0xbd93f1b4	-0.072238356
136	0xbe0d5acf	-0.13804172
137	0x3e85a985	0.26105896
138	0x3e093c4e	0.1340191
139	0x3e7a5350	0.24445844
140	0x3d452f7f	0.048141
141	0x3d145f2c	0.036223575
142	0xbcb3c314	-0.021943606
143	0x3dc1d27f	0.09463977
144	0x3d41ed3a	0.047345378
145	0x3e337c95	0.17527993
146	0x3e1cdcc4	0.1531859
147	0xbd808095	-0.06274525
148	0xbe5c9e21	-0.21544696
149	0xbe3c8a6a	-0.18412176

conv1.bias f4 [6]
0	0x3ddf193d	0.10893486
1	0x3ed6a9c0	0.41926384
2	0x3e0a2577	0.13490854
3	0xbbb23007	-0.005437854
4	0x3e6b15ba	0.22957507
5	0x3dc6b2f4	0.09702101

conv2.weight f4 [16, 6, 5, 5]
0	0x3d2c356e	0.042043142
1	0xbd631d1a	-0.055447675
2	0x3d8bec5a	0.0683219
3	0x3d3a7b37	0.045527663
4	0x3d2b0fff	0.041763302
5	0x3ba56960	0.005047962
6	0xbd015b4f	-0.03158122
7	0x3cb72efe	0.022361275
8	0x3dbfe45e	0.093697295
9	0x3c784a74	0.01515447
10	0xbd6c78a1	-0.05773223
11	0xbd6e5621	-0.058187608
12	0xbd73f70f	-0.059561785
13	0x3dc92f19	0.09823436
14	0x3da2c960	0.079485655
15	0x3c542b90	0.012949839
16	0x3dc1c93d	0.09462211
17	0xbcf798cd	-0.030224228
18	0xbcafa351	-0.02144018
19	0x3c1c3efc	0.009536501
20	0x3dba9d12	0.0911199
21	0x3d3fef0e	0.04685884
22	0x3d2a704b	0.041610997
23	0x3d1fd29d	0.039019216
24	0xbd06a497	-0.03287181
25	0xbdebab4c	-0.11507282
26	0xbdb7ec89	-0.089806624
27	0xbd08ffcc	-0.033447072
28	0xbc354513	-0.011063832
29	0xbd9f26a4	-0.07771042
30	0xbb5639ce	-0.0032688263
31	0xbddd254f	-0.10798132
32	0xbdf31ad9	-0.11870355
33	0xbdae1659	-0.08500356
34	0x3e0a08fe	0.13479993
35	0xbda88af8	-0.08229631
36	0xbdc9d79b	-0.098555766
37	0xbd33dc5f	-0.043911334
38	0xbdb67324	-0.0890868
39	0x3c9a5796	0.018840592
40	0xbc1d2a34	-0.009592582
41	0x3c8e8a83	0.017400032
42	0xbda39f7a	-0.07989402
43	0xbdb2d630	-0.08732259
44	0x3d177624	0.036977902
45	0xbd7da243	-0.061922323
46	0xbc50c06c	-0.012741189
47	0x3d6851b8	0.056718558
48	0xbbd8ac4e	-0.006612337
49	0xbd125949	-0.03572968
50	0x3db2a8c8	0.08723599
51	0xbd35cbc0	-0.044383764
52	0xbda4a7fd	-0.08039854
53	0x3c84e955	0.016224543
54	0x3c6ee3ff	0.014580726
55	0xbccc3cc1	-0.024931313
56	0x3cdbabfd	0.026815409
57	0x3b8a21b6	0.0042154444
58	0x3d80048b	0.062508665
59	0x3d5ec343	0.054385435
60	0x3c54fd3a	0.012999827
61	0x3deac233	0.11462822
62	0x3df16536	0.117868826
63	0x3d570c3b	0.0525019
64	0x3ddbf516	0.10740106
65	0xbd5529a5	-0.05204167
66	0xbd8ed527	-0.06974249
67	0xbba2ef71	-0.0049723913
68	0xbd384ccc	-0.044995114
69	0x3d77c07d	0.060486306
70	0xbe17b1a6	-0.14813861
71	0xbdf4e63f	-0.119579785
72	0xbcbec1b3	-0.023285722
73	0x3d8e832b	0.06958612
74	0xbb6c9f4d	-0.0036105693
75	0x3be83e7c	0.007087527
76	0xbdc0507a	-0.0939035
77	0xbd9d2dc0	-0.07674742
78	0x3d2abab8	0.041681975
79	0xbd2fa4c4	-0.042881742
80	0x3d62fd8a	0.055417575
81	0xbcdd3384	-0.027002104
82	0xbc8ff831	-0.017574402
83	0xbae64017	-0.0017566708
84	0xbd323222	-0.04350484
85	0xbd4d374d	-0.050101567
86	0xbd183fa2	-0.03717006
87	0xbcd92310	-0.026505977
88	0xbc2e142f	-0.010624929
89	0x3d0d1a21	0.034448747
90	0xbc2b5f59	-0.010459744
91	0xbda95e80	-0.082699776
92	0xbd702c00	-0.05863571
93	0xbcd0715e	-0.025444683
94	0x3d490704	0.049078956
95	0x3cca8cbe	0.024725314
96	0x3b69ff35	0.0035705094
97	0x3d391a04	0.045190826
98	0x3d98f7b6	0.07469122
99	0x3d8d581a	0.0690157
100	0xbc4bcb86	-0.0124386605
101	0xbd5b7046	-0.05357387
102	0x3dab281a	0.08357258
103	0x3d2a1bc4	0.041530386
104	0xbd07be94	-0.033140734
105	0x3d98aed6	0.07455222
106	0xbcfe0a1e	-0.031010684
107	0x3e070fe2	0.13189653
108	0x3ddf03dd	0.10889409
109	0x3b62159d	0.0034497746
110	0xbcbb1638	-0.022837743
111	0xbd3df228	-0.046373516
112	0x3d39419e	0.045228593
113	0x3cd1c34d	0.025605822
114	0x3d5ab058	0.05339083
115	0x3ddcd680	0.107831
116	0x3cedbd83	0.02902103
117	0x3d1d0223	0.038332116
118	0x3d489cf6	0.048977815
119	0x3da45a53	0.080250405
120	0xbbe022a8	-0.006840069
121	0xbd12aff6	-0.03581234
122	0xbd7b0a84	-0.061289325
123	0x3d803eb3	0.06261959
124	0x3d2620fc	0.0405588
125	0x3c45232c	0.012032311
126	0xbd4e0478	-0.05029723
127	0x3c22f510	0.009946123
128	0x3c7543fd	0.014969823
129	0xbb41efe8	-0.0029592458
130	0x3cdbbb9c	0.026822858
131	0x3ddabd29	0.10680611
132	0x3d932359	0.071844764
133	0xbda376f8	-0.07981676
134	0x3cba70ab	0.022758802
135	0x3d167da0	0.0367409
136	0x3d28c1a5	0.0412003
137	0xbd8632b8	-0.065526426
138	0xbb04e7bf	-0.0020279733
139	0xbd533f79	-0.051574204
140	0xbd4b38be	-0.04961466
141	0x3cf19d6f	0.029494015
142	0x3cc48aac	0.023991905
143	0x3dd3b38c	0.1033698
144	0x3d753ac9	0.059870515
145	0xbc785cb2	-0.015158819
146	0x3dba6816	0.09101884
147	0xbd773c9f	-0.060360547
148	0x3d5586c9	0.052130494
149	0x3da10e65	0.07864074
150	0x3d5717f2	0.05251307
151	0xbdaa926d	-0.0832871
152	0xbdb942e0	-0.090459585
153	0xbd8d0734	-0.068861395
154	0xbc234e13	-0.009967345
155	0xbdc86102	-0.09784128
156	0xbd447160	-0.047959685
157	0xbd6d6033	-0.05795307
158	0xbd23eac6	-0.04001882
159	0xbd82ac2d	-0.06380496
160	0xbd207b28	-0.03917995
161	0xbdc9d886	-0.09855752
162	0xbe017ef0	-0.12646079
163	0xbdcf41c9	-0.101199694
164	0xbc20241e	-0.009774236
165	0xbd131f31	-0.03591842
166	0xbd446471	-0.04794735
167	0xbe1888e1	-0.14895965
168	0xbdd6cb49	-0.10487992
169	0xbda5a32d	-0.08087764
170	0xbd9435d3	-0.07236829
171	0x3c2530d9	0.010082447
172	0xbd9fd8e4	-0.078050405
173	0xbe138f3c	-0.14410108
174	0xbd5e72a9	-0.054308567
175	0x3dfafbe3	0.12255075
176	0x3e2a3c8f	0.16624664
177	0xbdf1c887	-0.11805826
178	0xbd6a7b96	-0.057246767
179	0x3c49c612	0.01231529
180	0x3e32172f	0.17391656
181	0x3e73e7bf	0.23818873
182	0xbdde918a	-0.10867603
183	0xbc34b43c	-0.011029299
184	0x3e27bf34	0.16381532
185	0x3c21c153	0.009872752
186	0x3e5ef792	0.21774128
187	0xbddbebef	-0.1073836
188	0xbde2a8cd	-0.110673524
189	0x3e4ba159	0.19885768
190	0x3dbe5246	0.09293036
191	0x3a1dc460	0.0006018337
192	0xbdc3e6ca	-0.09565504
193	0xbd1864a2	-0.037205346
194	0x3e21f132	0.15814665
195	0xbd2756db	-0.040854316
196	0x3c978639	0.01849662
197	0xbd23a6b6	-0.03995391
198	0x3e1bcb66	0.15214309
199	0x3ded5993	0.115893506
200	0x3d2a1d83	0.04153205
201	0x3d309eda	0.043120243
202	0x3db3251a	0.08747311
203	0x3c81561e	0.015788134
204	0x3c6ced7d	0.0144609185
205	0xbccbc78b	-0.024875423
206	0x3dec98a6	0.11552553
207	0x3d4294ee	0.04750531
208	0xbd815cd7	-0.06316536
209	0x3d578153	0.052613568
210	0x3bd9ad69	0.0066429866
211	0x3d5b94ac	0.05360858
212	0x3cd4361b	0.025904706
213	0xbdd281be	-0.102786526
214	0x3cd22d08	0.025656238
215	0xbc4c50b2	-0.012470411
216	0x3d56d7ab	0.05245177
217	0x3cd58995	0.02606658
218	0xbc477833	-0.012174654
219	0xbda1a1da	-0.07892199
220	0xbccc8ddf	-0.024969993
221	0x3d9cbf2e	0.07653652
222	0xbd316fca	-0.0433195
223	0xbd2bcefd	-0.041945446
224	0xbd98b919	-0.074571796
225	0xbc36d9e2	-0.011160346
226	0x3dd89658	0.10575551
227	0xbdeaa24c	-0.11456737
228	0x3d8accb7	0.067773275
229	0xbc52656a	-0.012841562
230	0xbce4600d	-0.027877832
231	0x3d2f4034	0.04278584
232	0xbdcd2540	-0.100168705
233	0xbc934c3f	-0.017980693
234	0x3dd94ccb	0.1061035
235	0xbb089307	-0.0020839588
236	0xbd3123b3	-0.043246936
237	0xbcaf8924	-0.021427698
238	0x3e0f7a26	0.1401144
239	0x3d39753f	0.04527783
240	0x3bf46bb1	0.007459127
241	0xbd995f63	-0.07488897
242	0xbd372450	-0.044712365
243	0x3e005d44	0.12535578
244	0xbc2c179f	-0.010503679
245	0xbd3b8718	-0.045783132
246	0xbdd04d94	-0.10171047
247	0x3de089a4	0.10963753
248	0x3dd7cb4e	0.10536824
249	0x3d6a7db3	0.057248782
250	0x3c539c48	0.012915678
251	0x3d1b583c	0.037925944
252	0xbd96df92	-0.073668614
253	0x3b93cd5a	0.004510564
254	0xbcc0458c	-0.023470663
255	0x3d951f44	0.07281354

conv2.bias f4 [16]
0	0x3dd62f02	0.10458185
1	0x3da42861	0.08015514
2	0xbd87855e	-0.06617235
3	0x3d665db0	0.05624169
4	0xbd80ea3c	-0.06294677
5	0x3c702afe	0.014658688
6	0x3da13e0c	0.078731626
7	0x3daba871	0.08381737
8	0xbd829150	-0.063753724
9	0x3cc154fa	0.02360009
10	0x3d4a5e39	0.049406264
11	0x3b7b5a1c	0.003835327
12	0x3dcf7c7e	0.10131167
13	0xbcf5829f	-0.029969512
14	0x3d79479a	0.0608593
15	0xbd74d9f2	-0.05977816

fc1.weight f4 [120, 256]
0	0xbc705b30	-0.014670178
1	0xb90d0df9	-0.00013452013
2	0x3c215ed4	0.009849269
3	0xbcb42b4c	-0.021993302
4	0xbbb44fd4	-0.0055026803
5	0x3cdc7f87	0.026916279
6	0xbbea4444	-0.007149251
7	0x3d926355	0.07147852
8	0xbd2c550a	-0.042073287
9	0xbcc25324	-0.023721285
10	0xbd17b44d	-0.037037183
11	0xbd242be3	-0.040080916
12	0xbc85282c	-0.016254507
13	0xbc472622	-0.012155088
14	0x3d70fff7	0.058837857
15	0xbd046010	-0.032318175
16	0x3ce27070	0.027641505
17	0x3d59e1bd	0.053193796
18	0xbd9b8978	-0.075945795
19	0x3d596da0	0.053083062
20	0xbb7bbb48	-0.003841119
21	0x3b715d0a	0.0036829137
22	0xbcfd2a89	-0.030904071
23	0xbcef356e	-0.029200282
24	0x3c87ad86	0.016562235
25	0x3c302384	0.010750655
26	0xbd2f21b1	-0.04275674
27	0xbd697aaa	-0.057001747
28	0x3bea19e6	0.0071442006
29	0x3c9f1871	0.019420834
30	0xbd46738d	-0.04845004
31	0x3d0ff56f	0.035146173
32	0x3c523fd7	0.012832603
33	0xbd48f472	-0.049061246
34	0x3b14d111	0.002270762
35	0xbd091301	-0.03346539
36	0x3d4acb04	0.049510017
37	0x3bda551e	0.006662979
38	0xbd766907	-0.060158756
39	0xbd7c658d	-0.061620284
40	0xbd8e3fe0	-0.06945777
41	0xbca5e64f	-0.020251421
42	0xbd3391af	-0.043840107
43	0x3c089ea7	0.008338607
44	0x3c539124	0.012913022
45	0xbcd3c95e	-0.025852855
46	0x3d8250e7	0.06363087
47	0x3b1c13ef	0.0023815592
48	0x3d5b24e5	0.053501982
49	0xbd07185d	-0.03298222
50	0x3d884aff	0.06654929
51	0xbd2542f2	-0.040347047
52	0xbca9b7a2	-0.020717446
53	0x3d46b1b8	0.04850933
54	0x3b139bf4	0.0022523375
55	0x3d131f25	0.035918374
56	0xbd9b1e20	-0.07574105
57	0xbd1c42f4	-0.03814979
58	0x3d4776ac	0.04869716
59	0x3d811fab	0.06304868
60	0xbcf12850	-0.029438168
61	0xbbaf2b26	-0.00534572
62	0x3b11c9e6	0.0022245585
63	0xbba243a8	-0.004951913
64	0xbd195e06	-0.037443183
65	0x3cc7db51	0.02439657
66	0x3d54d97a	0.051965214
67	0xbcae70e6	-0.021294069
68	0xbd1aa8bf	-0.037758585
69	0xbd04fc7e	-0.032467358
70	0x38a2bebe	7.7602905e-05
71	0x3d2c8bde	0.042125575
72	0x3d0be18d	0.03415065
73	0x3cc6ac4f	0.024252085
74	0xb91d8034	-0.00015020446
75	0x3d26ccd1	0.040722672
76	0xbd6354ae	-0.05550068
77	0x3cb11cf9	0.02162026
78	0xbd0208fb	-0.031746846
79	0x3d498a9f	0.049204465
80	0xbd7e4475	-0.062077004
81	0x3ce42464	0.027849384
82	0x3c6a8a48	0.014315195
83	0x3a843bec	0.0010088659
84	0xbd6a4c63	-0.057201754
85	0x3c26431e	0.010147838
86	0x3d76cd4d	0.060254384
87	0x3d91d569	0.07120783
88	0x3cd7ac67	0.026327325
89	0x3ce3b083	0.027794128
90	0xbc90c5db	-0.01767247
91	0x3b8a28f7	0.004216309
92	0xbd8aad2b	-0.067713104
93	0x3c08f456	0.0083590355
94	0x3ace23f2	0.0015727265
95	0xba75a0a5	-0.0009369946
96	0xbd217d48	-0.039426118
97	0x3c72c3f4	0.014817227
98	0xbd0fa113	-0.03506572
99	0xbcea3b49	-0.028592722
100	0x3b1f3176	0.0024290956
101	0xbd64bd9d	-0.05584489
102	0xbd89d158	-0.06729382
103	0xbce95747	-0.028484
104	0x3d6578e0	0.05602348
105	0xbd22ff81	-0.03979445
106	0x3d6c1632	0.057638355
107	0x3ca6f60f	0.020381002
108	0x3da35bd8	0.07976502
109	0x3dc0655e	0.09394334
110	0xbc1e1975	-0.009649624
111	0xbd51f983	-0.051263344
112	0x3ca1234e	0.019670155
113	0xbb39f9a9	-0.0028377569
114	0x3d0268ef	0.031838354
115	0x3bc2c9b9	0.0059444574
116	0x3d3f342e	0.04668062
117	0x3ca69ea1	0.020339312
118	0xbcf95944	-0.030438073
119	0x3c7edb17	0.015555165
120	0xbcee3cc5	-0.029081712
121	0xbd12a9ee	-0.03580659
122	0xbd13a20e	-0.03604322
123	0x3d5cb922	0.053887494
124	0x3d4965d8	0.04916939
125	0x3d4c30f6	0.04985138
126	0x3d0f7e5e	0.035032623
127	0x3d2dc9f4	0.042428926
128	0x3cb684f5	0.022280196
129	0xbcb39f4e	-0.021926548
130	0x3a20e9d2	0.00061383576
131	0xbc353319	-0.011059546
132	0xbce8d4e4	-0.028421827
133	0x3d62ab8c	0.05533938
134	0xbcff0d93	-0.031134402
135	0xbd20b628	-0.039236218
136	0xbd06c81d	-0.032905687
137	0x3c5035a1	0.012708099
138	0x3d2adbd7	0.041713562
139	0xbd352657	-0.044226017
140	0xbb84d917	-0.0040541994
141	0x3cdd6974	0.027027823
142	0xbc6262ad	-0.013817471
143	0xbd6d9d11	-0.05801112
144	0x3bc72517	0.0060774195
145	0xbd48beae	-0.04900997
146	0xbc3c3e14	-0.01148941
147	0xbcea6100	-0.028610706
148	0x3c13710c	0.00899912
149	0x3c63062e	0.013856454
150	0xbd5bdba0	-0.053676248
151	0x3d2859cc	0.041101262
152	0xbd2e1afe	-0.04250621
153	0x3d0ecce8	0.034863383
154	0x3d2eea78	0.042704076
155	0xbd19f271	-0.037584726
156	0xbd0ba71a	-0.034094907
157	0x3ca042c1	0.01956308
158	0xba4ed0a6	-0.00078893674
159	0x3be42293	0.0069621294
160	0x3d4fd418	0.050739378
161	0xbd845e74	-0.06463328
162	0x3d152bba	0.036418654
163	0xbd761d81	-0.06008673
164	0xbcc9fae1	-0.024655761
165	0x3b22ca1f	0.0024839712
166	0x3d0f4804	0.03498079
167	0xbd27181b	-0.040794473
168	0xbd42a22b	-0.047517937
169	0x3c776342	0.0150993485
170	0x3ce549f1	0.02798936
171	0x3c61a36a	0.013771871
172	0x3d824b8e	0.06362067
173	0xbd2ad771	-0.041709367
174	0xbc391cd3	-0.011298376
175	0xbd1a567d	-0.037680138
176	0x3bfc6fe0	0.007703766
177	0xbd586511	-0.05283076
178	0xbcb2d4aa	-0.021829922
179	0xbd2974ac	-0.041371033
180	0x3d9ab746	0.07554488
181	0x3d8d5f4b	0.06902941
182	0xbbc30fb9	-0.005952802
183	0x3d1e197d	0.038598526
184	0x3d3c7e56	0.04601892
185	0xbb8795de	-0.0041377386
186	0xbd17c706	-0.037055038
187	0xbd10228f	-0.035189208
188	0x3c84eeda	0.016227175
189	0x3c96e889	0.018421428
190	0x3d686e29	0.056745682
191	0x3da248a8	0.07924014
192	0xbcd1f870	-0.02563116
193	0x3c95d5a0	0.01829034
194	0xbd4562ca	-0.048189916
195	0x3c9714d4	0.018442549
196	0x3da6a176	0.08136265
197	0xbc7c9df9	-0.015418523
198	0x3cb114fe	0.021616455
199	0xbc27b66f	-0.010236367
200	0xbd5327e0	-0.0515517
201	0xbda4b31b	-0.08041974
202	0x3d9b047d	0.075692154
203	0x3ca8bd9d	0.020598227
204	0xbd31e90d	-0.043435145
205	0xbc233e53	-0.00996359
206	0x3c6258bc	0.013815101
207	0x3d626849	0.055275235
208	0x3c95b2b1	0.018273683
209	0xbd59bd39	-0.053158972
210	0x3d8fe56b	0.0702618
211	0x3d51e2d2	0.051241703
212	0xbcc44bb2	-0.023961876
213	0x3d3ef105	0.046616573
214	0xbcf6b503	-0.03011561
215	0xbd88c3f5	-0.06678001
216	0x3b34ec38	0.0027606618
217	0xbd440e5c	-0.047865257
218	0x3b6f217d	0.0036488466
219	0xbd2e5546	-0.04256179
220	0x3d4c3a7c	0.049860463
221	0xbc39c37c	-0.011338111
222	0xbc3796c3	-0.011205378
223	0x3d8db73b	0.06919714
224	0x3cdb7d9f	0.0267933
225	0x3cb59a30	0.022168249
226	0xbd6531b2	-0.055955596
227	0xbd79b4fb	-0.060963612
228	0x3d82b497	0.06382101
229	0x3d8233b9	0.063575216
230	0xbd76538b	-0.060138267
231	0x3d5b3f83	0.053527366
232	0x3d909bbd	0.07060955
233	0x3c007774	0.00784098
234	0x3d9ed9a7	0.07756358
235	0x3cfcd5dc	0.030863695
236	0x3d8adf0a	0.067808226
237	0x3bf4015f	0.0074464525
238	0xbb54290a	-0.0032373094
239	0xbd386522	-0.045018323
240	0xbd840de1	-0.0644796
241	0xbcbad389	-0.022805946
242	0xbc81e0e9	-0.015854316
243	0x3c190374	0.009339202
244	0x3a8f4ab0	0.0010932293
245	0x3c5e1515	0.013554831
246	0xbca28817	-0.019840283
247	0x3cecb99c	0.0288971
248	0x3d8c8328	0.068609536
249	0x3b84c450	0.0040517226
250	0x3d8eed1a	0.06978817
251	0x3cea75f4	0.028620698
252	0x3c496dab	0.012294213
253	0xbc98f5c2	-0.018671874
254	0xbd284e6b	-0.04109041
255	0x3cf70cd0	0.030157477

fc1.bias f4 [120]
0	0x3cbd88df	0.023136554
1	0xba24d933	-0.0006288469
2	0x3d1980e6	0.037476443
3	0x3cb37c4b	0.021909853
4	0x3d84aedc	0.06478664
5	0x3cac3231	0.021020027
6	0x3d82f0e3	0.06393602
7	0xb8d9c3fb	-0.000103838705
8	0xbd0d54ba	-0.03450463
9	0xbc9f7dd5	-0.019469181
10	0xbcce0cec	-0.025152646
11	0x3ca958f2	0.020672295
12	0x3d2dfd20	0.042477727
13	0x3c95dcd5	0.018293777
14	0xbd23ca78	-0.03998801
15	0xbd34d67b	-0.044149857
16	0xbcf9acea	-0.03047796
17	0x3d88b0d9	0.06674356
18	0x3d1e0afc	0.038584694
19	0x3d2aec71	0.041729394
20	0x3d399847	0.04531124
21	0x3ce1bd7d	0.027556175
22	0x3d3a4a03	0.04548074
23	0xbbb4d51b	-0.005518568
24	0xbd2b655b	-0.041844707
25	0xbd513ad8	-0.05108151
26	0x3c8e7334	0.017388918
27	0xbd0393d0	-0.032123387
28	0xbd16c894	-0.03681238
29	0x3d489fe6	0.048980616
30	0x3cece3ec	0.028917275
31	0x3d3f0ded	0.04664414
32	0xbbe4e3ea	-0.0069851773
33	0xbb4b22ea	-0.0030996152
34	0x3aefe5d5	0.0018302748
35	0xbce0f758	-0.027461693
36	0x3d19f27a	0.03758476
37	0x3ce86f28	0.028373316
38	0x3cf33941	0.029690387
39	0x3d74d4a4	0.059773102
40	0xbcf500f2	-0.029907677
41	0xbd4d80e4	-0.050171748
42	0xbcd54d95	-0.02603797
43	0x3d2a9f79	0.04165599
44	0xbca9b836	-0.020717721
45	0xbd518ba0	-0.051158547
46	0xbc0f174c	-0.008733582
47	0x3d714783	0.05890609
48	0x3cdd9a87	0.027051223
49	0xbcfd44b4	-0.03091655
50	0x3ce641cd	0.028107548
51	0xbd3759ee	-0.044763498
52	0xbd51b47a	-0.051197506
53	0x3c5a93b7	0.013340882
54	0xbd5235df	-0.051320907
55	0xbca47a92	-0.020077977
56	0xbcaf59a3	-0.021405047
57	0xbd153f73	-0.036437463
58	0xbbbfbe2a	-0.0058515267
59	0xbd096081	-0.0335393
60	0xbd5a45da	-0.053289272
61	0x3c8cd105	0.017189512
62	0x3c136838	0.008997016
63	0xbd1841c2	-0.037172087
64	0xbcd0ea99	-0.02550249
65	0x3d68461c	0.056707487
66	0xbd67ff18	-0.05663976
67	0xbb62f250	-0.0034629293
68	0xbd22ff39	-0.03979418
69	0xbd2ee616	-0.042699896
70	0x3c10cdeb	0.008838157
71	0x3c7e412a	0.015518466
72	0x3d071df0	0.032987535
73	0xbd34596d	-0.044030596
74	0xbc004fb4	-0.007831503
75	0xbd7ed754	-0.06221707
76	0x3d417ae3	0.047236335
77	0xbd65b01c	-0.056076154
78	0xbbe3982d	-0.006945631
79	0x3d11c2a4	0.035586014
80	0x3c0f56f9	0.008748763
81	0x3b78e4b2	0.003797811
82	0xbd3167bf	-0.04331183
83	0x3d42e8e1	0.047585372
84	0x3c9850bb	0.018593183
85	0xbd1351bb	-0.035966616
86	0x3d501836	0.05080434
87	0x3c243228	0.010021724
88	0xbd7727f6	-0.060340844
89	0x3c2d1183	0.010563257
90	0x3cc5bfef	0.024139373
91	0x3c34afb9	0.011028224
92	0x3d83a960	0.0642879
93	0x3bc13cee	0.005897156
94	0x3af1e4e7	0.0018455059
95	0xbcc22ae7	-0.023702098
96	0x3cbd1d73	0.023085332
97	0x3a541b87	0.000809126
98	0x3d8371ef	0.064182155
99	0xbd21fa4a	-0.039545335
100	0xbcc86a43	-0.024464732
101	0x3d0ab297	0.033861723
102	0x3d51a966	0.05118694
103	0xbceb7660	-0.028742969
104	0x3bec9dd7	0.0072209644
105	0xbd5b26b4	-0.053503707
106	0x3cf15f21	0.029464306
107	0xbc1dc361	-0.0096291015
108	0xbd3c65d1	-0.045995537
109	0xbcb91736	-0.022594076
110	0xbd308ead	-0.043104816
111	0x3c508554	0.0127271
112	0xbcd34e09	-0.025794046
113	0x3d0b0f7b	0.03395031
114	0xbd0aca08	-0.03388408
115	0x3cd6e0d8	0.02623026
116	0x3d860beb	0.06545242
117	0xbd0b2f1f	-0.033980485
118	0x3c4cea6c	0.012507062
119	0xbd389f78	-0.045073956

fc2.weight f4 [84, 120]
0	0xbdb0736c	-0.08615765
1	0x3d0ae92e	0.033913784
2	0x3d294885	0.041328926
3	0x3d480b8a	0.04883913
4	0xbc842b72	-0.016133998
5	0x3b7d6f9e	0.0038671265
6	0x3d5c1189	0.05372766
7	0x3d2bf461	0.041981105
8	0x3cf84171	0.030304642
9	0x3dcb4a5a	0.09926291
10	0x3dd35a2a	0.10319932
11	0x3daa3d3d	0.083124615
12	0xbda5249a	-0.08063622
13	0x3dab7ade	0.083730444
14	0x3d91ce2b	0.071194015
15	0xbd720a78	-0.059092015
16	0xb9e64179	-0.000439178
17	0x3d5e74f7	0.054310765
18	0x3d2221b9	0.03958294
19	0xbdaf3634	-0.0855526
20	0xbd967d6f	-0.07348143
21	0xbd72f4c9	-0.059315477
22	0xbdfd7884	-0.12376502
23	0x3dd16a5e	0.10225366
24	0xbd50571d	-0.050864328
25	0xbc41fab4	-0.011839557
26	0x3db11fa9	0.08648617
27	0xbdab3fea	-0.083618
28	0xbd9adb8d	-0.07561407
29	0xbcd0de4b	-0.025496623
30	0xbd999fee	-0.07501207
31	0x3c89ac2f	0.016805736
32	0x3d25d87f	0.04048967
33	0xbbb6b21e	-0.0055754324
34	0x3d30c827	0.04315963
35	0x3d714c80	0.058910847
36	0x3d7e5b0c	0.062098548
37	0xbd57c91a	-0.05268202
38	0x3be9e7c6	0.0071382252
39	0x3d07caca	0.03315238
40	0x3cc08c4a	0.023504395
41	0x3d6f1e38	0.05837843
42	0xbd60b71e	-0.054862134
43	0xbcdc0098	-0.026855752
44	0xbb004b61	-0.001957618
45	0xbc6a9f0d	-0.014320147
46	0x3d9c9ed7	0.07647484
47	0xbdad75f2	-0.08469762
48	0x3da5f777	0.08103841
49	0x3bb332d4	0.0054687057
50	0x3d8d777a	0.06907554
51	0x3c1af489	0.009457716
52	0xbcc83b01	-0.024442198
53	0x3de72f86	0.11288361
54	0x3c64c240	0.013962328
55	0x3d348cad	0.04407947
56	0x3d38e478	0.04513976
57	0x3c033a5c	0.008009519
58	0xbb3f0010	-0.0029144324
59	0xbce92f15	-0.028464833
60	0x3d9fd280	0.078038216
61	0x3d89b7cb	0.06724509
62	0x3cc3daa5	0.023907969
63	0x3dc913c2	0.09818222
64	0x3d4f7c5e	0.050655715
65	0x3dad9439	0.08475537
66	0x3cec9f28	0.028884485
67	0xbd98aa35	-0.074543394
68	0x3b7b8bc8	0.0038382877
69	0xbd6bac07	-0.057537105
70	0x3d3a0d93	0.0454231
71	0x3de23ae5	0.110463895
72	0xbd93011d	-0.07177947
73	0xbd25e641	-0.04050279
74	0x3d2614ff	0.040547367
75	0x3d85b8e0	0.06529403
76	0x3cb7bc74	0.022428729
77	0xbdc08c43	-0.09401753
78	0x3c773557	0.015088401
79	0xbd84ff95	-0.06494061
80	0x3dcf6b7c	0.10127923
81	0xbc208720	-0.009797841
82	0x3da71ebb	0.08160158
83	0x3a87dd10	0.0010365564
84	0xbd9e3e09	-0.07726676
85	0xbda4cd3f	-0.0804696
86	0x3c1a9f5d	0.009437409
87	0xbd973613	-0.07383361
88	0xbd9e8154	-0.07739511
89	0x3d85ad7e	0.06527232
90	0xbc2881f5	-0.01028489
91	0x3cca8ed9	0.024726318
92	0xbd9cc4e2	-0.0765474
93	0xbceb44e3	-0.028719371
94	0x3d3bbaf8	0.045832604
95	0xbda59131	-0.08084334
96	0xbdad910d	-0.08474932
97	0xbd8fc66e	-0.07020269
98	0x3deee424	0.11664608
99	0x3de1e941	0.11030818
100	0xbc58cb9a	-0.013232136
101	0xbd10d87e	-0.035362713
102	0xbc97a13c	-0.0185095
103	0x3d872408	0.06598669
104	0xbd65c42a	-0.05609528
105	0xbd428fd7	-0.047500458
106	0x3d86067f	0.06544208
107	0xbb022261	-0.0019856917
108	0x3d8e53bb	0.06949564
109	0xbdbebfdc	-0.09313938
110	0xba7d2bb1	-0.00096576946
111	0xbd834c59	-0.064110465
112	0x3dec4364	0.11536291
113	0xbcc38b9c	-0.023870282
114	0xbd3b8c01	-0.045787815
115	0x3d620188	0.05517724
116	0x3d8e15c3	0.069377445
117	0x3d9950c4	0.07486108
118	0x3c8b55df	0.01700872
119	0x3d8c73ee	0.06858049
120	0xbd24408d	-0.040100623
121	0x3ceec3f9	0.029146181
122	0xbd33ff62	-0.043944724
123	0x3d0de41f	0.03464138
124	0xbda9b8dc	-0.08287212
125	0x3c944378	0.018098578
126	0x3def43d4	0.11682859
127	0x3c4db3ae	0.012555046
128	0x3d72dbde	0.059291713
129	0x3db94bfe	0.090476975
130	0x3df798a3	0.1208966
131	0xbd18f806	-0.03734591
132	0x3dcdbeaf	0.10046136
133	0xbdfa66eb	-0.12226661
134	0x3d6bf762	0.05760897
135	0xbd04c946	-0.03241851
136	0xbd5c7dce	-0.053830914
137	0x3d7a1cfe	0.061062805
138	0x3d1b89fa	0.03797338
139	0xbdaa85aa	-0.08326276
140	0xbd62afbb	-0.05534337
141	0x3dbc97c4	0.092086345
142	0xbd10c370	-0.035342634
143	0x3ba1a729	0.004933257
144	0x3d42c7de	0.04755389
145	0x3d65e4e4	0.05612649
146	0xbdbe6f45	-0.09298567
147	0xb9ac1f5a	-0.00032829755
148	0x3c509664	0.012731168
149	0xbd850d4f	-0.06496679
150	0xbd5d2349	-0.05398873
151	0x3d0c2d25	0.03422274
152	0x3d3e7acc	0.046503827
153	0x3d8c7db1	0.06859911
154	0x3d607453	0.054798435
155	0x3db1db5e	0.08684419
156	0x3d881678	0.066449106
157	0xbdbd622e	-0.09247242
158	0x3d98b1e3	0.07455804
159	0x3de39fe7	0.11114483
160	0x3d7abcab	0.061215084
161	0x3da71995	0.08159176
162	0xbd581aac	-0.05275981
163	0xbdc5b82e	-0.0965427
164	0xb9421cdc	-0.00018512033
165	0x3d72edb3	0.05930872
166	0xbd527806	-0.051383995
167	0x3d57306b	0.05253641
168	0x3dbba1bb	0.09161707
169	0x3d66308b	0.056198638
170	0x3c789c9a	0.0151740555
171	0xbd38ae96	-0.045088373
172	0x3d4cf5c5	0.05003907
173	0xbd843209	-0.06454856
174	0xbd9f2a7a	-0.07771774
175	0x3e0502f1	0.12989403
176	0xbdc2f38e	-0.095191106
177	0x3dac1e90	0.08404267
178	0x3da7fdd4	0.08202711
179	0x3ce0bfcb	0.027435204
180	0x3ce158bc	0.027508132
181	0x3d4f1466	0.050556563
182	0x3d75a6b5	0.059973437
183	0x3d5fb435	0.05461522
184	0x3d3e072e	0.046393566
185	0xbc97d98e	-0.018536355
186	0xbd7c3fa2	-0.061584122
187	0x3d909096	0.070588276
188	0xbcef4162	-0.029205982
189	0x3de6f25b	0.112766944
190	0x3d406577	0.046971764
191	0xbde54b33	-0.11195984
192	0x3d418bbb	0.047252398
193	0x3de5be6f	0.11217963
194	0xbd019ccb	-0.03164367
195	0x3a794394	0.0009508666
196	0x3d13a46c	0.036045477
197	0x3da225e2	0.07917382
198	0x3d58fdc7	0.052976396
199	0x3d87897d	0.06618021
200	0xbd66c4b6	-0.056339942
201	0x3d8eef06	0.06979184
202	0x3d009db4	0.031400397
203	0xbdea3469	-0.11435778
204	0xbdcb1d42	-0.0991769
205	0x3d7bd8fa	0.06148622
206	0x3d4027a6	0.04691281
207	0x3c953f20	0.018218577
208	0x3c4d214f	0.012520148
209	0xbc99e811	-0.018787416
210	0x3dbbc66f	0.091687076
211	0xbbf39fd9	-0.007434827
212	0x3dbae246	0.091251895
213	0x3cec6370	0.02885601
214	0x3d73c361	0.0595125
215	0xbcdc0e8f	-0.02686241
216	0xbd2844e2	-0.041081317
217	0x3c389618	0.011266254
218	0xbdb5856f	-0.08863341
219	0x3ddee571	0.10883606
220	0x3c5200eb	0.012817602
221	0x3c80925f	0.015694795
222	0xbdac2b69	-0.08406717
223	0x3dbb354a	0.091410235
224	0xbdaeceba	-0.08535524
225	0x3d1ca99c	0.03824769
226	0x3b8a7712	0.00422562
227	0x3c6432ed	0.013928157
228	0xbaf55676	-0.0018717784
229	0xbda3196c	-0.07963833
230	0x3c040287	0.008057243
231	0x3ddac422	0.106819406
232	0x3d2bf9a3	0.04198612
233	0x3def98b5	0.116990484
234	0x3e05c6d7	0.13064133
235	0xbd816596	-0.06318204
236	0xbca47886	-0.020077001
237	0xbcd70b4f	-0.02625051
238	0x3db95342	0.09049083
239	0xbd89aa71	-0.06721962
240	0x3d8fb2c0	0.07016516
241	0x3d3884c4	0.04504849
242	0xb9f66ffe	-0.00047004217
243	0xbd0be82f	-0.034156974
244	0xbba4aa76	-0.0050252033
245	0x3cf8bfce	0.030364897
246	0xbd6d5201	-0.057939533
247	0xbdb78062	-0.08960034
248	0x3dfda5be	0.123851284
249	0x3da11dd6	0.07867019
250	0x3c2fb0a1	0.010723264
251	0xbdb61f65	-0.08892707
252	0xbcd9f0b8	-0.026604041
253	0x3d674a50	0.056467354
254	0x3d09a42b	0.03360383
255	0x3d00ae76	0.03141638

fc2.bias f4 [84]
0	0xbd2d2266	-0.042269133
1	0x3d86bcaa	0.065789536
2	0x3d3e6a46	0.04648807
3	0x3db1f392	0.086890355
4	0xbaea5c25	-0.0017880244
5	0x3d13671c	0.035987005
6	0x3cc268cc	0.023731612
7	0xbd134cda	-0.035961963
8	0xbcd5e4bd	-0.026110047
9	0xbd889e68	-0.066708386
10	0xbd776b6d	-0.060405184
11	0xbd0e20f9	-0.034699414
12	0xbcfa569e	-0.03055888
13	0xbd96bc45	-0.07360128
14	0x3cdbd036	0.026832681
15	0xbdbedb66	-0.09319191
16	0xbc9fb384	-0.01949478
17	0x3d48b054	0.048996285
18	0x3da3decb	0.08001479
19	0x3cc9f8b3	0.024654722
20	0xbd020f33	-0.031752776
21	0xbda5a628	-0.080883324
22	0xbdc4c3bb	-0.09607645
23	0x3d5ca015	0.053863604
24	0xbcae3a0b	-0.021267911
25	0xbc957ca9	-0.01824792
26	0x3b71c657	0.0036891901
27	0xbd2e6a86	-0.042582057
28	0xbd396cf6	-0.04526993
29	0xbd9e4754	-0.077284485
30	0x3db2c8d5	0.08729712
31	0xbd9f1fa2	-0.07769705
32	0xbd8c7ee9	-0.06860144
33	0x3cbd3c92	0.023100171
34	0xbd8e95af	-0.06962144
35	0x3ca5d446	0.020242821
36	0xbc8b50ba	-0.017006267
37	0x3d47201d	0.04861461
38	0x3d9a4b9e	0.07533954
39	0x3cdb7895	0.026790896
40	0xbcbe472c	-0.023227297
41	0xbcb0c1f2	-0.021576855
42	0x3d2967c2	0.041358717
43	0x3d9beba5	0.07613305
44	0xbd9f1044	-0.07766774
45	0x3d85a462	0.06525494
46	0x3da2eb97	0.079550914
47	0xbd8a7f0f	-0.06762516
48	0xbcfd5570	-0.030924529
49	0x3d0f113a	0.034928538
50	0x3cbb4823	0.022861546
51	0xbc89f808	-0.016841903
52	0x3dcc9a12	0.09990324
53	0x3d6a768d	0.057241965
54	0x3d0978d1	0.033562485
55	0xbdd358e3	-0.10319688
56	0xbd96b78a	-0.07359226
57	0xbca6414e	-0.020294812
58	0xba95d5d1	-0.001143152
59	0x3d82fa76	0.06395428
60	0xbca34989	-0.019932525
61	0x3b251364	0.002518856
62	0x3cfb3925	0.030666897
63	0xbb6c4769	-0.0036053306
64	0x3d81b160	0.0633266
65	0x3bdddb28	0.00677051
66	0xbc84ce75	-0.016211728
67	0xbd2caf0d	-0.04215913
68	0xbcaed0df	-0.021339832
69	0x3d551c21	0.05202878
70	0x3d857272	0.06515969
71	0xbda4c7b8	-0.08045906
72	0x3c96a04b	0.01838698
73	0x3dae4d36	0.085108206
74	0x3d6ec5fe	0.05829429
75	0x3d98108f	0.07425033
76	0x3d88540d	0.066566564
77	0xbda5b9a0	-0.08092046
78	0x3d596511	0.0530749
79	0xbdaf014f	-0.085451715
80	0xbc315106	-0.01082254
81	0x3cc9f16b	0.02465125
82	0xbd4ff868	-0.050774008
83	0xbd5b4fbe	-0.053542845

fc3.weight f4 [10, 84]
0	0xbd04c7a6	-0.032416962
1	0x3df48d51	0.119410165
2	0xbd748913	-0.059701037
3	0xbd640090	-0.0556646
4	0xbd112215	-0.035432894
5	0x3d933958	0.07188672
6	0x3cfc51a7	0.030800654
7	0xbdb2493b	-0.08705374
8	0xbdc5be07	-0.096553855
9	0x3d99e267	0.07513886
10	0xbca72021	-0.020401062
11	0xbd39f28e	-0.045397334
12	0x3bb946f2	0.0056542093
13	0x3e1be5c0	0.15224361
14	0xbdbcde2f	-0.09222066
15	0xbd209c19	-0.039211366
16	0x3d5c7121	0.053818826
17	0xbd203a04	-0.039117828
18	0xbe1cb2d2	-0.1530259
19	0x3d67a1b9	0.056550715
20	0xbc7312ad	-0.014835996
21	0x3d6f097a	0.058358647
22	0x3dc1101a	0.09426899
23	0x3ded3c88	0.11583811
24	0xbd679cae	-0.056545906
25	0x3dc66e7b	0.09689041
26	0x3d981099	0.07425041
27	0x3dc1ef07	0.09469419
28	0xbcbd1ead	-0.023085916
29	0xbdaea3fd	-0.08527372
30	0xbdfa9bbc	-0.12236735
31	0x3e0127a8	0.12612784
32	0xbda19086	-0.07888894
33	0xbe45b4bf	-0.1930723
34	0x3e00b644	0.12569529
35	0x3d4586ac	0.048224136
36	0x3da0a10e	0.07843219
37	0xbc6784a4	-0.014130745
38	0xbe09f3ea	-0.13471952
39	0xbd9968c8	-0.074906886
40	0x3c26ebd6	0.010188064
41	0x3d2195bc	0.03944944
42	0xbded8a51	-0.115986474
43	0x3d12416e	0.03570693
44	0xbdc76369	-0.09735758
45	0x3c31c5c3	0.010850373
46	0x3de3eab2	0.11128749
47	0x3e74ac15	0.23893769
48	0xbdd8d23f	-0.10586976
49	0x3e931207	0.2872469
50	0x3d4953bf	0.049152132
51	0xbe23c296	-0.15992197
52	0xbdccbad4	-0.09996572
53	0x3d6ec084	0.058289066
54	0x3c1456c8	0.009053893
55	0xbdab7fe3	-0.08374002
56	0xbd8000ff	-0.0625019
57	0x3cab6ec7	0.020926846
58	0xbe016776	-0.12637123
59	0x3d5272ee	0.051379137
60	0x3da08af0	0.07839
61	0xbcdc3fa9	-0.026885824
62	0xbd9a57b6	-0.07536261
63	0xbdac6483	-0.084176086
64	0xbe56c7ef	-0.20974706
65	0xbd1b4a73	-0.037912797
66	0xbd927af9	-0.071523614
67	0x3e56c822	0.20974782
68	0x3dbf14dd	0.09330151
69	0x3e23c839	0.15994348
70	0xbe3215e0	-0.17391157
71	0x39f51614	0.0004674649
72	0xbd541655	-0.05177911
73	0xbc6f025e	-0.014587967
74	0x3ddca104	0.10772899
75	0xbe1ad2f1	-0.1511953
76	0x3d97e445	0.07416586
77	0xbcef9a7b	-0.029248467
78	0xbc922026	-0.017837595
79	0xbe12cb16	-0.14335284
80	0x3e4e38bf	0.20138834
81	0xbe7b94a6	-0.24568424
82	0xbe2ff73d	-0.17184158
83	0x3d8805f2	0.06641759
84	0xbd474543	-0.048650037
85	0xbbfeb170	-0.007772617
86	0x3e49cb16	0.19706377
87	0xbd5edf87	-0.05441239
88	0xbca52753	-0.020160353
89	0xbd082a30	-0.033243358
90	0xbe8b1b49	-0.27169254
91	0x3e1a46bc	0.15066046
92	0xbb4793c0	-0.0030453056
93	0x3d849d17	0.06475275
94	0xbdfdf2f8	-0.12399858
95	0x3db0e0c5	0.086366214
96	0xbd1055be	-0.03523802
97	0xbdb434e7	-0.08799153
98	0xbddbfbfd	-0.10741422
99	0x3d866866	0.06562881
100	0x3c7e36e7	0.015516019
101	0xbcda255d	-0.026629144
102	0x3de749e1	0.11293388
103	0x3dd27d1d	0.1027777
104	0xbd8e9a66	-0.06963043
105	0xbcf9aeba	-0.030478824
106	0xbbbb2af5	-0.005711908
107	0x3e422b2e	0.18961784
108	0xbd15770e	-0.036490493
109	0xbd6751c0	-0.056474447
110	0x3e9321a9	0.28736618
111	0xbddad832	-0.10685767
112	0xbe04601a	-0.12927285
113	0xbdce101c	-0.10061666
114	0x3e515a01	0.2044449
115	0x3d2604f0	0.040532053
116	0x3d9c1d43	0.07622769
117	0xbd8eb6e2	-0.06968476
118	0x3daac5d4	0.08338514
119	0x3d95fcbe	0.07323597
120	0x3db6f816	0.089340374
121	0x3c5e5243	0.013569417
122	0x3dcd7682	0.10032369
123	0x3dca6564	0.0988262
124	0x3d730139	0.059327338
125	0x3d4878f9	0.048943494
126	0xbd969702	-0.07353021
127	0xbe1387f0	-0.14407325
128	0xbcccce36	-0.025000673
129	0xbe0cd8fa	-0.13754645
130	0xbdf62a32	-0.12019767
131	0x3d5287c8	0.051399022
132	0xbd0f2adc	-0.034952983
133	0xbe55dd87	-0.20885287
134	0xbd0a3d8d	-0.033750106
135	0xbd744467	-0.059635546
136	0x3e2f0132	0.170903
137	0x3d86f279	0.06589217
138	0x3e2fbf1d	0.17162748
139	0x3e096a94	0.13419563
140	0xbddabb43	-0.106802486
141	0x3c780e20	0.015140086
142	0xbcad7900	-0.021175861
143	0x3e310203	0.17285924
144	0x3db32ff6	0.08749382
145	0x3e755b34	0.23960572
146	0xbe715319	-0.23566855
147	0x3dbe39ab	0.09288343
148	0x3e23e2e9	0.16004528
149	0xbdbd5c53	-0.09246125
150	0x3d63100d	0.05543523
151	0xbe2c1ff4	-0.16809064
152	0xbd2e5113	-0.042557787
153	0x3e1b4343	0.15162377
154	0xbdf41113	-0.11917319
155	0x3bd791f9	0.0065786806
156	0x3e6a54bc	0.22883886
157	0xbe4bf904	-0.1991921
158	0xbe264302	-0.16236499
159	0x3dd9125a	0.105992034
160	0xbe6c8542	-0.23097709
161	0x3da4e5c9	0.080516405
162	0xbd9e7d71	-0.0773877
163	0xbd6ce165	-0.05783214
164	0x3cbed917	0.023296876
165	0xbd8a6c2f	-0.06758916
166	0xbcbbb512	-0.02291349
167	0x3d1787c4	0.03699471
168	0xbe18931f	-0.14899872
169	0x3db95bd4	0.09050718
170	0xbe3989ff	-0.18119048
171	0xbed2dc67	-0.4118378
172	0x3e54c5b7	0.20778547
173	0x3d5a238a	0.05325655
174	0xbcd3feb2	-0.025878284
175	0x3e7db226	0.2477499
176	0x3d5bf18e	0.05369716
177	0xbc52b928	-0.0128615275
178	0x3e84a143	0.25904283
179	0xbd83d705	-0.06437496
180	0x3e13bb6b	0.14426963
181	0x3e0146c5	0.12624653
182	0x3df75484	0.12076667
183	0xbd95f8c9	-0.07322843
184	0xbd4baa5c	-0.049723014
185	0xbe61bd84	-0.2204495
186	0x3dd911ec	0.105991215
187	0xba13ade6	-0.0005633518
188	0xbc7502ab	-0.014954249
189	0xbdc52220	-0.096256495
190	0xbc803b01	-0.015653135
191	0x3ce1589b	0.02750807
192	0x3adad91c	0.0016696784
193	0x3c0f0946	0.008730238
194	0x3bee4313	0.0072711795
195	0x3d3b71fe	0.04576301
196	0xbe25c5d7	-0.16188751
197	0xbd578cae	-0.052624397
198	0xbd3d9c4f	-0.046291646
199	0x3e029880	0.12753487
200	0xbde03c42	-0.10948993
201	0xbacdcbf5	-0.0015701043
202	0x3dc77a1b	0.09740087
203	0x3dd0ed48	0.10201508
204	0xbc9d2b9b	-0.019185832
205	0xbce665f1	-0.028124781
206	0x3e021c83	0.12706189
207	0xbcf487f0	-0.029849976
208	0xbd2a61ab	-0.04159705
209	0xbd241339	-0.040057395
210	0x3e1b9fe2	0.15197709
211	0x3d9fc4de	0.07801221
212	0x39fc1cfa	0.00048086775
213	0x3ce4bb55	0.027921358
214	0x3d1d2647	0.038366582
215	0xbe44b51d	-0.19209714
216	0x3d56f9d8	0.052484363
217	0xbdbe640c	-0.09296426
218	0x3c40a787	0.011758692
219	0xbdae70d0	-0.08517611
220	0xbdba7728	-0.091047585
221	0x3db0a72b	0.08625635
222	0x3dea1036	0.11428873
223	0xbe07e793	-0.13271932
224	0x3d880b0f	0.06642734
225	0xbe0c75ec	-0.13716859
226	0x3aca509b	0.0015435399
227	0x3dd71d37	0.10503619
228	0xbd629530	-0.055318058
229	0x3e1a1d4b	0.15050237
230	0x3ead6c7d	0.33871832
231	0x3d4b72f6	0.049670182
232	0xbde876e8	-0.113508046
233	0xbde03186	-0.10946946
234	0xbc8c4db4	-0.017126895
235	0xbdc44ff1	-0.0958556
236	0xbe41efb9	-0.18939103
237	0x3d919a64	0.07109526
238	0xbdab248f	-0.083565824
239	0x3cab9676	0.020945769
240	0x3e009523	0.12556891
241	0x3c44d1fb	0.012012954
242	0xbdaba98a	-0.083819464
243	0x3e432d4e	0.19060251
244	0x3e26afe4	0.16278034
245	0x3dc2a234	0.09503594
246	0xbdc042e4	-0.093877584
247	0x3d5f5d31	0.054532234
248	0xbde3beed	-0.111204006
249	0xbe208b8d	-0.15678234
250	0xbd66302d	-0.056198288
251	0xbd8b06d7	-0.06788414
252	0xbc2974dc	-0.010342803
253	0xbc1cfef2	-0.009582268
254	0xbe999e48	-0.30003572
255	0x3e206809	0.15664686

fc3.bias f4 [10]
0	0xbd43e7a6	-0.04782834
1	0x3da9fccc	0.0830017
2	0xbd6ed283	-0.05830623
3	0xbd5ca416	-0.053867422
4	0xbe009337	-0.12556158
5	0x3d35b9ed	0.044366766
6	0xbc9a41d4	-0.018830217
7	0x3ccda4f3	0.025103068
8	0x3cd2380a	0.025661487
9	0x3c37126d	0.011173827
