code/write_numbers_demo/Lenet4.pth (torch, 180603 bytes, 10 tensors)

conv1.weight f4 [6, 1, 5, 5]
-0.038858622 0.27732927 0.38969594 0.31344938 0.30943608 0.14342906 0.1026727 0.35959002
0.45514387 0.39031088 -0.17367445 -0.062352706 -0.19415215 0.15295409 -0.017723395 -0.049354132
-0.28226367 -0.3983669 -0.17196357 -0.058183063 -0.17300136 -0.3150766 -0.40906438 -0.41365096
-0.1907859 -0.24464166 -0.18995366 0.10020658 0.07937465 -0.081270434 -0.03142951 -0.2188257
-0.29145277 -0.04051576 0.050986953 -0.19023319 -0.08847749 -0.28684834 -0.1542928 0.17874941
-0.16435209 -0.035037845 -0.31712404 -0.20702589 0.18803649 -0.06775865 -0.20570637 -0.03171675
0.10999909 0.023008417 -0.24177626 -0.07012094 -0.06594355 -0.22466984 -0.2609583 -0.27871597
-0.19108726 -0.35395962 -0.21408425 -0.31235906 -0.05848507 -0.07670795 -0.22837362 -0.24985072
-0.058394738 -0.19786225 -0.108552136 -0.15492755 -0.039304636 0.07530309 -0.047755662 -0.10447103
-0.13267896 0.2118696 -0.030942582 -0.24312228 -0.3254 -0.057728652 -0.44184765 -0.35815656
-0.28200787 -0.37325674 -0.36296567 -0.23956805 -0.34337923 -0.46475464 -0.36857453 -0.49459827
-0.55437523 -0.44027147 -0.16494904 -0.14511473 -0.419502 -0.19303721 -0.22459555 -0.3243459
-0.29312438 -0.05208553 -0.049415328 0.15123041 0.031665374 0.19880524 -0.12941216 -0.34249926
-0.10901314 0.27030635 0.21193282 0.2791757 0.3577357 0.37958136 -0.013022878 0.090121046
0.47987673 0.28990299 0.20338142 -0.07220749 -0.15182707 -0.028286472 0.07406025 -0.010709805
-0.38249484 -0.28601938 -0.4721768 -0.5195877 -0.098990925 0.19671243 0.32845303 -0.053179473
-0.28056344 -0.1101043 0.22238886 0.23545244 -0.11117826 -0.30221355 -0.11246232 0.32673523
0.1259417 0.13187131 -0.35777047 -0.18693285 0.24337755 0.05929176 -0.1658333 -0.18231529
-0.33657166 0.10473902 0.2408845 0.16205424 0.08134106 -0.09280944
00000000: 382a 1fbd 1afe 8d3e 3a86 c73e 707c a03e
00000010: 686e 9e3e 11df 123e 1146 d23d 2f1c b83e
00000020: 9e08 e93e d4d6 c73e b7d7 31be 8d65 7fbd
00000030: d2cf 46be ff9f 1c3e a730 91bc 8f27 4abd
00000040: dd84 90be bff6 cbbe 3817 30be 5d51 6ebd
00000050: 4527 31be b851 a1be e370 d1be 0fca d3be
00000060: 615d 43be 5883 7abe 3683 42be 1b39 cd3d
00000070: 2d8f a23d 1d71 a6bd 3bbc 00bd d813 60be
00000080: 4c39 95be dbf3 25bd b2d7 503d 7dcc 42be
00000090: b033 b5bd c9dd 92be effe 1dbe 160a 373e
000000a0: ea4b 28be d883 0fbd 155e a2be 98fe 53be
000000b0: a38c 403e 0cc5 8abd b1a4 52be 6ce9 01bd
000000c0: 3447 e13d 267c bc3c 3294 77be 919b 8fbd
000000d0: 690d 87bd da0f 66be 549c 85be dcb3 8ebe
000000e0: 61ac 43be 323a b5be e738 5bbe 87ed 9fbe
000000f0: 0a8e 6fbd 0f19 9dbd c6da 69be ded8 7fbe
00000100: 522f 6fbd 679c 4abe 9550 debd 54a5 1ebe
00000110: e6fd 20bd 8238 9a3d 719b 43bd e8f4 d5bd
00000120: fedc 07be 58f4 583e 4c7b fdbc 0cf5 78be
00000130: d49a a6be e174 6cbd db39 e2be 4c60 b7be
00000140: 5663 90be 821b bfbe a3d6 b9be 5451 75be
00000150: 67cf afbe 52f4 edbe cdb5 bcbe fc3b fdbe
00000160: 89eb 0dbf 436b e1be 67e8 28be f598 14be
00000170: f7c8 d6be 8cab 45be 60fc 65be aa10 a6be
00000180: 6614 96be a357 55bd ba67 4abd 25dc 1a3e
00000190: 8db3 013d 9a93 4b3e 9f84 04be 105c afbe
000001a0: 4842 dfbd 9865 8a3e eb04 593e 1ef0 8e3e
000001b0: 2229 b73e 7d58 c23e e95d 55bc 6291 b83d
000001c0: 67b2 f53e 2a6e 943e 3843 503e 85e1 93bd
000001d0: 8e78 1bbe 08b9 e7bc e6ac 973d 2e78 2fbc
000001e0: 5dd6 c3be 2271 92be 28c1 f1be b303 05bf
000001f0: c1bb cabd fc6e 493e ff2a a83e b8d2 59bd
00000200: 03a6 8fbe 5d7e e1bd e8b9 633e 721a 713e
00000210: 6db1 e3bd bcbb 9abe a552 e6bd d749 a73e
00000220: dcf6 003e 4609 073e b12d b7be 536b 3fbe
00000230: f737 793e ebdb 723d 34d0 29be dcb0 3abe
00000240: 1f53 acbe 6981 d63d 6daa 763e 8cf1 253e
00000250: 2496 a63d e012 bebd

conv1.bias f4 [6]
0.26237023 0.070147686 -0.06195689 0.23469423 0.23798648 -0.02969277
00000000: 6455 863e 97a9 8f3d 82c6 7dbd af53 703e
00000010: bab2 733e 413e f3bc

conv2.weight f4 [16, 6, 5, 5]
0.017027827 -0.03337766 -0.04465188 0.0034792244 0.033178095 0.10247107 0.10908504 -0.03552176
0.06043893 0.0034550366 0.10454801 0.26507002 0.38245952 0.30077887 0.17061184 0.08451702
0.2007056 0.17585146 0.005276953 -0.012137654 -0.05308401 0.021773642 -0.06861037 -0.08298111
0.0143231945 -0.10072721 -0.007226374 0.0033518483 0.05338087 0.036290124 -0.040635604 -0.04752088
-0.05482222 -0.105312526 -0.058218714 -0.015416292 -0.039209504 -0.08612975 -0.0609794 -0.08939103
0.031796847 0.045560937 0.04000776 -0.060638458 -0.036401797 0.043505933 -0.015881805 -0.06943611
-0.062523834 -0.04607765 0.04063421 -0.039141376 0.12632732 0.1464651 0.025757248 0.0300728
-0.004283853 0.01715481 -0.078304924 0.005379841 0.0057411594 -0.035169885 -0.13412125 -0.06712617
-0.01437354 -0.053372867 -0.041379184 0.10576584 0.06393488 -0.07248538 -0.027945196 0.024785742
-0.02771972 -0.033153884 0.00946675 -0.008346314 0.05499139 0.18270403 0.20173152 0.08804683
-0.13811643 -0.17352174 -0.05000669 0.012362497 0.07310907 0.006882518 -0.13275655 -0.14983293
-0.15670998 -0.086107224 0.12453673 -0.0015936166 0.0758237 -0.0009409677 0.02316965 0.084108636
0.07376335 0.057871338 0.011131778 0.024117159 0.0875661 0.021437911 -0.030542443 -0.04147627
-0.014666698 0.20032519 0.23642914 0.2156526 0.17299101 0.06523223 0.118803695 0.25788972
0.33338842 0.27369857 0.06160098 0.028842311 0.09455776 0.043669906 0.09304806 -0.0003834011
0.064228706 0.02502288 -0.02076642 -0.0031304178 -0.029953513 0.09601925 -0.0114881545 -0.0697275
-0.058389008 -0.1017505 0.030515356 -0.11089713 -0.13696903 -0.09725582 -0.042213645 -0.01501079
-0.1303327 -0.085049056 -0.13562925 -0.10797935 -0.0746433 -0.12315925 -0.120911546 -0.036053777
-0.03160825 0.012624759 0.010612844 -0.17002161 -0.03371215 -0.011745915 0.01620142 -0.07184884
0.024046466 -0.051603764 -0.04519981 -0.12608892 -0.13117264 -0.10434261 -0.06463154 -0.0761357
-0.072650254 0.09786447 0.0921561 0.06783791 -0.01701524 0.11206928 0.020661654 0.07471207
0.05885101 0.03893783 0.08260844 -0.021468168 -0.027686648 0.067945346 0.06301746 -0.02732969
0.011127208 0.04082875 -0.07707457 0.024691503 0.11826872 0.05710381 -0.13520195 0.041260447
-0.02384432 0.08855883 -0.07145207 0.019096004 -0.05857131 -0.030367069 -0.03336191 0.016693754
-0.04031227 0.017427815 -0.009269132 -0.02270198 0.00929762 0.088904686 -0.0061874804 -0.003969358
-0.044896264 -0.02944577 -0.03702266 0.03375656 -0.031987935 -0.023902042 -0.11002966 -0.13647853
0.05462484 0.015898595 0.01461579 -0.05420301 -0.10398218 0.056748852 -0.026185967 0.021701345
-0.11943225 -0.029765174 0.10335697 -0.053380486 -0.021266745 0.044390976 0.087687336 0.07924677
0.053460903 0.014098484 -0.117343925 -0.12744287 -0.0009810631 0.036192607 0.07210251 -0.049013287
-0.2308336 0.07834661 0.1424524 0.031968415 -0.19629256 -0.20053762 0.09256683 0.10913154
-0.12543763 -0.08189925 0.003435724 0.13165523 0.102431074 -0.040930368 0.06363682 0.074083306
0.110915065 0.17937377 0.09393236 -0.005167326 0.007841658 -0.13157651 -0.0140862055 -0.056743894
00000000: f17d 8b3c 03b7 08bd e4e4 36bd b303 643b
00000010: c1e5 073d 5adc d13d fa67 df3d 447f 11bd
00000020: d08e 773d e56d 623b 441d d63d 42b7 873e
00000030: bcd1 c33e b0ff 993e dfb4 2e3e 4217 ad3d
00000040: c585 4d3e 6812 343e 4aea ac3b 03dd 46bc
00000050: 9e6e 59bd a35e b23c 9883 8cbd 00f2 a9bd
00000060: d5ab 6a3c 114a cebd 38cb ecbb afaa 5b3b
00000070: e6a5 5a3d f4a4 143d 8571 26bd 41a5 42bd
00000080: 448d 60bd 18ae d7bd bf76 6ebd 9d94 7cbc
00000090: 259a 20bd cb64 b0bd 89c5 79bd a512 b7bd
000000a0: 693d 023d 1b9e 3a3d 2ddf 233d 0860 78bd
000000b0: 0d1a 15bd 4733 323d 8f1a 82bc 8534 8ebd
000000c0: 7f0c 80bd ebbb 3cbd 0f70 263d b552 20bd
000000d0: f35b 013e f2fa 153e dd00 d33c 3c5b f63c
000000e0: 905f 8cbb 3e88 8c3c 555e a0bd 6149 b03b
000000f0: 5620 bc3b 4c0e 10bd 1557 09be 7279 89bd
00000100: ff7e 6bbc 829d 5abd 387d 29bd c39b d83d
00000110: 4af0 823d 3773 94bd 53ed e4bc 780b cb3c
00000120: 7714 e3bc 5ecc 07bd 6d1a 1b3c fabe 08bc
00000130: a73e 613d c416 3b3e b592 4e3e e551 b43d
00000140: 656e 0dbe afaf 31be d1d3 4cbd 128c 4a3c
00000150: 35ba 953d bf86 e13b 55f1 07be ce6d 19be
00000160: 9578 20be fc58 b0bd 1d0d ff3d e6e0 d0ba
00000170: 7549 9b3d 46ab 76ba 47ce bd3c 2641 ac3d
00000180: 3d11 973d 7f0a 6d3d 1062 363c 5991 c53c
00000190: db55 b33d 8f9e af3c 2534 fabc 05e3 29bd
000001a0: 974c 70bc 0c22 4d3e 7b1a 723e 09d4 5c3e
000001b0: 8e24 313e 7a98 853d 5a4f f33d 1f0a 843e
000001c0: e3b1 aa3e 3822 8c3e 4f51 7c3d b646 ec3c
000001d0: 80a7 c13d 37df 323d fb8f be3d 3903 c9b9
000001e0: 578a 833d c8fc cc3c 571e aabc b227 4dbb
000001f0: 1261 f5bc bea5 c43d d038 3cbc 4bcd 8ebd
00000200: 5029 6fbd 9162 d0bd 57fb f93c 091e e3bd
00000210: 9c41 0cbe 0f2e c7bd 37e8 2cbd d1ef 75bc
00000220: ef75 05be 332e aebd 65e2 0abe 4724 ddbd
00000230: 96de 98bd eb3a fcbd 79a0 f7bd 20ad 13bd
00000240: a777 01bd 14d8 4e3c 7ee1 2d3c 251a 2ebe
00000250: c015 0abd f071 40bc d7b8 843c 7c25 93bd
00000260: 18fd c43c 785e 53bd 7023 39bd 741d 01be
00000270: 1f52 06be 94b1 d5bd 8a5d 84bd 09ed 9bbd
00000280: a8c9 94bd 2b6d c83d 56bc bc3d 9aee 8a3d
00000290: 8b63 8bbc 9484 e53d a142 a93c a402 993d
000002a0: c20d 713d 467d 1f3d 9d2e a93d 03de afbc
000002b0: 1ccf e2bc ee26 8b3d 4c0f 813d 84e2 dfbc
000002c0: e54e 363c 0c3c 273d 46d9 9dbd d645 ca3c
000002d0: df36 f23d afe5 693d 6172 0abe b700 293d
000002e0: 2a55 c3bc 555e b53d 7655 92bd 396f 9c3c
000002f0: 78e8 6fbd 5cc4 f8bc 80a6 08bd 57c1 883c
00000300: 7b1e 25bd c7c4 8e3c 8fdd 17bc 81f9 b9bc
00000310: 0b55 183c a913 b63d 59c0 cabb 6311 82bb
00000320: 25e5 37bd 4138 f1bc 13a5 17bd 5244 0a3d
00000330: c805 03bd 37ce c3bc 3b57 e1bd 07c1 0bbe
00000340: 4cbe 5f3d c53d 823c 1177 6f3c fa03 5ebd
00000350: 9cf4 d4bd 7c71 683d f483 d6bc 05c7 b13c
00000360: e598 f4bd 18d6 f3bc d2ac d33d 7fa5 5abd
00000370: 9937 aebc 50d3 353d 6b95 b33d 214c a23d
00000380: d2f9 5a3d 54fd 663c 0352 f0bd 6280 02be
00000390: 0497 80ba b33e 143d 7baa 933d 28c2 48bd
000003a0: a55f 6cbe 3074 a03d 0bdf 113e 50f1 023d
000003b0: eb00 49be bc59 4dbe ae93 bd3d 5b80 df3d
000003c0: b972 00be cbba a7bd e229 613b a1d0 063e
000003d0: 62c7 d13d 9aa6 27bd 0554 823d fdb8 973d
000003e0: 7027 e33d c2ad 373e 9c5f c03d ac52 a9bb
000003f0: 4c7a 003c febb 06be d4c9 66bc 496c 68bd

conv2.bias f4 [16]
-0.012382845 0.03226082 -0.05693826 0.0764104 0.042687688 -0.010849828 0.061462022 0.10915975
0.06959832 0.0013903201 0.08646021 0.059348017 0.08380702 0.041081756 -0.062153984 -0.04930702
00000000: 6be1 4abc ec23 043d 1838 69bd 0e7d 9c3d
00000010: 49d9 2e3d 7ac3 31bc 9abf 7b3d 268f df3d
00000020: 9089 8e3d 673b b63a 0d12 b13d e816 733d
00000030: 04a3 ab3d 5845 283d 2d95 7ebd 28f6 49bd

fc1.weight f4 [120, 256]
-0.021206385 -0.045170184 0.03571465 -0.07260407 -0.036586497 0.03979508 0.06349761 -0.1045777
-0.047851153 0.065415554 -0.016668648 0.03333781 -0.045658942 0.0052797995 -0.033522867 0.062876225
0.0067580426 -0.0069346745 0.020148585 -0.005265094 -0.039042447 0.027694054 0.018670358 0.07172117
-0.014477104 0.0024160517 0.026817683 0.04841707 0.008480689 -0.03199608 -0.04130179 0.0018453228
0.06147627 -0.014757142 -0.06924625 0.00848403 -0.007411605 -0.013585787 -0.054969948 -0.016116176
-0.031333666 -0.03600454 0.014526728 0.031760424 0.011725895 0.02085889 -0.052105103 -0.018351756
-0.047387395 -0.036377523 -0.044645447 -0.026245454 0.04428814 -0.046549223 -0.0016589635 0.045708098
0.035059996 -0.050292257 -0.0409816 0.03323625 0.062489167 0.06423557 0.040653948 -0.035648245
-0.00845529 -0.058537383 -0.080072165 -0.028749771 0.018533306 0.116080426 -0.04969538 0.0049460023
0.056671493 0.035114817 0.03462775 -0.030714208 0.03765306 -0.018992968 -0.038855977 0.044561807
0.0641281 0.036553774 0.013892662 -0.034710947 -0.0005841908 0.033405658 -0.04708988 0.007872959
-0.035445232 -0.014294905 -0.012121533 -0.054570682 0.020679196 -0.043335732 -0.009813929 0.0024695594
-0.02376315 0.023475597 0.057511527 -0.008714244 -0.010205227 0.075923465 -0.049360886 0.047654774
0.014761125 -0.04381153 -0.008625893 -0.0059027527 -0.020720327 0.054626416 0.057352286 -0.045497335
-0.07180964 0.02429976 0.027085045 0.0697965 0.030627176 -0.009510458 0.030571159 0.037459068
0.0042545325 -0.0873549 0.0791141 -0.0027290133 0.044565756 -0.016383583 0.07621491 -0.010584527
-0.018125152 -0.012146352 0.030773172 0.061283305 0.048568923 0.004712803 0.08267191 -0.029530097
0.05488732 0.03164517 0.055383656 -0.048778195 0.0614138 0.079739064 0.04124073 -0.022196168
-0.006859078 0.0013056053 0.077240795 -0.021043912 0.059804775 -0.023998817 0.04139396 0.05883677
0.032220602 -0.048928525 -0.04234484 -0.06503365 0.0053230845 -0.015110413 -0.017481994 0.005401584
-0.019726178 -0.033901617 0.022232944 -0.0129356915 -0.009539317 -0.033398144 0.018467901 0.005649452
0.0038619738 0.059550527 -0.0047855503 0.018937182 0.016994972 0.016215438 -0.05787412 -0.052229844
-0.02630968 -0.016722579 -0.06011855 -0.026688 0.051555235 0.053573783 0.05368489 0.013038035
-0.06857108 0.071928136 0.05016265 0.020216312 0.046836063 0.078667 -0.015484766 0.051591706
-0.026122402 0.004737462 0.07429714 0.03351116 -0.012107859 -0.02314909 -0.0021395122 -0.031746488
-0.068574615 -0.022124235 -0.018952686 -0.06917931 0.060315985 0.009658763 -0.0054951403 -0.012923256
0.026756056 0.008910728 -0.004921565 0.04959375 0.045477435 0.0027725485 0.06357092 -0.039947525
0.008707767 -0.035769008 -0.024448896 -0.049305514 -0.0007671901 -0.05776274 -0.00038938207 0.0568387
-0.058262642 0.035957646 -0.0587139 0.023349633 -0.009192275 0.056399092 0.04769166 0.045137964
0.057306357 0.05352508 -0.039920643 -0.014993263 -0.022698812 -0.029280892 0.0387199 0.020500308
-0.029479768 -0.016180012 -0.020728974 -0.0548208 0.013158708 0.056340538 0.07509896 -0.03434515
-0.018694969 0.06425535 0.031490676 0.0010339409 0.020867174 0.019596238 -0.06662648 -0.0024790908
00000000: 03b9 adbc 5f04 39bd 8649 123d 71b1 94bd
00000010: b9db 15bd 2a00 233d 090b 823d d52c d6bd
00000020: 92ff 43bd 97f8 853d b08c 88bc 3a8d 083d
00000030: df04 3bbd 2b02 ad3b 464f 09bd 40c5 803d
00000040: 9272 dd3b 443c e3bb a50e a53c cf86 acbb
00000050: f9ea 1fbd a4de e23c 94f2 983c 8ce2 923d
00000060: 6031 6dbc 9f56 1e3b c2b0 db3c fa50 463d
00000070: 96f2 0a3c 520e 03bd 112c 29bd c2de f13a
00000080: 8bce 7b3d f1c7 71bc fad0 8dbd 9a00 0b3c
00000090: 0ddd f2bb ec96 5ebc 2b28 61bd 1206 84bc
000000a0: bb57 00bd 7f79 13bd 8301 6e3c 3817 023d
000000b0: f81d 403c 43e0 aa3c 296c 55bd 6c56 96bc
000000c0: 4919 42bd 9900 15bd 25de 36bd b500 d7bc
000000d0: 7b67 353d 66aa 3ebd 9471 d9ba 6a38 3b3d
000000e0: 129b 0f3d 41ff 4dbd 52dc 27bd bc22 083d
000000f0: a4f4 7f3d f08d 833d c184 263d e503 12bd
00000100: 0f88 0abc e5c4 6fbd e0fc a3bd a484 ebbc
00000110: 29d3 973c 93bb ed3d 628d 4bbd 1312 a23b
00000120: 5e20 683d 8ed4 0f3d d4d5 0d3d 5d9c fbbc
00000130: 183a 1a3d 2497 9bbc 7227 1fbd 7186 363d
00000140: 9855 833d 69b9 153d 0c9e 633c 112d 0ebd
00000150: 6224 19ba 5fd4 083d 51e1 40bd 95fd 003c
00000160: 052f 11bd 2d35 6abc 6599 46bc 8285 5fbd
00000170: 6b67 a93c cf80 31bd 9aca 20bc 55d8 213b
00000180: f0aa c2bc e54f c03c 3591 6b3d 30c6 0ebc
00000190: d333 27bc c37d 9b3d a42e 4abd a731 433d
000001a0: a5d8 713c b873 33bd 9e53 0dbc e16b c1bb
000001b0: adbd a9bc f3bf 5f3d 3bea 6a3d 6a5b 3abd
000001c0: ef10 93bd 4a10 c73c 75e1 dd3c 78f1 8e3d
000001d0: d8e5 fa3c c1d1 1bbc 5e70 fa3c ae6e 193d
000001e0: 9b69 8b3b 20e7 b2bd 9306 a23d 3fd9 32bb
000001f0: 958a 363d dd36 86bc 9016 9c3d b96a 2dbc
00000200: 337b 94bc 7e01 47bc 0518 fc3c 3404 7b3d
00000210: 35f0 463d db6d 9a3b e44f a93d 1ae9 f1bc
00000220: 87d1 603d 5e9e 013d f9d9 623d a5cb 47bd
00000230: 098d 7b3d 3c4e a33d 0aec 283d bdd4 b5bc
00000240: 1ec2 e0bb d820 ab3a 6c30 9e3d 4864 acbc
00000250: daf5 743d 2b99 c4bc b78c 293d d3fe 703d
00000260: c0f9 033d 4769 48bd c871 2dbd 5d30 85bd
00000270: 456d ae3b aa91 77bc 6636 8fbc c5ff b03b
00000280: cb98 a1bc 6cdc 0abd dd21 b63c 39f0 53bc
00000290: cc4a 1cbc 7ecc 08bd ff49 973c 0a1f b93b
000002a0: 2b19 7d3b 41eb 733d 1bd0 9cbb 2622 9b3c
000002b0: 0a39 8b3c 3dd6 843c 6a0d 6dbd f6ee 55bd
000002c0: 6687 d7bc cafd 88bc de3e 76bd cba0 dabc
000002d0: 952b 533d 2f70 5b3d b0e4 5b3d 7b9d 553c
000002e0: ff6e 8cbd 0f4f 933d 5a77 4d3d ae9c a53c
000002f0: 2cd7 3f3d 2a1c a13d d1b3 7dbc d351 533d
00000300: a6fe d5bc b63c 9b3b 1929 983d 0043 093d
00000310: 0b60 46bc 29a3 bdbc 0f37 0cbb 9b08 02bd
00000320: d970 8cbd e23d b5bc aa42 9bbc e2ad 8dbd
00000330: e50d 773d ca3f 1e3c 9410 b4bb 10bc 53bc
00000340: 842f db3c 4dfe 113c 1445 a1bb d122 4b3d
00000350: 8c46 3a3d a5b3 353b 7831 823d 04a0 23bd
00000360: 06ab 0e3c 8682 12bd 0d49 c8bc 94f4 49bd
00000370: 421d 49ba 9f98 6cbd fa25 ccb9 b2cf 683d
00000380: cfa4 6ebd 5348 133d fd7d 70bd bb47 bf3c
00000390: 329b 16bc bc02 673d 5458 433d 96e2 383d
000003a0: 12ba 6a3d 1d3d 5b3d d483 23bd 4ea6 75bc
000003b0: dcf2 b9bc 7bde efbc c298 1e3d 43f0 a73c
000003c0: 8e7f f1bc f28b 84bc cfcf a9bc c68b 60bd
000003d0: 9f97 573c 56c5 663d 7ccd 993d 80ad 0cbd
000003e0: 3126 99bc 4f98 833d 5efc 003d 4d85 873a
000003f0: a3f1 aa3c 4a88 a03c 7773 88bd 3e78 22bb

fc1.bias f4 [120]
0.0024135567 -0.029859737 0.028063582 -0.043818373 0.018097878 0.04877447 0.011678604 -0.016273819
-0.041651443 -0.059370495 0.0672565 -0.06864845 -0.03465758 -0.032555617 -0.00077143643 0.01822066
0.053927034 0.033274435 0.062674746 -0.02769295 0.025772916 -0.017962601 0.052348685 0.02972936
0.041268684 0.063254535 0.05161608 0.059248026 -0.02094934 -0.046469606 0.03795355 0.027743692
-0.008839273 0.03712176 -0.0035195448 -0.045517683 -0.021954678 -0.022372276 -0.05423125 -0.050029445
0.046266872 0.045946386 0.026658114 -0.013685202 -0.03941254 0.020096904 0.06908124 -0.04497017
-0.03203711 0.025700787 0.05249848 -0.016633077 -0.01572244 -0.019182019 0.054246943 0.029752431
-0.024210935 -0.038495056 0.036077365 -0.03542439 0.014342298 0.02664183 -0.019458089 0.05886156
-0.026723977 0.04700082 0.06340319 0.0137677165 0.021121293 0.0007534552 0.059453208 -0.06097595
-0.03222909 0.03448511 0.044179562 -0.03164851 -0.036899082 0.011664035 0.050108507 -0.06498674
-0.005728409 -0.031829234 0.04466591 0.05154366 -0.007878943 0.005650451 -0.008477521 -0.000733391
0.029017916 0.054967444 0.0061776764 0.05589666 0.035693876 -0.042637154 -0.024627758 0.042103063
-0.022103043 0.025173306 -0.049873896 -0.026471948 0.049396638 0.047123577 0.008980581 0.04553862
-0.04699898 0.04263278 0.043738082 -0.046636857 -0.015494219 0.037418272 -0.03271103 0.0050123716
0.0200978 0.042315237 0.05882774 -0.004110527 -0.053518794 0.04637311 0.01866844 -0.0062954505
00000000: c32c 1e3b 689c f4bc 99e5 e53c e57a 33bd
00000010: 0042 943c bdc7 473d 9e57 3f3c ac50 85bc
00000020: b49a 2abd 7a2e 73bd c7bd 893d 8f97 8cbd
00000030: 1bf5 0dbd 0a59 05bd 393a 4aba 7e43 953c
00000040: 98e2 5c3d c64a 083d 9e5b 803d 53dc e2bc
00000050: b921 d33c 4e26 93bc 936b 563d fd8a f33c
00000060: 5a09 293d 988b 813d 626b 533d 0fae 723d
00000070: f39d abbc ea56 3ebd 2f75 1b3d bd46 e33c
00000080: 99d2 10bc fd0c 183d 2aa8 66bb c070 3abd
00000090: 4cda b3bc 1046 b7bc 9621 5ebd adeb 4cbd
000000a0: 5582 3d3d 4732 3c3d 1e62 da3c e637 60bc
000000b0: 0b6f 21bd 43a2 a43c 777a 8d3d a432 38bd
000000c0: 5839 03bd 758a d23c a508 573d 1742 88bc
000000d0: 59cc 80bc 9c23 9dbc 0b32 5e3d 5fbb f33c
000000e0: 0356 c6bc feac 1dbd dcc5 133d 2a19 11bd
000000f0: f5fb 6a3c f83f da3c 9266 9fbc d218 713d
00000100: 3eec dabc ef83 403d 88d9 813d fd91 613c
00000110: 9006 ad3c 8683 453a 3585 733d ebc1 79bd
00000120: a602 04bd 4240 0d3d a1f5 343d dea1 01bd
00000130: 7e23 17bd 821a 3f3c 943e 4d3d c517 85bd
00000140: 61b5 bbbb 5f5f 02bd 9af3 363d 721f 533d
00000150: af16 01bc 6b27 b93b 4de5 0abc 0941 40ba
00000160: fbb6 ed3c 8b25 613d 1b6e ca3b e5f3 643d
00000170: be33 123d 4ca4 2ebd 27c0 c9bc 4374 2c3d
00000180: 7111 b5bc 4038 ce3c 9248 4cbd b3db d8bc
00000190: 2154 4a3d a704 413d 4923 133c b486 3a3d
000001a0: 0182 40bd b69f 2e3d b426 333d 4a06 3fbd
000001b0: 77db 7dbc e743 193d 00fc 05bd d23e a43b
000001c0: 24a4 a43c be52 2d3d 5bf5 703d 9ab1 86bb
000001d0: 8636 5bbd bbf1 3d3d 8eee 983c 114a cebb

fc2.weight f4 [84, 120]
0.0679574 0.07592318 0.0317617 0.03430496 2.3985442e-05 0.088794865 -0.008381887 -0.04657357
0.04335506 -0.036576074 0.079349056 -0.044581562 -0.017905243 0.039516818 -0.07632656 -0.053052798
0.07512744 0.09189049 0.09034179 0.00042539634 -0.018508742 0.034228478 -0.042826187 -0.06590058
-0.0111083295 0.008546022 -0.08938564 -0.037211947 -0.08048697 -0.07391182 -0.09556741 -0.03708416
-0.029579459 -0.019813597 -0.009225971 0.081163205 -0.020356763 0.059528418 0.02126986 0.08598356
-0.018999364 -0.08496123 0.07507166 0.024109684 0.04569989 -0.087924555 0.06792697 -0.016967429
-0.06326626 0.009892739 0.07488855 -0.02867362 0.0687246 0.021504316 -0.0028871978 -0.019525288
-0.06351481 -0.014092276 -0.0070746453 -0.010969928 0.08532399 0.009783584 -0.081884615 0.075462215
0.052333035 0.029585356 0.070765145 0.055411704 -0.07173843 0.06643827 -0.02038782 0.034731198
0.042668343 0.10549703 0.054429762 0.06329579 0.032924533 -0.07265188 0.08185441 -0.061178062
0.072012484 -0.084273376 -0.09251937 -0.12818424 0.042095494 0.058771897 -0.04995473 0.049808122
-0.021376366 -0.01128582 0.037907682 0.10933711 0.054287277 -0.05603082 -0.024101388 -0.014587984
0.068358995 -0.080302514 -0.0058886046 -0.014140054 0.07637697 -0.092245236 0.074730955 0.0095871715
0.034312654 -0.04113133 -0.062411718 0.018475935 -0.088318005 0.038151253 0.080044255 0.021686848
0.07712103 0.07337928 -0.003971583 -0.000830536 0.036449037 -0.009037292 0.008037373 -0.039616443
0.033447213 -0.07827636 -0.089231804 -0.072417654 -0.032217283 -0.00661895 0.010425239 0.001473449
0.037940696 0.00401072 0.011567798 -0.077989005 -0.06629087 -0.08411788 -0.06641665 -0.03410951
0.03172729 -0.017897658 0.048544895 -0.08418823 -0.056731313 0.07361523 -0.004996938 -0.05695056
0.024832025 0.05523818 -0.07447093 -0.020301744 -0.049693666 0.018809315 -0.03161861 -0.0063935923
-0.0067477166 -0.06377691 -0.0808808 0.082603514 -0.030197643 -0.047163464 -0.014832923 -0.08687363
-0.025678188 0.03960951 0.0708206 -0.014696225 -0.029435368 0.0135144815 -0.08159004 0.05421349
-0.09229683 -0.024319708 -0.058927312 -0.0053060004 -0.056500986 -0.072596304 -0.0246792 -0.016505813
0.07479985 -0.051500548 0.00013039219 0.08589165 -0.07673395 0.05021095 0.05539919 -0.0072274846
0.049747773 -0.0037655674 0.046939597 -0.081345655 0.025773754 -0.014387153 0.02893185 0.07635616
-0.06346463 -0.028469095 -0.0011272223 0.010883179 -0.068609156 -0.016969234 0.08637155 0.026072297
-0.031723816 0.038324803 0.03098494 -0.049358487 -0.0019367586 0.006318855 0.0821752 -0.013073769
-0.018099662 -0.059349496 0.0858998 0.005933079 0.06209273 0.004844993 0.044217583 0.048109777
-0.0039010684 -0.046149157 0.023596996 -0.045878008 -0.08191348 0.07917773 -0.024939315 -0.012424553
-0.09076208 -0.031738993 0.06907946 -0.022341995 -0.070104435 0.074449174 -0.025653906 -0.07822006
-0.010195441 -0.027717907 -0.025753759 -0.015716678 0.0337119 0.049204018 -0.07727362 -0.0101437615
-0.07435186 0.041503523 0.04391358 0.07600775 0.025165066 0.094421804 -0.06637892 0.024424557
0.027654974 0.094911836 0.05951235 0.02874895 -0.0230108 -0.08534383 -0.022501744 0.0034206514
00000000: 402d 8b3d 9d7d 9b3d 8e18 023d 5c83 0c3d
00000010: 5834 c937 15da b53d 2f54 09bc eec3 3ebd
00000020: 1395 313d cbd0 15bd c281 a23d 289b 36bd
00000030: 04ae 92bc 63dc 213d 1951 9cbd e44d 59bd
00000040: 6adc 993d 1531 bc3d 1e05 b93d bb07 df39
00000050: a59f 97bc 2933 0c3d 836a 2fbd e2f6 86bd
00000060: b6ff 35bc 9d04 0c3c d20f b7bd 8e6b 18bd
00000070: 5ad6 a4bd 155f 97bd d9b8 c3bd 8fe5 17bd
00000080: 9f50 f2bc 2050 a2bc 8728 17bc e538 a63d
00000090: 3ac3 a6bc 12d4 733d 213e ae3c 2618 b03d
000000a0: 8ea4 9bbc 2700 aebd 2cbf 993d ac81 c53c
000000b0: cf2f 3b3d ca11 b4bd 4c1d 8b3d 47ff 8abc
000000c0: be91 81bd 2815 223c 2b5f 993d f1e4 eabc
000000d0: 7cbf 8c3d d229 b03c 2437 3dbb 7ff3 9fbc
000000e0: 0d14 82bd 4ae3 66bc 6dd2 e7bb 36bb 33bc
000000f0: 58be ae3d 534b 203c 1fb3 a7bd ef8b 9a3d
00000100: 2a5b 563d fd5c f23c 51ed 903d 62f7 623d
00000110: 99eb 92bd ca10 883d 5c04 a7bc 4d42 0e3d
00000120: 00c5 2e3d d40e d83d bef1 5e3d 39a1 813d
00000130: e0db 063d 82ca 94bd 49a3 a73d d995 7abd
00000140: 487b 933d 8597 acbd cc7a bdbd bb42 03be
00000150: 536c 2c3d cdba 703d 559d 4cbd 9a03 4c3d
00000160: 7d1d afbc 29e8 38bc 1645 1b3d 22ec df3d
00000170: 565c 5e3d 9380 65bd 4670 c5bc 7102 6fbc
00000180: cdff 8b3d a575 a4bd 32f5 c0bb afab 67bc
00000190: 876b 9c3d 12eb bcbd 8b0c 993d 8313 1d3c
000001a0: 6d8b 0c3d 5379 28bd 6ea3 7fbd d85a 973c
000001b0: 12e0 b4bd 7d44 1c3d 3eee a33d 9ea8 b13c
000001c0: a1f1 9d3d e047 963d 0e24 82bb 54b8 59ba
000001d0: 964b 153d 2611 14bc 30af 033c da44 22bd
000001e0: f2ff 083d 5b4f a0bd 2abf b6bd b54f 94bd
000001f0: 45f6 03bd c7e3 d8bb 9fce 2a3c bf20 c13a
00000200: b467 1b3d 5c6c 833b dd86 3d3c b3b8 9fbd
00000210: 82c3 87bd ff45 acbd 7405 88bd 6ab6 0bbd
00000220: 7af4 013d 1c9e 92bc 03d7 463d e16a acbd
00000230: 185f 68bd 95c3 963d 5bbd a3bb fe44 69bd
00000240: 886c cb3c 6e41 623d 3784 98bd d84f a6bc
00000250: 968b 4bbd fe15 9a3c 8482 01bd 5781 d1bb
00000260: f31b ddbb 789d 82bd d5a4 a5bd 082c a93d
00000270: 0c61 f7bc 7a2e 41bd ca05 73bc cdea b1bd
00000280: 105b d2bc 953d 223d 640a 913d 6fc8 70bc
00000290: 7122 f1bc d86b 5d3c ae18 a7bd f70e 5e3d
000002a0: 1f06 bdbd 203a c7bc c45d 71bd f5dd adbb
000002b0: 946d 67bd 5fad 94bd 092c cabc 3337 87bc
000002c0: aa30 993d 3df2 52bd e3b9 0839 f6e7 af3d
000002d0: b026 9dbd ffa9 4d3d 43ea 623d 89d4 ecbb
000002e0: 52c4 4b3d bdc7 76bb bc43 403d 8d98 a6bd
000002f0: 7b23 d33c 18b8 6bbc 7d02 ed3c 9e60 9c3d
00000300: bef9 81bd 0538 e9bc 4ebf 93ba 5c4f 323c
00000310: f582 8cbd 1003 8bbc 91e3 b03d 9295 d53c
00000320: d5f0 01bd 78fa 1c3d 21d4 fd3c 202c 4abd
00000330: d6da fdba 660e cf3b 794b a83d 5d33 56bc
00000340: be45 94bc 7518 73bd 3cec af3d 466a c23b
00000350: f254 7e3d bfc2 9e3b 7f1d 353d c20e 453d
00000360: 11a9 7fbb e606 3dbd 7d4e c13c 94ea 3bbd
00000370: 41c2 a7bd ef27 a23d 894d ccbc 5a90 4bbc
00000380: 78e1 b9bd bf00 02bd 8879 8d3d 8f06 b7bc
00000390: ea92 8fbd cf78 983d 2428 d2bc d731 a0bd
000003a0: c70a 27bc aa10 e3bc 8cf9 d2bc 43c0 80bc
000003b0: 7d15 0a3d 278a 493d a241 9ebd 0532 26bc
000003c0: ca45 98bd 99ff 293d bade 333d f4a9 9b3d
000003d0: f826 ce3c 3860 c13d acf1 87bd 0216 c83c
000003e0: af8c e23c 2361 c23d 39c3 733d eb82 eb3c
000003f0: 2581 bcbc bfc8 aebd 9455 b8bc 022d 603b

fc2.bias f4 [84]
-0.080429256 -0.030273357 -0.045577053 0.08283817 0.10570842 0.08586019 0.10056007 -0.030531192
0.043454994 -0.024644248 -0.02524835 -0.09502879 -0.08001049 -0.062395103 -0.08270664 0.07613829
-0.033393178 -0.0022724546 0.019119471 -0.037945658 0.005465894 -0.06600347 0.06136581 0.10280323
-0.03033529 0.087824754 -0.028884143 0.08346917 0.05419572 0.07163249 0.08384323 -0.04638504
-0.015304441 -0.01423016 0.07695261 0.05370643 0.0701645 -0.08744543 0.0030849678 0.0021131844
0.056794874 -0.04091168 0.027022947 -0.06496774 0.050227344 0.04918055 0.054293677 -0.07054844
0.008986672 -0.0051386952 0.019504031 0.085410774 0.048427068 -0.06321652 -0.037509352 0.027760062
0.018731548 0.06132713 0.08417965 -0.03613315 0.07373065 0.009302927 0.035479784 0.012818644
-0.028949087 0.055338558 -0.08144314 0.0038801683 0.05281472 0.052441675 0.025941962 0.076397076
0.11641602 0.06493593 -0.040106535 0.011573483 0.03344925 0.06545313 -0.012673885 -0.023588425
0.08031329 0.024488445 -0.05704561 0.04194212
00000000: 18b8 a4bd d5ff f7bc 01af 3abd 0fa7 a93d
00000010: a87d d83d 78d7 af3d 70f2 cd3d 8d1c fabc
00000020: ddfd 313d bce2 c9bc a1d5 cebc 749e c2bd
00000030: 8adc a3bd 0292 7fbd 1962 a9bd 64ee 9b3d
00000040: 49c7 08bd 76ed 14bb 70a0 9c3c e86c 1bbd
00000050: 3e1b b33b d42c 87bd b75a 7b3d 808a d23d
00000060: b781 f8bc 77dd b33d 709e ecbc e2f1 aa3d
00000070: 55fc 5d3d 0eb4 923d 00b6 ab3d 3dfe 3dbd
00000080: 7abf 7abc 9e25 69bc 5499 9d3d 46fb 5b3d
00000090: 68b2 8f3d 9716 b3bd 2c2d 4a3b 5a7d 0a3b
000000a0: bea1 683d 0193 27bd 3a5f dd3c ce0d 85bd
000000b0: 30bb 4d3d 8b71 493d 0c63 5e3d b37b 90bd
000000c0: d63c 133c 8062 a8bb ebc6 9f3c d8eb ae3d
000000d0: 765b 463d aa77 81bd 68a3 19bd 1269 e33c
000000e0: e772 993c 2832 7b3d 6166 ac3d 5b00 14bd
000000f0: 1800 973d 4e6b 183c 4053 113d 4a05 523c
00000100: a326 edbc afaa 623d a9cb a6bd 6c4a 7e3b
00000110: 3f54 583d 15cd 563d 3d84 d43c 1276 9c3d
00000120: 866b ee3d 21fd 843d c046 24bd b59e 3d3c
00000130: 1502 093d 4a0c 863d 20a6 4fbc 833c c1bc
00000140: 4b7b a43d fe9b c83c a8a8 69bd 80cb 2b3d

fc3.weight f4 [10, 84]
-0.0061963946 -0.086539164 -0.022125889 -0.072949536 0.03243316 0.06271481 0.16343218 -0.07786048
0.1201771 0.01973828 0.039708328 -0.054839365 -0.09879033 -0.031076282 0.081301175 0.23825432
0.069785886 0.0058739297 0.11979716 0.038697906 0.0938481 -0.013829786 0.08383596 -0.09173754
0.020725857 0.159176 -0.1777421 -0.15918383 -0.103006706 -0.03206375 0.12711619 0.062307406
0.08622399 -0.2517118 -0.046830527 -0.10789678 0.15970612 0.098857485 -0.13265945 0.12513213
0.10533811 0.024662722 -0.008089418 0.09774229 -0.009208148 0.14733253 -0.049854286 0.014581968
-0.047021296 0.0944186 0.095367745 0.029972035 0.1478433 0.09516694 -0.0755582 -0.036913812
-0.018976765 -0.109924056 0.07766058 -0.012169295 0.106212564 0.09052711 -0.24531609 -0.033204768
0.15526672 -0.13705258 -0.045938876 0.12118139 0.032569025 0.25742695 0.02594778 -0.2297092
0.15449083 0.09309527 0.047300857 0.09621654 -0.1835735 -0.13638894 -0.042757887 -0.08047832
0.027482226 -0.14511022 0.003074883 -0.006563773 0.003711237 0.008090096 0.13773584 0.02486595
-0.23031928 -0.10021187 0.21246904 0.22419666 -0.025790472 0.04812511 0.06719055 0.039520428
-0.0022869012 -0.12679122 -0.030251442 0.020263648 0.01135623 0.0617749 -0.18006146 0.12933105
-0.14606921 0.075270765 0.0017747747 -0.13581131 0.13938355 -0.109984346 -0.19194207 0.1618125
0.066395655 0.0025804327 -0.04716341 -0.016735151 0.2138711 0.12554505 0.041797623 0.02483494
-0.17205189 0.14173199 -0.10961539 -0.009330072 -0.018934323 -0.0067273313 -0.1395124 -0.05247578
-0.01731148 0.21366361 0.056753974 0.09116326 0.18399426 0.017388025 -0.074025005 0.02138218
0.06989964 -0.04667583 -0.10398993 -0.12778091 -0.02180894 0.1588286 -0.18348023 0.11685694
0.044734497 -0.2437167 -0.12388011 -0.097849146 0.054597493 0.076969035 -0.090216555 -0.07596727
0.13026668 -0.09526593 0.17216305 0.100906834 -0.17630395 -0.16100962 0.062252775 -0.07937142
0.07466185 0.08399564 0.037793413 0.017208599 -0.0018034832 -0.046815157 0.16277492 -0.1375058
0.17194271 0.031324983 0.056782324 0.13707112 0.04541169 -0.20328264 -0.06919779 0.10011984
0.26891804 -0.028806835 -0.0074486276 0.009656339 -0.0321956 -0.11935077 -0.015566408 0.024405833
-0.046558063 -0.08735771 0.18151222 -0.020656668 -0.026834827 -0.10929169 0.10264264 -0.106698655
-0.051377077 -0.0006112515 0.051394705 -0.011643554 -0.24192499 0.022755608 0.0029957953 0.018144598
0.06146523 -0.035233673 -0.0990574 -0.23628105 0.07198494 -0.0888109 0.13443166 -0.01578587
0.15359068 -0.06643604 -0.052454535 -0.17659198 -0.11031865 0.072507024 0.082167216 -0.10753159
-0.07924627 0.23350234 -0.24471451 -0.1396692 -0.13631682 -0.023251167 0.103137836 -0.04526505
0.042240925 0.024650933 0.081174865 -0.085485406 -0.11425442 -0.21161294 0.041266672 0.038216736
-0.0050093876 0.10223127 -0.06860314 0.027527383 -0.05675579 0.06472033 -0.05390689 -0.086917795
0.08528166 -0.11818762 0.041714482 0.017601734 0.17962123 0.050684307 -0.026468398 0.21581742
0.027164932 0.04903551 0.19914477 0.20473605 -0.13525751 -0.070936464 0.1105917 0.082668886
00000000: 200b cbbb 723b b1bd 5a41 b5bc 9166 95bd
00000010: a2d8 043d 9f70 803d c45a 273e 5175 9fbd
00000020: 691f f63d 2cb2 a13c 33a5 223d 3e9f 60bd
00000030: 9652 cabd b093 febc 3b81 a63d f1f8 733e
00000040: e7eb 8e3d 187a c03b 3758 f53d b281 1e3d
00000050: 6f33 c03d 5496 62bc 30b2 ab3d e4e0 bbbd
00000060: 46c9 a93c 09ff 223e 0602 36be 1601 23be
00000070: 2ef5 d2bd 4755 03bd bf2a 023e 0d36 7f3d
00000080: 3496 b03d 5ee0 80be 5ed1 3fbd fdf8 dcbd
00000090: 008a 233e cb75 ca3d e1d7 07be a322 003e
000000a0: 82bb d73d 7a09 ca3c 7a89 04bc 1c2d c83d
000000b0: c6dd 16bc 57de 163e 0234 4cbd 35e9 6e3c
000000c0: 6799 40bd 8a5e c13d 2a50 c33d ea87 f53c
000000d0: 3c64 173e e2e6 c23d 42be 9abd f032 17bd
000000e0: 2975 9bbc dd1f e1bd 830c 9f3d b961 47bc
000000f0: f985 d93d 4766 b93d 2434 7bbe b901 08bd
00000100: 3dfe 1e3e 8357 0cbe 672a 3cbd f32d f83d
00000110: 1967 053d 77cd 833e 7090 d43c e338 6bbe
00000120: d832 1e3e bca8 be3d 8bbe 413d 2d0d c53d
00000130: b1fa 3bbe 8ba9 0bbe e522 2fbd d1d1 a4bd
00000140: 6822 e13c c697 14be fa83 493b eb14 d7bb
00000150: 3a38 733b 528c 043c a00a 0d3e adb3 cb3c
00000160: d1d8 6bbe e23b cdbd 7c91 593e cf93 653e
00000170: 8a46 d3bc d61e 453d 339b 893d 2ce0 213d
00000180: d6df 15bb 8fd5 01be dfd1 f7bc f3ff a53c
00000190: 7b0f 3a3c ad07 7d3d 0862 38be 5c6f 043e
000001a0: 2b93 15be 8f27 9a3d 8f9f e83a 1f12 0bbe
000001b0: 90ba 0e3e 793f e1bd 768c 44be 2db2 253e
000001c0: 72fa 873d 7a1c 293b 6b2e 41bd 2818 89bc
000001d0: 0701 5b3e e28e 003e fc33 2b3d a572 cb3c
000001e0: 5f2e 30be 3122 113e 097e e0bd 29dd 18bc
000001f0: 271c 9bbc f270 dcbb 57dc 0ebe d8f0 56bd
00000200: ced0 8dbc a2ca 5a3e db76 683d ceb3 ba3d
00000210: fe68 3c3e 5571 8e3c 6c9a 97bd ae29 af3c
00000220: 8b27 8f3d 282f 3fbd acf8 d4bd 00d9 02be
00000230: aaa8 b2bc f7a3 223e 3ee2 3bbe b152 ef3d
00000240: 853b 373d df90 79be dbb4 fdbd 2265 c8bd
00000250: 9fa1 5f3d f1a1 9d3d 75c3 b8bd ba94 9bbd
00000260: a164 053e c91a c3bd 834b 303e 3ea8 ce3d
00000270: 0689 34be b5df 24be c4fc 7e3d 7c8d a2bd
00000280: 50e8 983d e805 ac3d 44cd 1a3d 0cf9 8c3c
00000290: db62 ecba 40c1 3fbd 78ae 263e 52ce 0cbe
000002a0: c011 303e a04e 003d 9594 683d 5f5c 0c3e
000002b0: 9c01 3a3d 5329 50be 92b7 8dbd a10b cd3d
000002c0: a0af 893e 50fc ebbc 9e13 f4bb 9f35 1e3c
000002d0: 89df 03bd 2d6e f4bd 3f0a 7fbc beee c73c
000002e0: abb3 3ebd 99e8 b2bd 57de 393e 2c38 a9bc
000002f0: b6d4 dbbc 52d4 dfbd 4e36 d23d d384 dabd
00000300: c570 52bd 653c 20ba 4183 523d 9bc4 3ebc
00000310: 2fbb 77be f869 ba3c 1b55 443b fba3 943c
00000320: f7c2 7b3d 2f51 10bd 9bde cabd a9f3 71be
00000330: d76c 933d 7de2 b5bd 74a8 093e 5e51 81bc
00000340: e046 1d3e 9e0f 88bd 91da 56bd 87d4 34be
00000350: bfee e1bd 907e 943d 4947 a83d 8639 dcbd
00000360: de4b a2bd 3d1b 6f3e 7196 7abe 7105 0fbe
00000370: a396 0bbe 3b79 bebc ee39 d33d d867 39bd
00000380: d204 2d3d c1f0 c93c 023f a63d f912 afbd
00000390: 39fe e9bd 10b1 58be 3e07 293d 2789 1c3d
000003a0: ca25 a4bb a15e d13d ce7f 8cbd 1b81 e13c
000003b0: c278 68bd 188c 843d 79cd 5cbd f501 b2bd
000003c0: 27a8 ae3d 5a0c f2bd cedc 2a3d 8331 903c
000003d0: a1ee 373e 599a 4f3d 41d4 d8bc 3eff 5c3e
000003e0: fe88 de3c 75d9 483d 9bec 4b3e 54a6 513e
000003f0: f280 0abe 2347 91bd e77d e23d 4e4e a93d

fc3.bias f4 [10]
-0.12689748 0.08453705 -0.007150722 0.021807173 -0.03619134 0.0015658844 -0.08544646 -0.0050033266
0.02089547 0.026057241
00000000: 6af1 01be c321 ad3d 9b50 eabb f5a4 b23c
00000010: 5f3d 14bd 5d3e cd3a 8efe aebd f2f2 a3bb
00000020: fa2c ab3c ff75 d53c
