code/write_numbers_demo/Lenet.pth (torch, 180591 bytes, 10 tensors)

conv1.weight f4 [6, 1, 5, 5]
000000 a8 69 13 3e c9 c0 a1 3e 78 21 59 3e 69 b0 26 3e
       0.14395773 0.31592396 0.21204174 0.16278233
000010 13 ea b6 3d 69 b7 f8 3e 22 88 09 3f 47 e1 86 bc
       0.08931365 0.4857743 0.5372335 -0.016464842
000020 78 b2 85 3d 0d 5f 1a 3e 06 c0 06 3f 68 9f 91 3d
       0.06528181 0.15075321 0.52636755 0.071104825
000030 0f 13 35 be 01 b2 32 be d2 c0 20 be 04 91 b7 3e
       -0.17683052 -0.17450716 -0.15698555 0.35852826
000040 dd 2d 27 3e 83 51 a3 bd 23 20 81 be e8 0a cc 3d
       0.16326089 -0.079745315 -0.2521983 0.09963018
000050 0a 01 71 3e 4a 39 85 3d 67 7c 11 be e2 73 29 be
       0.23535553 0.06505068 -0.14207612 -0.16548112
000060 85 69 b9 bd b2 c5 96 bd 4a c0 9b 3a 0e bd 89 bd
       -0.090533294 -0.07361926 0.0011882868 -0.067255124
000070 4c 02 4e 3d 93 28 3d be 3f 75 7f 3e 9a fa 85 3e
       0.05029516 -0.18472509 0.2494707 0.26167756
000080 55 d0 18 3e d0 be 8f 3e ed 2c a0 3d 79 9a e5 3d
       0.14923222 0.28075266 0.07821069 0.11211104
000090 0f 83 dc 3e 2c dd 8f 3e 97 31 8f 3e 5f e3 8b 3d
       0.4306874 0.28098428 0.27967522 0.06830477
0000a0 67 2d 6b 3e ad 69 95 bd f8 b1 18 3e 52 11 58 3e
       0.22966538 -0.07295547 0.1491164 0.21100357
0000b0 b7 51 55 bd 6d 7e 62 bd a0 b6 3e be 42 47 9c be
       -0.052079882 -0.05529635 -0.18624353 -0.30523115
0000c0 22 d1 28 be e1 35 77 3e 35 d3 16 be 29 29 d7 bd
       -0.16486028 0.24141647 -0.14729007 -0.105058976
0000d0 9d 6d 8b be 4e 31 40 be 0a a1 8c be 61 01 ad bc
       -0.27232066 -0.18768808 -0.27466613 -0.021118822
0000e0 92 ac 9b be 79 0f 2b be 91 23 73 3c f9 53 e1 3c
       -0.30405098 -0.16705121 0.014840023 0.027505862
0000f0 1c 27 8f 3e 58 7a 4c 3e 46 f3 e2 bd d9 40 eb 3c
       0.27959526 0.19968545 -0.11081557 0.028717445
000100 67 7e 57 3e 43 84 00 3d 2f 5f cb bb f5 a1 07 3e
       0.21044312 0.031376135 -0.006206415 0.13245375
000110 f4 fd 23 3e c5 f8 8d 3d 39 a2 5c 3e fe 23 cf 3e
       0.16014844 0.06932215 0.21546258 0.40457147
000120 b1 8d cf 3e c8 1f 68 3d a7 62 8a bc 4d 80 e0 3e
       0.4053779 0.056670934 -0.016892744 0.43847886
000130 52 92 9d 3e 38 f6 36 bd d8 f1 8a be 45 5f 2c 3d
       0.30775696 -0.044668406 -0.27137637 0.042083044
000140 9e de c9 3e 07 44 1f 3e 69 33 79 bc 41 cc 8f 3e
       0.39427656 0.15553294 -0.015210011 0.2808552
000150 de ef cf 3d b0 f4 db 3e 92 9f 7f 3e 6c 9a 12 3e
       0.10153173 0.4296012 0.24963215 0.1431672
000160 ea 9f 8a 3e ec ca 86 3e e4 c0 ab 3d c3 2a 5b 3e
       0.2707513 0.26326692 0.083864 0.21403031
000170 9c 32 94 3e bc c6 6a 3c 01 b1 93 bc 0f 22 cd 3d
       0.28944862 0.0143296085 -0.018028738 0.10016262
000180 81 0c c7 3c 2e c1 c9 3b ad ee 1a be f7 93 71 be
       0.024297955 0.006157062 -0.1513011 -0.235916
000190 e6 f3 0c bd 7c 44 84 3d 62 a2 8e 3e 1e b6 19 3e
       -0.034412287 0.06458375 0.27858263 0.15010878
0001a0 53 2e 64 bd b6 77 19 3d 69 b2 e8 3e bb d9 a5 3e
       -0.05570824 0.03746768 0.45448616 0.32392678
0001b0 12 ed 3d be 76 96 1b be aa e9 d8 3e c7 b9 a1 3e
       -0.18547466 -0.15194115 0.42365772 0.3158705
0001c0 0d 0b 91 3e 96 79 45 be 1c e8 51 be b9 ab e0 3e
       0.28328744 -0.19284663 -0.20498699 0.43881014
0001d0 64 a0 f6 3e dc 45 74 3e 9e cc 33 3e 3a a7 27 be
       0.48169243 0.23854774 0.17558524 -0.16372386
0001e0 35 9f d8 3d 67 8e 7a 3e 65 b7 7e 3e 14 d8 4c 3e
       0.10577241 0.24468385 0.24874647 0.20004302
0001f0 51 29 54 3e 29 2f 13 3d 10 5b be bd c8 dc 98 be
       0.20718886 0.035933647 -0.092947125 -0.29855943
000200 c6 64 2a be f2 d4 11 be 6a 04 98 bd 66 8e 0f be
       -0.16640005 -0.14241388 -0.07422717 -0.14019164
000210 be 37 96 be 2a 78 ab be f3 35 a0 be 2e 0f 30 bd
       -0.29339403 -0.33490115 -0.3129116 -0.042983226
000220 60 70 3d bd da 02 ee 3d 93 81 cd bd 72 77 a6 3d
       -0.046249747 0.11621638 -0.1003448 0.08128251
000230 fc 77 f4 3c dc f2 bd 3e e3 76 88 3e 31 84 bb 3e
       0.02984237 0.3709935 0.26653203 0.36624292
000240 5c b6 8f 3e b7 af 5a 3e 89 0e 70 3e fe ab c1 3d
       0.28068817 0.21356092 0.23443045 0.09456633
000250 10 3f b0 3e b8 f2 26 3e
       0.34423113 0.16303527

conv1.bias f4 [6]
000000 8b 3c 01 3c fc 41 18 3d de 4a 1a 3e 35 28 6a 3c
       0.00788797 0.037172303 0.15067622 0.014291813
000010 da 0f a2 3e 06 5f 67 3e
       0.3165272 0.22594842

conv2.weight f4 [16, 6, 5, 5]
000000 0b 44 78 bc 84 b4 6c 3d d3 f8 17 3d aa a5 89 3c
       -0.015152941 0.05778934 0.03710253 0.016802628
000010 12 1d 3a 3b b8 06 d7 3c 29 bb 10 3e 05 e3 f1 3b
       0.0028398675 0.026248321 0.14133896 0.007381799
000020 69 12 06 bc 11 11 8c bd 2f f2 cc 3d 5c 90 b0 3d
       -0.0081831 -0.06839193 0.1000713 0.08621284
000030 00 e9 c2 bd 42 35 5d bc 32 e9 20 3d 44 9c 34 3d
       -0.095170975 -0.013501467 0.039284892 0.04409434
000040 76 f0 0e 3d 56 da 06 3d 3f 7f 79 bd 03 d2 99 bc
       0.03489729 0.032923065 -0.060912367 -0.0187769
000050 ba 58 6a 3c db d2 93 3d c0 2f 47 bd c9 4d bf bd
       0.014303381 0.07217952 -0.048629522 -0.09341008
000060 7b e5 98 bd 42 78 16 3d 9a 14 49 bd 4b 89 ac 3d
       -0.07465645 0.03673578 -0.049091913 0.08424624
000070 ff 0c 16 bd 4a 05 58 bc 7d 3f 4a 3d 8e b8 95 bd
       -0.036633488 -0.013184855 0.049376953 -0.07310592
000080 de d5 ee bd 33 b8 db bd 49 ae cc bd 7d 60 f2 bc
       -0.11661886 -0.107284926 -0.0999418 -0.029587025
000090 1a e5 13 bd 48 62 74 bd 9e 9e d0 3b b3 5c b8 3c
       -0.03610716 -0.05966404 0.006366565 0.02250514
0000a0 3e a1 40 bb 46 1d 21 3d 9d 92 11 3c f4 61 bb 3c
       -0.0029392983 0.039334558 0.008885053 0.022873856
0000b0 a1 11 fb 3b 3f 72 9c bd 9a 4d b7 bc e5 0f 28 bd
       0.0076620136 -0.07638978 -0.02237587 -0.041030783
0000c0 97 b3 27 3d 2e 04 2c bd 8e 5f 4f 3d 7b de 0c 3d
       0.040942755 -0.041996174 0.050628237 0.03439186
0000d0 1d 1f b6 bc b5 c0 67 bd ca e4 21 bd 3e 8a e7 3b
       -0.022231633 -0.056580264 -0.03952483 0.0070660403
0000e0 fb 3b 37 3d 46 78 89 bc cd a6 74 3d c5 fa 4a 3c
       0.044734936 -0.016780984 0.059729386 0.01238889
0000f0 05 95 e8 bd 80 d9 29 bd dd 16 61 bc 1b 26 9c 3d
       -0.11356548 -0.04146719 -0.013738361 0.076244555
000100 3f ed 43 3d 21 75 0f 3d 94 7f a7 3d bd 0e 0a 3d
       0.047833677 0.035023812 0.081786305 0.03370546
000110 de ce d8 3d 07 e7 57 bd 7f 61 45 bc 5f 5c 3f bd
       0.10586332 -0.05271056 -0.012047171 -0.04671895
000120 53 3f c2 3b ed 66 07 3c 1b c2 2d 3d 8b df 72 3c
       0.005927959 0.0082642855 0.04242144 0.014823805
000130 0e eb cc 3d 7f a3 67 3c 74 d7 74 3d e1 6f be bd
       0.100057706 0.014138102 0.059775785 -0.09298683
000140 ad ad f0 3d 3d d7 c3 3d 31 81 76 bd 5b c7 c2 bd
       0.11751876 0.09562538 -0.0601818 -0.0951068
000150 07 f3 72 bd f7 67 c2 bc a6 1e 14 3e 4f 78 16 3c
       -0.0593138 -0.023731215 0.14464816 0.009183957
000160 5d ab 2f 3d ef 42 28 bd ce af fb 3d 71 56 b6 3d
       0.042888034 -0.041079458 0.122893915 0.08903206
000170 2a 81 48 bd 38 88 87 bd 2e 2f 16 bd e2 5f 8a 3d
       -0.048951305 -0.066177785 -0.036666088 0.067565694
000180 00 b7 07 3e 2e f0 3f 3d df 6b 67 bd a6 e2 98 bd
       0.13253403 0.046859913 -0.05649936 -0.07465105
000190 eb 57 f8 3d 6c 74 5d bd 0d df db bd 96 d4 6a bd
       0.12126144 -0.054066107 -0.10735903 -0.057331644
0001a0 ae 71 35 bc 5f fc 19 3e cd 28 ae 3c 6d 16 b4 bd
       -0.011074467 0.15037678 0.02125969 -0.0879334
0001b0 95 6b c2 ba aa f4 d8 bd e4 96 c2 3d 8d e6 e9 bb
       -0.0014833087 -0.10593541 0.09501436 -0.0071380795
0001c0 30 7c 43 3c 9c dc e0 bb e4 2f 04 bd ad bd bd 3d
       0.011931464 -0.006862236 -0.032272235 0.092646934
0001d0 f7 ca e6 3d 8a 35 65 3d 3b c0 fa 3b 4d 58 91 bc
       0.11269181 0.055959262 0.00765231 -0.0177423
0001e0 7d ac 48 3d f6 b1 0f bd 60 d3 81 bc c4 51 ef bd
       0.048992623 -0.035081826 -0.015847862 -0.116855174
0001f0 64 bb e6 bd bf d7 67 bc 9c f5 64 3b 91 49 b2 bd
       -0.11266211 -0.014150559 0.0034936434 -0.08705438
000200 42 0a 82 3d 68 86 97 bd 7e 39 1a bd 66 4a 8d bd
       0.06349613 -0.07398683 -0.037652485 -0.06898956
000210 3a 35 b6 3d a1 34 e5 3d e5 b0 47 3d 30 05 16 3d
       0.08896871 0.11191679 0.048752684 0.03662604
000220 b1 1a f0 ba 25 22 ba 3d 1f 90 9a 3c 0f ef 93 3d
       -0.0018318502 0.09088544 0.01886755 0.07223331
000230 19 2f 81 3c af 2f 11 3c 49 f0 24 3d 2c f7 5b 3c
       0.015769528 0.008861466 0.040268216 0.01342563
000240 c9 e7 73 3c dc f7 a1 bd 48 87 67 bc 1e e5 88 3d
       0.014886805 -0.079086035 -0.014131375 0.06684326
000250 7c 89 bf 3d 94 8c 87 bd 14 b9 11 bd 90 98 19 bd
       0.09352395 -0.0661861 -0.035576895 -0.03749901
000260 ea 5c 57 bd 59 03 93 bd 82 a5 29 be 9e 42 62 bd
       -0.052578844 -0.07178373 -0.16567042 -0.055239312
000270 a9 db de bd 20 1c 1b be 4d 25 20 be 4e 60 ed bd
       -0.108817406 -0.15147448 -0.15639229 -0.11590634
000280 a0 59 dd bc 64 be 52 3d be c2 a1 3d 1d a6 c6 3d
       -0.027020276 0.051451102 0.07898472 0.09699652
000290 94 75 b5 3c fa 38 bf bb 19 ec f5 3c 97 38 4d 3d
       0.022150792 -0.0058356496 0.030019807 0.050102796
0002a0 f9 38 5f bd 8b d9 e4 3d 22 a1 77 bd 0c 8c 1c bc
       -0.054497693 0.111743055 -0.060456403 -0.009554874
0002b0 dd 54 85 bd de 72 30 bd c5 04 19 3c b5 c8 44 bd
       -0.06510327 -0.043078296 0.009339516 -0.04804297
0002c0 52 43 73 3c 40 81 8d bb 03 d7 17 bd 20 d1 c4 3b
       0.014847593 -0.0043183863 -0.037070286 0.006006375
0002d0 38 b5 ab 3d 5d c8 a3 3d c9 53 1c 3e 0e 18 d2 3d
       0.08384174 0.07997201 0.15266337 0.10258494
0002e0 02 da 53 3c 9f 52 c9 bc 1b dd 07 3e d2 99 60 3d
       0.012930395 -0.02457553 0.13267939 0.054834194
0002f0 55 37 b3 3b f8 f3 cf 3d c6 ec 80 39 c7 5e be 3d
       0.0054692426 0.10153955 0.00024590472 0.09295421
000300 61 e6 41 bc 4e 71 07 bd d9 f2 ae 3c bc c9 5f bd
       -0.011834712 -0.03306704 0.021356033 -0.05463575
000310 c1 c5 f4 bc 57 4d 15 3d fd 41 f6 3c cd df 37 bb
       -0.029879453 0.03645071 0.030060763 -0.002805698
000320 8e 77 cb 3d 0e 0c 1e bc ad f0 7f 3d 0e f8 92 3c
       0.099349126 -0.009646429 0.062485386 0.017940547
000330 7e 90 98 3d 61 94 6e 3c 0b 54 10 3e 13 26 08 3e
       0.07449435 0.0145617435 0.1409456 0.13295774
000340 38 34 a7 3d a4 c9 fc 3d 76 e5 2f bd 13 6e db 3d
       0.08164257 0.123431474 -0.04294344 0.10714354
000350 38 04 99 3d 56 76 05 3e 64 4c af 3d 86 6b e2 bd
       0.07471508 0.13033423 0.08559492 -0.11055665
000360 be b7 ba bd 78 c9 1b 3d 19 c6 ec 3d 5f a4 5d 3d
       -0.09117077 0.038033932 0.11561222 0.054111835
000370 b9 56 98 3d 77 7d 74 3d 14 57 b3 bc 17 36 83 3b
       0.07438416 0.059689965 -0.021892108 0.0040042507
000380 df 0f a6 bd af c1 9e 3d d4 7b fe bd b1 e1 0e be
       -0.08108496 0.07751786 -0.12425962 -0.13953282
000390 b5 9a 1d bd 2f df f6 bd 5f 81 0c bd 06 aa 1c 3d
       -0.03847762 -0.12054288 -0.034303065 0.038248084
0003a0 ea fe 05 3d 36 9f 38 3b 77 e2 3e bc 6f f9 c5 3d
       0.032713808 0.002817107 -0.011650673 0.09666716
0003b0 48 a1 0e 3e 28 82 00 3d 6e 4f 92 3d d7 fc 19 3d
       0.13928711 0.031374127 0.07144056 0.037594642
0003c0 1b 73 e3 3c 28 ce a4 3d 87 2a 52 3d 4d a5 cc 3d
       0.027764848 0.08047134 0.05131009 0.09992466
0003d0 cd dc 67 3d fc 78 49 3b 5f c1 0a 3d e5 b4 c2 3c
       0.056607056 0.0030742278 0.03387582 0.023767898
0003e0 99 5f db bd 56 c2 30 bd f3 34 67 bc d7 b4 16 3d
       -0.10711593 -0.043154083 -0.014111745 0.036793556
0003f0 6a 4f 28 3d 9c 00 df 3b 88 74 d1 bc 06 96 b5 3d
       0.04109136 0.0068054926 -0.025568262 0.08866505

conv2.bias f4 [16]
000000 79 77 05 3c 63 46 18 3c 1d 32 9a 3d a0 fc 35 3d
       0.00814616 0.009294125 0.075290896 0.044430375
000010 0b d0 1f 3d f9 20 a8 3d c7 5b 39 bd f2 28 83 bb
       0.039016765 0.08209414 -0.04525354 -0.004002684
000020 25 98 72 3d 24 a9 56 bc 55 7d f5 bc 43 d6 9b bd
       0.059227128 -0.01310185 -0.02996699 -0.076092266
000030 56 65 09 bc 5b 57 5d 3d 3a 8d ac 3d d1 a9 1b bd
       -0.008385977 0.054038387 0.08425374 -0.038003746

fc1.weight f4 [120, 256]
000000 dd 81 2f bd ae 75 26 3b 90 8c 36 bd 9f f5 93 3a
       -0.042848457 0.0025399732 -0.044567645 0.0011288411
000010 1e 19 23 3d 9f 72 88 bc 87 62 b8 bc d9 ed 43 bd
       0.039818875 -0.016656218 -0.022507919 -0.04783425
000020 6e 15 07 bd dc 8c 14 bc 77 25 44 3d b4 16 59 3c
       -0.03297942 -0.009066787 0.04788729 0.013250042
000030 e8 5a 5e bd e6 bb fd 3b 34 53 39 3c c4 1e 80 3d
       -0.054285914 0.0077433465 0.011311341 0.06255868
000040 3a 46 b1 3c a3 36 8d 3d e9 c3 c3 bc 28 55 5a bd
       0.021639932 0.06895187 -0.023897128 -0.053303868
000050 22 7a 69 3d a6 30 60 3d 87 e5 d4 3c b7 37 2d 3d
       0.05700124 0.054733895 0.025988353 0.042289462
000060 d3 8a 78 bd 21 56 25 bb 5f 97 87 bd 37 43 24 bd
       -0.060679268 -0.0025228339 -0.066206686 -0.040103164
000070 33 e4 ee 3c d3 95 3a 39 5b c9 b2 bc 49 70 0c 3d
       0.029161548 0.00017794156 -0.02182453 0.03428677
000080 ca 1c 26 bd 88 dd 70 bd 17 9c ba 3b e1 6c a4 bc
       -0.0405548 -0.05880502 0.005694877 -0.020071449
000090 f7 a8 a9 3c 12 35 1e 3a da 7c b5 3c 82 2d 6f 3d
       0.020710452 0.000603513 0.02215426 0.05839301
0000a0 ad 36 d7 bc a5 21 7f bd 7b a3 b6 3c a5 2e 8d bc
       -0.026271189 -0.062287945 0.02229475 -0.017234156
0000b0 21 f8 15 bb 4e 6c 2c bd 54 7f 55 3c 21 bb e0 bc
       -0.0022883492 -0.042095475 0.013030846 -0.02743298
0000c0 81 44 18 3d ab ef 80 bd fd 55 15 bd 69 fa 2b bd
       0.037174705 -0.06295713 -0.036458958 -0.041986857
0000d0 0f 74 32 bd 36 a3 0d bd e1 53 a4 3d e8 8e 12 3d
       -0.043567713 -0.03457948 0.08023811 0.035780817
0000e0 f3 5a 92 3c af 7f 88 3d 53 05 40 bd 63 67 0c bc
       0.017865634 0.06664979 -0.046880078 -0.008569571
0000f0 ce ec 86 3d 2b 2a cf bc 02 47 84 bd 6d 8b 84 3d
       0.06588136 -0.025288662 -0.06458856 0.06471906
000100 b2 72 77 3d 57 8b 2b 3c 8a b7 39 3d 50 59 bb 3b
       0.060412116 0.010470233 0.045341052 0.005717434
000110 a5 c0 7c 3d cc 3e 36 3d af d3 23 bd 4d 1c 5b 3d
       0.061707158 0.04449348 -0.0399968 0.053493787
000120 26 e5 8a bd db d6 0f 3c 72 79 81 3d a2 35 21 bc
       -0.06781988 0.008779253 0.06321992 -0.009839447
000130 ec 0f 5d 3d cc 32 63 3d e1 5c 12 3d 9a 84 3b bc
       0.053970262 0.055468366 0.035733107 -0.011445189
000140 dc 57 2a 3c 99 3b 34 bb 63 a8 49 bd 2c 83 27 bb
       0.010396924 -0.0027501343 -0.04923285 -0.0025560362
000150 45 40 64 3d 9f b1 03 3b 3a c9 82 3c 51 fd bf bc
       0.055725355 0.0020094884 0.015965093 -0.02343622
000160 19 c1 50 bc 35 df 02 3d 8c 0a bc 3d 52 d1 21 bc
       -0.012741351 0.031951148 0.09181699 -0.009876566
000170 79 1d ce bb 1a 45 73 3c 1a a5 a8 3c c6 1a 04 3c
       -0.0062901345 0.014848018 0.020586539 0.008063024
000180 d0 18 2f bd 6d fa 70 3b 09 70 be bc 56 6c 4e ba
       -0.042748272 0.003677036 -0.023246782 -0.00078744197
000190 9e 90 0b bd a7 0a 58 3d 87 17 53 bc 7e b1 84 bd
       -0.034073465 0.052744534 -0.012884027 -0.064791664
0001a0 8a 19 09 3c a4 d8 ad bc 81 b7 0b 3c 6c 06 ac 3c
       0.008367905 -0.021221466 0.008527637 0.020999156
0001b0 a5 f0 8b 3c f4 09 6b 3d a2 61 05 bd 3d 65 4d 3c
       0.017082522 0.05738254 -0.032563813 0.012536344
0001c0 9f d0 7c 3d a9 4c d2 3c 27 a7 bd 3c b4 27 a2 3c
       0.061722394 0.02567132 0.023150994 0.019794323
0001d0 37 f6 f5 3c f2 77 8b 3d 85 bf 84 bc 17 01 68 3b
       0.030024631 0.06809987 -0.016204605 0.003540104
0001e0 76 1d 14 3d fa 64 f8 bb 6e e2 56 bd b3 33 c6 bc
       0.03616091 -0.0075803967 -0.052462034 -0.024194574
0001f0 65 cf ab 3a 73 09 b4 3c e7 ee f7 3c 36 c3 55 3d
       0.0013108073 0.021977162 0.030265285 0.05218812
000200 eb 01 0d 3b 40 4d 23 bb db 99 b8 3b a2 6f b2 3c
       0.0021516036 -0.002491787 0.0056335754 0.021781746
000210 bd 6b 8a bc 05 eb 6b 3d c0 16 ee 3c 87 8e 4e bd
       -0.016897077 0.05759718 0.029063582 -0.050428893
000220 26 f4 0c bd d4 51 b7 3c b4 80 3c bd ea 8a 15 3d
       -0.034412526 0.022377886 -0.04602118 0.036509432
000230 04 17 6c 3c 9c 30 a4 ba 63 78 55 bd d3 23 7e 3b
       0.014409784 -0.0012526694 -0.052116763 0.0038778677
000240 c3 09 52 3d 94 ff 03 bd a5 1b 56 3a 1a 2f 34 3d
       0.05127884 -0.03222616 0.00081675715 0.043990232
000250 85 50 ef 38 d8 0c a9 bc 97 73 3f 3d 7c cd 59 bd
       0.00011411406 -0.020636007 0.046741094 -0.05317448
000260 b7 c3 03 3d 66 14 03 bc 74 93 1d bd 8f d6 59 3d
       0.03216907 -0.008000469 -0.0384707 0.053183135
000270 a1 b3 36 bc f4 18 dc 3c 72 4f d9 bb 2c 76 bf 3b
       -0.011151225 0.026867367 -0.006631785 0.0058429446
000280 1c 04 72 3d 33 94 32 3c 0c 3a ea bc b7 b1 00 bd
       0.05908595 0.010899591 -0.028592132 -0.031419482
000290 72 2a 0a bd 91 53 50 bd a8 c8 74 3d 03 5b 77 3d
       -0.033731885 -0.050860945 0.059761673 0.06038953
0002a0 8b 20 b3 3c 5d 67 4f 3d e0 62 7d bc d5 07 54 bc
       0.021866104 0.050635684 -0.015465468 -0.01294132
0002b0 bd fb 7c bc da 03 f8 3c 3c f0 85 bd e9 dc 6c 3d
       -0.015440878 0.030275274 -0.06539962 0.057827864
0002c0 34 99 84 bc c1 2d 52 bd 51 0d 47 bd 5a 08 d5 3c
       -0.016186334 -0.051313166 -0.048596684 0.026004959
0002d0 2c c3 17 bd 33 e0 c1 3c bf 27 82 3c d9 8c 97 3c
       -0.037051365 0.023666477 0.015888093 0.018499779
0002e0 5f 29 60 3c 53 98 8f 3c 79 d1 ec 3c ae d7 0b ba
       0.013681739 0.017528689 0.028908478 -0.0005334568
0002f0 5b 95 53 3d 49 f3 58 bd 7d c2 98 bd 75 7f d3 bc
       0.05165611 -0.05296639 -0.07458971 -0.025817612
000300 0c db d4 39 68 b2 59 bc 49 a4 1f 3d df cb 11 bd
       0.00040598994 -0.013287164 0.038975034 -0.035594817
000310 5e 89 5e 3d 85 dd 81 bd aa 87 d9 3c 2b fe 5e bd
       0.054330222 -0.063410796 0.026553947 -0.054441612
000320 40 bd 19 3d 84 52 94 3c 1a a8 09 bd 4d 4f 1c bd
       0.037534 0.018105753 -0.03360758 -0.038161565
000330 41 e7 f8 3c 8a c1 80 3d 7f 28 83 3d c6 a5 1a 3d
       0.030383708 0.06286915 0.064042084 0.03775575
000340 61 ed 6f 3c d8 04 c2 3c d8 d4 12 3d 11 51 30 3d
       0.014643998 0.02368395 0.035847515 0.04304606
000350 ab 3e 48 3d 92 b3 7e 3c fd ae 86 3c ee f5 34 bd
       0.04888789 0.015545743 0.016440863 -0.04417985
000360 0e cc 54 3d a7 b9 19 3c c4 e8 97 3c 61 ff 01 bd
       0.051952414 0.009382642 0.018543608 -0.03173769
000370 9e ad 6c bd 9a f3 51 bd e8 eb b2 bc e6 ba 39 3d
       -0.05778276 -0.051257707 -0.021841004 0.045344256
000380 6d db 32 3d f6 99 8c bd 59 49 85 bd 7b e3 52 bd
       0.043666292 -0.06865303 -0.065081306 -0.051486474
000390 4b 4d cd 3c 14 ac 22 bc 6b a2 21 3d b9 11 cf bc
       0.02506127 -0.009928722 0.039461534 -0.025277006
0003a0 8a 2a 76 3d 0e f1 44 3d eb f8 68 bd a3 f3 0b 3d
       0.060099162 0.04808145 -0.05687801 0.034167897
0003b0 7d 4e 77 bd de f0 77 3d f0 f8 c3 bc e1 a0 12 3c
       -0.060377587 0.060532443 -0.023922414 0.008949489
0003c0 a7 fc a9 3b 8f 1d 5c 3d 05 20 d1 3c a5 7f bd 3c
       0.005187589 0.053739127 0.025527963 0.023132155
0003d0 5f c3 33 3d 6e 91 48 bd ac c7 d0 bb e4 93 16 bc
       0.043887492 -0.048966818 -0.006371459 -0.009190533
0003e0 85 c8 e1 bc 5c 20 65 3c d4 6f f1 bc 49 c1 7e 3d
       -0.027561435 0.013984766 -0.02947227 0.06219605
0003f0 9f 32 71 bd 0d 15 14 3d 32 17 74 bb 2c c6 d6 bc
       -0.058886167 0.036152888 -0.003724527 -0.026217543

fc1.bias f4 [120]
000000 b4 c3 7d 3d cb 36 01 bd ce 0c 3d 3a 66 fb ec 3c
       0.061954215 -0.031546395 0.0007211686 0.02892847
000010 34 35 69 3d 10 d4 c0 3c 1c eb d1 bc f3 a5 ef bc
       0.056935504 0.02353862 -0.025624804 -0.029253935
000020 fc 1a b9 3c f2 80 e5 3a 0f 7b 55 bd 32 0e b5 bc
       0.022595875 0.0017509742 -0.05211931 -0.022101495
000030 75 b0 0a 3c 77 e2 ae 3b ae 46 f8 3a b0 a1 52 3c
       0.008464922 0.0053370553 0.0018941963 0.012855932
000040 a7 2b 76 3d dd 24 81 bd 8b b4 0d 3d de 26 3e 3d
       0.060100224 -0.06305859 0.034596007 0.046423785
000050 b0 37 bd bc 05 26 20 bd 6b 5c 7d 3d 39 2d 15 3d
       -0.023097843 -0.03909876 0.061855715 0.03642008
000060 c3 45 59 bd ac 5e d2 3b 14 ab 0c 3d a2 c9 27 3d
       -0.053045046 0.006419977 0.03434284 0.040963776
000070 21 0e 66 3d 04 6d 84 bc f8 1f 6d 3d 1d 98 06 3c
       0.056165818 -0.016165264 0.057891816 0.008214978
000080 1a b0 47 3d 0d e2 be bc 02 a2 3d bc 44 44 88 3c
       0.048751928 -0.023301149 -0.01157427 0.016634114
000090 86 ef 0a bd a5 4d 84 3c 18 76 9e ba b2 03 14 3d
       -0.033919834 0.016150305 -0.0012089638 0.036136337
0000a0 9d 67 55 3d 5a fa 69 bd 1b c8 22 3d 68 88 46 3b
       0.052100766 -0.05712352 0.039741617 0.0030293707
0000b0 42 25 5f bb e2 07 da 3b 53 a1 24 3c 3d e1 ee 3b
       -0.0034049307 0.0066537717 0.010048228 0.007290034
0000c0 cc 57 38 3c f6 04 bf bc b4 49 a1 bc b3 93 28 bd
       0.011251401 -0.023317795 -0.019688465 -0.041156482
0000d0 c6 4c 51 bd c0 92 10 bd ab 76 e8 bc aa 79 43 3d
       -0.051098607 -0.0352962 -0.028376898 0.04772345
0000e0 cc 61 8a 3c 11 bf 7f 3b b7 c3 3a bd d8 10 75 bd
       0.016892336 0.0039023797 -0.045596804 -0.059830517
0000f0 25 48 df bc 9a d2 4f 3d 3a e0 96 bb 30 e6 5f 3d
       -0.02725608 0.050737955 -0.0046043666 0.054662883
000100 af 96 ba bc 15 12 5c bd 68 85 57 bd ab d6 90 3c
       -0.02277693 -0.053728182 -0.05261746 0.017680487
000110 3a c5 61 bd 42 57 89 3c 1d 86 73 3d 3d a4 f6 3c
       -0.05511973 0.01676524 0.059454072 0.030107612
000120 c1 18 69 3d 65 19 b9 3c 42 93 94 bc e0 29 64 3d
       0.056908373 0.022595117 -0.018136624 0.055703998
000130 73 ff 11 3d bc b2 16 3d 95 c3 09 3d d4 a3 c3 bc
       0.035644006 0.036791548 0.033633787 -0.02388183
000140 b5 92 ee 3c bc 37 50 3d 30 f9 86 3d a9 e1 97 bc
       0.02912269 0.050834402 0.065904975 -0.01854022
000150 f2 f1 51 3d 73 8a 9a 3a e4 42 2a 3c f9 e2 7a bc
       0.051256128 0.0011790529 0.0103919245 -0.015312904
000160 64 51 12 bd 4b df 9d 3c 3e 4a f7 3c de bf 20 3d
       -0.03572215 0.019271513 0.030186769 0.03924548
000170 3c c3 01 3d 77 ab 4f 3d 8d 6a 44 3d 24 2c 3d bd
       0.03168033 0.05070063 0.047953177 -0.046184674
000180 cc 9e 5b 3c 87 8c bc bc b8 5c a9 3c b7 ac 59 3a
       0.013404559 -0.023016227 0.020674095 0.00083036296
000190 e1 d5 fe bc 19 81 5e bd 38 66 59 bd d9 3c 66 bd
       -0.031107845 -0.054322336 -0.053076 -0.056210373
0001a0 11 61 28 3d c0 b7 3c 3c e1 30 28 3c 9b 63 3d bc
       0.041108195 0.011518419 0.01026556 -0.011559392
0001b0 23 57 26 3d 37 70 39 bd 3a 9e 7e 3d 50 9b 4d bc
       0.040610444 -0.045273032 0.062162615 -0.012549236
0001c0 aa 7c 5f bb aa c3 46 bd 4b e6 de 3b ec 2c 2d bd
       -0.0034101405 -0.048526444 0.0068023554 -0.04227917
0001d0 da 0d 06 3c 22 94 f4 3c f6 8b 44 3d 8f 07 00 bd
       0.008182013 0.029855791 0.04798504 -0.03125721

fc2.weight f4 [84, 120]
000000 31 eb b2 bd c5 07 af 3d 00 65 95 3d 4f 5b 73 3d
       -0.087362655 0.08546404 0.07294655 0.05941325
000010 85 6c ae bd 91 fd 24 bc 96 14 21 3d b5 f5 88 3d
       -0.08516792 -0.010070221 0.039326273 0.0668749
000020 84 e6 d9 3d 9f 8e 2b 3c 17 b6 74 3d f8 c3 ee bc
       0.106396705 0.010471015 0.059743967 -0.02914618
000030 98 7e 18 bd 59 50 14 bc 5b 1b bf bd 3c e7 99 3d
       -0.037230104 -0.0090523595 -0.093313895 0.075148076
000040 0b 68 d4 3c 00 e3 bd 3d 2e 65 15 bc 02 75 a1 bd
       0.025928518 0.092718124 -0.009118361 -0.078836456
000050 e3 05 bc 3d 65 4a d3 3d 3a 95 0c bd 6d e0 39 bd
       0.0918081 0.10316924 -0.034322 -0.045380045
000060 ec b3 2f 3d 5c 5e 93 3d 66 27 a8 3d 50 9c 7e bd
       0.042896196 0.07195732 0.0821064 -0.06216079
000070 c6 b0 03 3c c8 85 4b bb 13 5b e5 3c a4 36 9c 3c
       0.008037752 -0.0031055082 0.02799753 0.019069023
000080 0f 0d a5 bd 82 64 9b 3c 08 e2 4e bd f0 ac 8c bd
       -0.08059131 0.018968824 -0.05050853 -0.06868923
000090 fe 8c e7 bc b5 09 74 bd 95 09 11 3d 89 f8 25 be
       -0.028265473 -0.05957957 0.03540953 -0.1620809
0000a0 5b ad e7 3c f3 df 6f 3d 97 54 3e 3c be 91 5c 3c
       0.028280905 0.058563184 0.0116168475 0.013462482
0000b0 45 d8 44 bd d2 8e d2 3d 08 7e 33 bc 3a 1f 00 3e
       -0.048057813 0.10281147 -0.010955341 0.12511912
0000c0 06 08 2f 3d 9e 11 56 3b 07 8d 93 3d 78 3c c2 bd
       0.04273226 0.003266431 0.07204633 -0.0948419
0000d0 33 c7 01 be 6e d8 1a bd 5c 4c d6 3b 3c 56 dd bc
       -0.12673645 -0.03780406 0.0065398645 -0.027018659
0000e0 ca 06 00 bd 80 11 b3 3d 6d 0c 81 bc 06 17 26 3d
       -0.031256475 0.08743572 -0.015752995 0.0405493
0000f0 ce eb d6 bd 5a c8 ae bc bb 9a f8 ba 23 14 22 ba
       -0.10494195 -0.02133577 -0.0018967012 -0.000618281
000100 74 ad a7 3d 43 d2 68 bd 0e 12 45 3d 17 5d b8 3d
       0.081873804 -0.056841146 0.04811292 0.090021305
000110 e6 22 68 3c c6 55 51 3c 42 a3 54 be 81 ac 22 bd
       0.014168477 0.012776798 -0.20765403 -0.039715294
000120 6f 8b 89 3d 1b a3 e0 3d 65 1e 82 bd ce d1 4b bc
       0.06716048 0.1096861 -0.063534535 -0.012440158
000130 87 0f 8b bd f8 41 bb bd 82 f0 79 bd 7b b2 0a be
       -0.06790071 -0.09143442 -0.06102038 -0.13544647
000140 08 58 76 bd cb 0b 2d 3e af 79 22 be a7 80 5b 3d
       -0.060142547 0.1689903 -0.15866731 0.05358949
000150 7d 09 d6 3b 47 ba 90 bc 0a ce dc bd f4 a1 a2 3d
       0.006531893 -0.017666949 -0.10781486 0.07941046
000160 83 7a 2e bd f4 39 20 3e 03 cc f8 3d 55 a2 63 3d
       -0.042597305 0.15647107 0.12148287 0.055574734
000170 95 90 06 3d 35 fd e4 3d e9 2a e9 3c 60 4b 09 bd
       0.032852728 0.11181108 0.028462844 -0.03351915
000180 49 a9 31 3d d6 9d f4 3c 7c 90 09 3e 94 8e f8 bc
       0.043374334 0.029860418 0.13434023 -0.030341424
000190 4c 0e fe 3a 6a 5d 37 bc 17 77 53 bd 76 34 80 3c
       0.0019382923 -0.011191705 -0.051627245 0.015650015
0001a0 78 15 97 3d 67 50 f6 bd 19 99 a8 ba 5b 81 da bd
       0.07377142 -0.12027054 -0.001286301 -0.10669204
0001b0 04 09 0b 3d 10 0b 98 bd f7 ec d2 bc ae 81 00 3d
       0.033944145 -0.07423985 -0.02574776 0.031373672
0001c0 ab d9 9e 3d 43 db 04 3d f8 6b 5f 3d 6b 9d 65 3d
       0.077563606 0.032435667 0.054546326 0.05605833
0001d0 89 bb 07 bd 43 ea fb bc bd 3d ca bd 41 2e 86 3d
       -0.03313783 -0.030751353 -0.09875057 0.06551791
0001e0 bf 2b 7a bd 2c 3d 23 bd 50 7c 75 3d f9 fa d8 3c
       -0.061076876 -0.03985326 0.059933007 0.02648686
0001f0 7a 00 b5 3c 7c 1e df 3d 6b 2a c0 3d 48 90 0c bb
       0.022094954 0.10894486 0.093830906 -0.0021448303
000200 af b9 78 bc 49 22 d6 3d f7 23 80 3d 75 73 b2 3d
       -0.015180989 0.10455758 0.0625686 0.08713428
000210 b4 2e 8d 3c 0f 1e d1 3d 45 76 2b bd fa 44 31 bd
       0.017234184 0.10210811 -0.041860837 -0.04327867
000220 56 ea ec 3b d4 df 81 3c 09 91 96 3d 9b cf fe 3c
       0.0072300835 0.0158538 0.07351882 0.031104853
000230 23 85 a1 bc 11 be 0b 3d 00 d2 ba 3d e8 07 63 bd
       -0.019716805 0.03411681 0.091220856 -0.05542746
000240 c9 27 e0 3c ec cc 4a bd 95 9e 6b bd bf 79 12 3c
       0.027362721 -0.049511835 -0.057524282 0.008940159
000250 70 d7 21 bd dd 5e 61 3d 48 b9 83 bc 7a 6e b0 bd
       -0.039512098 0.05502211 -0.01607956 -0.08614822
000260 dd 10 b1 bd fe a2 9f bd 47 75 ed bd 19 f4 b3 3d
       -0.086457945 -0.0779476 -0.115946345 0.08786792
000270 2c 0b b0 3d b3 d3 99 bd da a9 c7 bc 25 e1 91 3d
       0.08595881 -0.075110815 -0.024372984 0.07123021
000280 0d 59 dd 3d 77 c4 8e bc cb 82 78 3a 2e 05 77 3d
       0.10808001 -0.017427666 0.0009479939 0.060307674
000290 1f 17 3d 3c 86 ef 51 3c 3a 6d 87 3d b6 21 3a 3c
       0.011541157 0.0128134545 0.0661263 0.011360576
0002a0 c4 89 62 bd f4 58 91 bd 99 a5 8a bd e6 38 97 3c
       -0.055307165 -0.070970446 -0.067698665 0.018459748
0002b0 fd 26 75 3d dc 4f 2d bd 6f b7 69 3d a7 eb f4 3d
       0.059851635 -0.042312488 0.0570597 0.119590096
0002c0 51 7a 41 bc 5f 16 85 bd 2e 28 a2 bd 66 99 4a 3c
       -0.011808948 -0.064984076 -0.0791782 0.012365675
0002d0 28 79 d0 bd 3d 5d a7 bd 1f 31 88 bd e4 ba f1 bc
       -0.10179359 -0.08172081 -0.06649994 -0.029508062
0002e0 21 59 02 bd 83 66 35 bd a9 f6 21 bd f7 3d 21 bd
       -0.03182328 -0.044287216 -0.039541874 -0.039365735
0002f0 e5 05 6a 3d 4c 56 4b 3d 5b 05 67 3d 7c 3a b9 3d
       0.057134528 0.049642846 0.05640159 0.09044358
000300 cc 39 9c 3b c2 72 66 bd a3 2e 91 bd dd f7 08 3c
       0.004767632 -0.056261785 -0.070889734 0.008359876
000310 d4 ae a5 3d 1e 51 b4 bd 70 0c 85 3d c5 74 c2 3d
       0.080899864 -0.088045344 0.06496513 0.09494928
000320 36 30 81 3d 18 e2 b5 bc 99 6b dd 3d 7a 91 a6 3d
       0.06308024 -0.022202536 0.10811538 0.08133216
000330 31 36 8b 3d d7 f9 08 3d 82 37 04 bd 3a f7 87 bd
       0.067974456 0.03344139 -0.0322795 -0.066389516
000340 33 92 b0 bd 85 b9 53 bd 2f 9f 3a 3d 0a 21 1c bd
       -0.08621635 -0.051690597 0.045561966 -0.038117446
000350 8d 1e fa bb ca eb 91 bd d1 ab 88 bc 59 5d a5 bb
       -0.0076330365 -0.07125051 -0.016683491 -0.0050465283
000360 08 fc 9e bd 3c f2 b8 bc 0f 24 93 bc 34 3b af bd
       -0.07762915 -0.022576444 -0.01796153 -0.08556214
000370 3e 63 f3 bc 8a d4 e9 bc 07 b7 71 3d 58 d8 b5 bd
       -0.029710408 -0.02854373 0.05901244 -0.08879155
000380 45 61 e7 bd 75 da 82 3d 35 e0 c0 3b 32 dc a9 bd
       -0.112978496 0.063893236 0.0058861026 -0.08293952
000390 1a a0 82 3d db ee 34 bd ab a3 44 3d 24 68 25 bd
       0.06378193 -0.044173103 0.04800765 -0.04038252
0003a0 4a 05 dc bb b2 e3 20 3d 82 5c 84 bd 34 ba 89 3c
       -0.0067144977 0.039279647 -0.06462957 0.016812421
0003b0 fe 30 98 3d 0a f2 22 3c bc b8 78 bd 91 62 c4 3d
       0.074312195 0.009945402 -0.06072305 0.095891126
0003c0 f1 50 d4 bc 54 8f a0 3c ab 1d 5b 3c 0d 49 af 3d
       -0.025917502 0.019599594 0.013373773 0.08558855
0003d0 61 2a fb bc f7 71 6b bd 98 cc d3 3d 85 b0 e7 3c
       -0.030659856 -0.057481732 0.103417575 0.028282413
0003e0 a6 92 c6 bd c2 e0 22 3d bb 5c 0d 3e 18 9c 19 bd
       -0.0969594 0.039765127 0.13804905 -0.03750238
0003f0 01 88 8b 3d 4a 46 75 bd 3a 61 7f 3d 2c 41 82 bd
       0.0681305 -0.059881486 0.06234858 -0.06360087

fc2.bias f4 [84]
000000 f1 a3 24 3d b0 d7 1a 3d f0 0d 76 bd 19 19 b6 bc
       0.04019541 0.037803352 -0.060071886 -0.022228764
000010 d2 ad 04 bd 65 a4 97 3d 7a 90 70 bd c5 89 27 3b
       -0.03239233 0.07404403 -0.058731534 0.0025564295
000020 9a 32 fd 3c c8 0f b6 3d bb 9d 45 3d f7 60 52 3c
       0.030907918 0.08889729 0.048246127 0.012840501
000030 f3 aa 96 3b 29 75 ef 3c fc 1f 49 bd 5c 2e a2 b9
       0.0045980155 0.029230671 -0.04910277 -0.00030933588
000040 c8 15 40 3d 62 3a 3d 3c 60 34 88 bd b6 2b aa bd
       0.046895772 0.011549564 -0.06650615 -0.083091184
000050 d2 a4 22 3d 04 e6 71 3d 7f 8c a1 bd 9d 8c 45 3c
       0.039707966 0.05905725 -0.07888126 0.012057451
000060 eb 5c 5b ba ad 06 e7 3c 6c 13 33 bd ae 76 bb bd
       -0.0008368033 0.028201425 -0.043719694 -0.09153496
000070 d8 b4 60 bd a7 8b 6d 3d d3 0c ac bd 04 29 f4 3c
       -0.054859966 0.05799451 -0.084008835 0.029804714
000080 c9 d2 b5 3d f9 58 c4 3b 9d 9c fa bc f6 7f 90 3a
       0.08878095 0.0059920517 -0.030592257 0.0011024463
000090 2e 4d cc 3c e9 57 97 bd 61 a3 20 3d 15 e0 b9 bc
       0.024939146 -0.073898144 0.03921831 -0.022689858
0000a0 e8 ca b0 3d e2 0d a8 bd b2 73 1b ba 71 e5 22 3d
       0.08632451 -0.08205773 -0.00059300207 0.039769594
0000b0 13 da 8d 3d 00 db f3 3b 7e dc 92 3c fb 16 57 3d
       0.0692636 0.0074418783 0.017927404 0.05251215
0000c0 43 40 9f bd 96 38 0c 3c e8 7a 08 bd 66 77 29 bd
       -0.07775929 0.008558413 -0.033320338 -0.041373633
0000d0 47 cd 6d 3d 8c a9 28 bb 6a f9 76 bd b9 2e b0 bd
       0.058057096 -0.0025735823 -0.060296454 -0.08602662
0000e0 ec ac e4 3c 08 ac 86 bd 72 2f 81 bc 17 86 9c 3d
       0.027914487 -0.06575781 -0.015769694 0.07642763
0000f0 d5 9b 8b bd b8 f9 ac bd 17 4d 25 bd 09 91 6c bd
       -0.06816832 -0.084460676 -0.04035672 -0.057755504
000100 77 29 84 bd e1 5b 1a 3b 9b 78 51 bb 33 97 c6 3d
       -0.06453221 0.00235533 -0.0031962756 0.09696808
000110 98 33 bf bb 60 a5 83 3d 00 37 63 3c a8 ac aa 3b
       -0.005835008 0.06428027 0.0138680935 0.0052085705
000120 ce 1a 8d 3b 80 6b 8a bd d5 7b 47 bd 54 01 24 3d
       0.004306174 -0.06758785 -0.04870208 0.04004033
000130 de 9b b6 3d f1 1e 02 bd 02 be 1a bc b5 36 e1 3c
       0.08916448 -0.03176779 -0.009444715 0.027491907
000140 b0 ca a7 3b dd b9 bf 3d 3a 5c 84 bd 0b 32 62 bd
       0.005120598 0.093616225 -0.06462903 -0.055223506

fc3.weight f4 [10, 84]
000000 dd 8d 56 bd cf 1d b6 3d 92 d2 46 3e 62 a6 6c bd
       -0.052381385 0.08892404 0.19416264 -0.057775863
000010 1d ee 15 be cf f2 70 3d 0d d1 90 3c 20 5f 01 bd
       -0.14641614 0.05882531 0.017677808 -0.03158486
000020 46 01 d6 3d c7 1e ae 3d 00 06 ea bc ca c0 6d 3c
       0.10449462 0.08501964 -0.028567314 0.0145112965
000030 65 03 a9 bb 20 ab 1d 3d 29 6f 1e 3d a1 bd 81 be
       -0.0051578754 0.038493276 0.03868023 -0.25339988
000040 5e 22 13 3d dc 21 63 3d 5e c7 38 bd ff a4 aa bc
       0.035921447 0.055452213 -0.045112006 -0.02083063
000050 9c 15 c3 bd c4 a5 ae bd be 7e 06 3d d5 cb 77 3d
       -0.09525606 -0.08527711 0.032835715 0.060497124
000060 b5 1c 59 3d a2 5c bb bd 2c db 91 bd fc ef 0b 3d
       0.053005893 -0.09148528 -0.07121882 0.034164414
000070 8c e0 bc 3c 27 26 37 3c 27 27 57 bd 58 e5 61 3d
       0.023056291 0.01117853 -0.052527573 0.05515036
000080 dd 35 36 3e 9b 8e 75 3e 55 5e 11 3e 51 93 a8 3d
       0.17793985 0.23980181 0.14196141 0.082312234
000090 30 d6 b3 3d 77 16 a0 3c 2d df 14 bd a0 f3 e7 bd
       0.087810874 0.019541962 -0.03634565 -0.11325765
0000a0 bb 40 d1 bd bb b1 28 3d 27 dd b1 3d db 90 b6 bd
       -0.102174245 0.041185122 0.086847596 -0.08914348
0000b0 c7 40 f1 3d f3 e9 f9 3d b8 df 01 3e b1 25 80 3e
       0.117799334 0.122028254 0.12682998 0.25028756
0000c0 b5 50 4e 3c ae 3d 3c be 62 25 e0 bc 99 e9 b7 bd
       0.012592484 -0.18382904 -0.027361576 -0.08980102
0000d0 01 b0 24 be 7d 15 8d 3d 9a 0b 7a 3d 32 6f b6 bc
       -0.16082765 0.06888864 0.06104622 -0.022269819
0000e0 70 17 85 bb 96 6f 61 bd 93 71 9f bd d9 01 41 3d
       -0.004061632 -0.055038057 -0.077853344 0.047120903
0000f0 ba 1b cb bc 51 83 cf 3d 12 b3 18 3d 71 cb c7 3d
       -0.024793494 0.101324685 0.03728015 0.097556
000100 da 35 e8 bd d3 fc 01 3e d5 b5 e9 bd c4 d3 05 3e
       -0.11338396 0.12694101 -0.11411635 0.13069063
000110 cf 1d 17 bb 5e 4a 19 bc 31 ca 99 bd 94 ac fc 3d
       -0.0023058539 -0.009356109 -0.07509268 0.12337604
000120 07 b5 f7 3c 46 e9 45 bd f6 28 1c be 37 e1 7a 3c
       0.030237688 -0.04831817 -0.1525 0.015312484
000130 a8 79 08 3b 71 da 13 be 3f 56 0b bd 3d 97 42 be
       0.0020824466 -0.14438798 -0.034017798 -0.19003005
000140 4c e1 f6 bc 1c d5 87 bc 3b 2f af 3d f1 fa bb 3d
       -0.030136727 -0.01658111 0.0855393 0.09178723
000150 1a 98 8a bd 85 b4 89 3d 7a b8 3a 3c 57 49 2b 3d
       -0.06767292 0.067238845 0.011396522 0.04181799
000160 8d a1 f2 bd 44 ff 68 3d 78 72 c3 bd e7 71 ed bd
       -0.118472196 0.056884065 -0.095433176 -0.11593991
000170 e9 0c bc 3d 87 f2 d2 bd 89 00 86 b9 51 e5 ce bd
       0.0918215 -0.10300165 -0.0002555887 -0.101023324
000180 3a 06 ef 3d 30 a3 6d bd 98 7f 79 bd c9 34 d4 bd
       0.116711095 -0.058016956 -0.0609127 -0.103616305
000190 fa c5 13 3e 73 1c e1 3c ce 61 a0 3d d0 16 98 bb
       0.14430991 0.027479386 0.07831155 -0.0046413913
0001a0 b6 76 4b bd f9 2e 46 3e 79 f3 23 3e 9a 1b 0b 3e
       -0.04967376 0.19353856 0.16010846 0.13584748
0001b0 56 3d 1e 3e 3b 02 67 bd 4a 35 1b 3e 31 bc 47 3e
       0.15453085 -0.05639861 0.15157047 0.19505383
0001c0 83 99 a9 bc 33 06 94 bd 6d 34 43 3c 27 21 1e bd
       -0.020703083 -0.07227745 0.011914355 -0.038605835
0001d0 07 6f 23 be 74 cf c2 bd 8c 20 ed 3c a4 7c f7 bc
       -0.15960322 -0.09512225 0.028946184 -0.0302108
0001e0 90 0e 28 3e 7a 5a 91 3d ed 5a f2 bd c2 a3 34 be
       0.16411805 0.07097335 -0.11833749 -0.17640594
0001f0 73 db 93 bd 8a f5 e8 bd 12 7e c1 3c da 96 69 bd
       -0.07219591 -0.11374958 0.023619685 -0.05702863
000200 62 b2 0f be e3 6b 82 bd 01 a4 11 be 67 7c af 3c
       -0.14032891 -0.06368234 -0.14222719 0.021421624
000210 8d ff 9e 3d 43 ef 76 3d 12 fd 05 3d 3c e2 af 3d
       0.07763586 0.06028677 0.03271205 0.08588073
000220 4e ef 4a 3e 27 2b bf 3d f7 ba d1 3d 65 f7 e1 3d
       0.1981785 0.093344025 0.10240739 0.11033515
000230 3a 8c 59 3e 6b db 44 3d 14 9f 54 3e 16 ab 4e 3e
       0.21244898 0.048060816 0.20763808 0.20182452
000240 ec 3e 74 be e9 04 90 bd d7 03 c1 3d fd 93 10 3c
       -0.23852128 -0.070321865 0.094245605 0.008824346
000250 39 11 de bc d5 f3 12 bd 8f 9f f6 bd 58 5c 30 be
       -0.027107822 -0.035877068 -0.12042152 -0.17222726
000260 5a 46 05 3d 14 49 05 3d 10 fb 63 3e 41 59 e5 bd
       0.032537796 0.032540396 0.22263741 -0.111986645
000270 36 10 13 be 89 d0 6a bd d6 c9 85 bc 24 93 cb 3d
       -0.14361653 -0.05732778 -0.016331594 0.09940174
000280 cf 16 e9 3b 04 f0 19 be de f6 a8 3d 13 23 68 bd
       0.0071133147 -0.15032965 0.08250211 -0.056674074
000290 25 da 92 3d bf 12 34 be 68 d2 01 3e e6 be 01 bd
       0.07170514 -0.17585276 0.1267792 -0.031676196
0002a0 1f 24 7e 3e 15 6c 91 bd 3b 4e 23 3e de 86 a2 bd
       0.24818467 -0.07100693 0.15947811 -0.0793588
0002b0 ce fe 7f 3c 3d f2 01 3e 13 a1 f2 bc ab 67 4b 3e
       0.015624715 0.12690063 -0.029617822 0.19863765
0002c0 da 40 b8 bd 1f 2d 57 be 5e 39 1f bc ad 63 04 3d
       -0.089967445 -0.21013306 -0.009718267 0.03232162
0002d0 3a ae 0d 3d ee eb 65 3d d7 7d 0e bc b8 82 7a bc
       0.034589984 0.056133203 -0.008696995 -0.015289955
0002e0 c9 43 06 be a6 ca 09 3d fc fe c9 3d 59 04 98 bd
       -0.13111795 0.033640526 0.098630875 -0.07422704
0002f0 f4 22 c8 bd f9 ed 37 3c 01 39 f6 3d b7 ee e9 3d
       -0.09772292 0.011226171 0.120225914 0.11422484
000300 76 e4 8f 3d 0c bd 0a 3e c7 39 c3 bc cf b0 bd bc
       0.07025997 0.13548678 -0.023831261 -0.023155598
000310 9c 29 5a be a2 be 99 3d 2a d5 ab bd 2b 8d b8 bd
       -0.21304935 0.075070634 -0.08390267 -0.09011301
000320 28 7c 0a be 4f c0 1d 3e a3 0f 18 bc 55 97 65 3d
       -0.13523924 0.15405391 -0.009281072 0.056052525
000330 43 16 8a 3d 82 76 ce bc 15 c9 05 3e df b8 64 be
       0.06742527 -0.025202993 0.13064988 -0.22336148
000340 0b b7 34 3d 2f dc b5 bd d4 3a b0 bd cd 7a fd 3b
       0.044119876 -0.08879887 -0.086049706 0.0077355863
000350 94 1c 00 be d5 ca 07 3e 0b ea 55 bd 86 e1 13 3e
       -0.12510902 0.13260968 -0.052225154 0.14441499
000360 a2 ba 56 3d 68 f2 53 bc 48 0c 5a be 68 b4 18 3e
       0.05242408 -0.012936212 -0.21293747 0.1491257
000370 c9 5e cc bc ed 69 03 b9 d2 ce 83 3d 19 79 5c bd
       -0.02494754 -0.00012532594 0.06435932 -0.053826425
000380 5d ef bd bd d6 28 94 3d 9c 73 15 be bf d7 58 3d
       -0.092741705 0.07234351 -0.14594883 0.052940127
000390 d0 e1 c3 bd fe 03 92 3d d5 b0 32 bd 62 11 01 3e
       -0.09564555 0.07129668 -0.04362567 0.12604287
0003a0 fa 3d 09 be 6a 77 1f 3e e7 36 88 bd 0a a5 01 be
       -0.13402548 0.15572897 -0.06651097 -0.12660614
0003b0 eb 99 45 3d 09 2d a1 3c 84 39 80 bd 11 9f 13 bd
       0.04824249 0.019674795 -0.0626097 -0.03604037
0003c0 dd 82 11 3e 86 55 28 3e f9 59 ed 3d 7a a8 b6 3d
       0.14210077 0.16438875 0.115894265 0.08918853
0003d0 e5 56 0f be c0 aa 83 bd 4e 30 8e 3d c6 06 3c 3e
       -0.13997991 -0.06429052 0.06942807 0.18361959
0003e0 c9 33 5f bd 6c 19 f0 3d bd 54 ea bd 08 5c ad 3d
       -0.054492746 0.11723599 -0.11441944 0.08464819
0003f0 81 e9 90 3e e9 ad c9 bd ca 82 e6 bd 60 b3 70 3d
       0.2830315 -0.09847624 -0.11255415 0.058764815

fc3.bias f4 [10]
000000 65 eb 93 bd 9c eb 8f 3d 2a b8 e0 3c 98 23 82 3d
       -0.07222632 0.07027361 0.027431566 0.06354445
000010 db 42 01 bc 62 7b e5 3d 66 7f c2 bd 15 b0 4a bc
       -0.007889475 0.11205174 -0.094969556 -0.012371083
000020 ac 10 b8 bd a7 2d b7 3d
       -0.08987555 0.08944254
