code/write_numbers_demo/Lenet3.pth (torch, 180603 bytes, 10 tensors)

conv1.weight f4 [6, 1, 5, 5]
00000000: b05b a7bd 8050 b73d c214 913e efff 523e
00000010: c2f7 18be 8400 ae3e 2cc3 043f 858d 0f3e
00000020: 04ac 06be 0921 acbe 7980 933e 04ee 043f
00000030: 25ab 48be 9667 ccbe 3c10 37be 79e5 a53e
00000040: 1327 c33e cc8c 17be 93b4 a5be b7f5 89be
00000050: c93d ac3e c77a a03c 2191 85bd 14c1 92be
00000060: f797 99be 8230 c7bd 7c41 c5be 4f29 b4be
00000070: 076f 2bbe 882b 0fbd 9b5c 0a3e 42b4 29be
00000080: 4fee c9be e8fa 74be 3638 abbe cbcf a03e
00000090: e06c 8f3e bfd2 a7bc ccc6 a83c 0232 213e
000000a0: 4c65 543e 0569 003f 39dc ce3e 16b6 ee3d
000000b0: 3b16 1b3d 6cf9 19be bc84 eabd 7db3 6e3e
000000c0: 1a73 563e c27f 1b3a 733d 0e3d d88c 6abe
000000d0: 5558 74bd c9a4 22bc 7da3 56be e387 2bbe
000000e0: 2ed9 b7bd 2f95 f9bd dd79 8dbd 5932 dbbe
000000f0: 4dca 143e 8ed5 6bbd d245 15bd f2e5 b2be
00000100: 9845 74be 9668 593e 59a0 a53e 4807 983e
00000110: 1417 7f3e cd7a 2cbe f420 443e 7cec 3c3e
00000120: 3ba0 323e 3300 c43e 4557 bb3e c35d 58be
00000130: ac99 333d f01d b5bd ceb7 44bc 5577 043e
00000140: 5d1a e9bd e8aa 5bbc bb18 98bd 9451 8c3d
00000150: d811 34bc e24a 3aba a887 9f3c 29cf 15be
00000160: c41a 773e 46ee 5e3e b7f0 29be 08a5 1bbe
00000170: ed3c 10bc ca16 dbbc 370f 0d3e 858f 41be
00000180: 2a88 96bd 6fab 053e b260 9f3e 830b af3c
00000190: 49df 9bbe 2a0a 723d 9129 923d bfeb 503d
000001a0: b17b 75be 3df9 b5be b849 5abe bc0b 80be
000001b0: ecd3 c7bd 200d ffbc 1d8f c3bc 72af b0be
000001c0: 2aa8 04be 4db9 11be 65e7 823e 1d5e dabd
000001d0: a5ed 29be c24c 663e 3d90 ba3e 0a18 a53e
000001e0: 13e1 bc3c 09b6 703e 537d d33e 4006 8a3e
000001f0: 0816 9a3e 7314 4bbc 26e3 443e 0668 803e
00000200: 9bd7 b3bd 2009 003e 6692 6dbe e16d 13be
00000210: e162 edbd 56d4 40be c1ce 4dbe 5259 35be
00000220: 34c3 d8be 2aed f6be 5f98 03bf cac8 e9be
00000230: c28f dcbe 9238 70be f4e8 d2be 3de0 f0be
00000240: cef8 05bf 4419 9bbe dd44 c5be e034 b2be
00000250: fb57 c3be fc07 dabc
-0.08171785 0.08950901 0.2833615 0.20605443 -0.14938262 0.33984768 0.5186031 0.14018829
-0.13151556 -0.33618954 0.28808954 0.51925683 -0.19596536 -0.3992278 -0.17877287 0.32401636
0.3811575 -0.14799803 -0.3236433 -0.26945278 0.33640888 0.019589795 -0.06521822 -0.28662932
-0.29998752 -0.09726049 -0.38526523 -0.35187766 -0.16741572 -0.034953624 0.13511889 -0.16572669
-0.39439628 -0.23923838 -0.33441323 0.31408533 0.28012753 -0.020486234 0.020602606 0.15741733
0.20741767 0.5016025 0.40402392 0.11655824 0.037862998 -0.15036553 -0.11451098 0.23310657
0.20942345 0.0005931818 0.03472657 -0.2290529 -0.059654552 -0.009926983 -0.20960803 -0.16751055
-0.089769706 -0.12186658 -0.06908009 -0.4281185 0.14530297 -0.05757671 -0.03644354 -0.3494106
-0.23854673 0.21231303 0.32348898 0.29693055 0.24911147 -0.1684372 0.19153196 0.18449587
0.17443936 0.38281402 0.3659002 -0.21129517 0.043847725 -0.08843601 -0.012006713 0.12936147
-0.113819815 -0.013407446 -0.07426592 0.06851497 -0.010990582 -0.00071064953 0.019473866 -0.14629807
0.24131304 0.21770582 -0.16595732 -0.15199673 -0.008803588 -0.026744265 0.13775335 -0.18902405
-0.0735019 0.13053678 0.3112846 0.021367794 -0.3044379 0.059091724 0.071368344 0.051006075
-0.23972966 -0.35541716 -0.21317184 -0.25008953 -0.09757218 -0.031134188 -0.023871953 -0.34508854
-0.12954774 -0.14230843 0.25567165 -0.10662482 -0.1659456 0.22490218 0.3643817 0.32244903
0.023056543 0.23506941 0.41306552 0.26957893 0.30094934 -0.012395012 0.19227275 0.25079364
-0.08781358 0.12503481 -0.23200378 -0.14397384 -0.11591125 -0.18831 -0.20098402 -0.17709854
-0.42336428 -0.48227817 -0.51404375 -0.45661002 -0.43078429 -0.2345908 -0.41193354 -0.4704608
-0.5233277 -0.30292714 -0.385291 -0.34805965 -0.3815306 -0.026615135

conv1.bias f4 [6]
00000000: b1b4 9e3e 4d7b 123e fdb0 9b3e e80c 03be
00000010: 0ce4 373e 96ee 503e
0.30997232 0.14304848 0.3040847 -0.12797892 0.17958087 0.20403513

conv2.weight f4 [16, 6, 5, 5]
00000000: cdad ea3d e228 153e 55e9 e53d d1cb 9e3c
00000010: c647 d93d 8070 3bbc c552 753e c04a e43d
00000020: aa0e 6c3c e6a4 7dbd c29f 2abd 2af4 703e
00000030: 1b32 853d 995d 97bd 42a7 bbbd cb64 a03c
00000040: 94cf 523e 2070 9b3d 6703 c6bb d917 b1bd
00000050: 0b2c f93d 1b5d 4e3d aa5b a03c d23c 8dbd
00000060: 1638 1f3d 6daa 0fbe 2b9b 443b bf45 343d
00000070: ccdc b4bd db74 9fbd 4188 fabc 42d7 cbbc
00000080: e3c6 d7bd f8eb a8bd 13ad e03c d338 06be
00000090: 86b0 85bd 72b8 313d 8f58 633c cfe0 d03c
000000a0: e9f3 a6bd 3b58 bcbc 006a 793d f355 773d
000000b0: 8e25 253d 2a5c 11be 1a71 52bd 3fe3 1b3d
000000c0: 6d96 7e3d 2664 67ba 3da1 78bd 64d8 443d
000000d0: dc56 903d 298b 8dbd dc03 90bd 7f23 a5bd
000000e0: 2e6a 523d 3c52 48bd 3242 a5bd 712b a2bd
000000f0: 84ad 86bc e1f2 da3c ac27 fabc 374f f73c
00000100: 72bb 3c3d dd33 c93c 8ced b43d 461b c4bc
00000110: 1907 56bd 727f 933d 8d45 5fbc 4506 78bc
00000120: b06f 30bd c40c 433d 140e 8bbd 098f b43c
00000130: 4db0 823d 6f3c 50bc e899 49bc 5466 59bd
00000140: b16e b23d 3959 c33d c072 86bd 2921 4cbc
00000150: 327e 13bd 84a6 0b3e b43f 6f3d b62d b7b9
00000160: 32ab 96bd d63e a0bb 5a26 a5bc eb28 0b3d
00000170: d509 28bb faec 8ebb 22a1 933c 1e81 753d
00000180: e9c8 893d 8bd2 61bd f71f 283c e5bd 643d
00000190: c4f9 a53d 1f32 05bd a26f 44bd 4a81 8dbc
000001a0: f61e a9bc 3361 8f3d 0c0f cfbb 5e6f adbc
000001b0: 13d8 8b3c 34af b0bb c81c 053e 1d0e 06bc
000001c0: 9883 6bbd 807e 243d c164 29bd d9d1 f23d
000001d0: d6bf d63c b173 4fbb cc8e 6a3d cd0c 10bd
000001e0: f7f6 1f3d d966 203d e7d7 97bd 279b ebbc
000001f0: 2029 b13b 5edd 54bd 89a1 f53c 00d0 c4bb
00000200: 9cfe 10bb 412d e63d 9127 13be 1fb4 fabd
00000210: c1f7 863d cd42 d93d 9410 bf3d a169 53be
00000220: 12e0 f9bd ba75 823d d218 b93d f946 503d
00000230: 75d4 b0bd d3ef d1bd 72e4 0ebd 6b82 3fbc
00000240: 002d ebbc b920 cebd 1010 d5bd 164b 563d
00000250: e72a ec3d ab51 5d3d 0891 fabb 7161 913c
00000260: c6f9 ffbd c0a4 1e3d 12bc a63d 9da9 f13c
00000270: 459d 093d cd53 89bd fbb4 0dbe 4872 c8bd
00000280: cd77 a7bd 8f4b fbbc 898b e63d 12c1 5bbc
00000290: 4639 a6bb 4b06 47b9 26c3 9e3d 78ad 6f3d
000002a0: ae27 2e3d 348b 22bd 21f3 a43d 269f 2a3e
000002b0: 7ea1 6f3e a747 113e 79eb 85bd 85f7 193e
000002c0: 6740 94bc bcb5 1fbd 8405 d0bd 6967 b5bc
000002d0: c935 b53d 82dc a73d 2e98 163e c81d 033c
000002e0: 6f1b 79bd cd7a abbd 1c80 ab3d 13f0 a73d
000002f0: 39e4 2e3c 001f 233d 8973 10bd 238c f6ba
00000300: bde6 a33b d901 16bc 2968 d73c 8132 3bbc
00000310: cd16 0dbe 8f20 02be bdd6 9bbd 9b1c fcbb
00000320: b343 1a3e 0899 9a3d 8481 d8bd 22e9 74bd
00000330: c6cb 2cbd 091f 003e 17a0 3d3e a809 d73b
00000340: 2ddd 2e3d 9b5d 333b dced 203d 892d 5c3b
00000350: c4fe d0bc c598 46bd 6e17 06bd bee6 b2bd
00000360: 0184 ab3d e640 a1bc 9cc1 a9bd 13be d1bd
00000370: 68e4 823c 2cc4 b0bd b9e4 063b f4e4 8e3c
00000380: f756 d1bd c120 593d 2377 673c b550 78bb
00000390: 2385 623d 81c1 77bc 828e bdbd 9214 2c3d
000003a0: a862 dabc 55df 02bd 7998 44bd 8d54 753d
000003b0: bdb8 55bd a38c 4bbd 1921 7a3d 2201 b5bd
000003c0: 72d6 c73d ba90 0a3d 6dd9 853d 429d 953a
000003d0: 0ebe af3c 9be1 18bd 834a 6c3d 83e1 b03d
000003e0: c5a9 60bd e84c c43d d112 4ebc 2c31 1abe
000003f0: 2bed 8cbd ddb2 e0bd 0ae8 bebd 1724 81bc
0.11458931 0.14566377 0.11226145 0.019384297 0.10609393 -0.011440396 0.23957355 0.1114707
0.014407793 -0.061924838 -0.041656263 0.23530641 0.065036975 -0.07390899 -0.09162761 0.019579312
0.20586997 0.075897455 -0.006042886 -0.08647127 0.12166604 0.05038176 0.019574959 -0.06896366
0.038871847 -0.14029856 0.0029999714 0.044011828 -0.08831176 -0.0778596 -0.030582549 -0.024882916
-0.105359815 -0.082481325 0.027426278 -0.13107614 -0.0652781 0.04338879 0.0138760945 0.025497822
-0.08151991 -0.02299129 0.060892105 0.060384702 0.040319018 -0.14195314 -0.051377393 0.038058516
0.062155176 -0.0008826874 -0.060700644 0.04805793 0.07047817 -0.06911308 -0.07031986 -0.08063411
0.051370792 -0.04890655 -0.080692664 -0.07918442 -0.01644016 0.026727142 -0.030536495 0.03018914
0.0460772 0.024560863 0.08834371 -0.023938786 -0.052252863 0.07202043 -0.013627422 -0.0151382135
-0.043075264 0.047619596 -0.067897946 0.02204086 0.06381283 -0.012709721 -0.0123047605 -0.053076103
0.08712519 0.09538502 -0.065648556 -0.012459078 -0.03600902 0.1363774 0.05841036 -0.00034938537
-0.07356872 -0.004890303 -0.020159889 0.03397457 -0.0025640626 -0.004361746 0.01802117 0.05993759
0.06727774 -0.05513243 0.010261527 0.05584516 0.0810428 -0.032518502 -0.047958024 -0.017273564
-0.020644646 0.07000961 -0.0063189324 -0.021171268 0.017070806 -0.0053919796 0.1299926 -0.008182076
-0.057498544 0.040159702 -0.041355852 0.118564315 0.026214521 -0.003165465 0.057265088 -0.035168458
0.039053883 0.039160583 -0.07414227 -0.028760506 0.005406514 -0.051968925 0.029984253 -0.006006241
-0.0022124415 0.112391 -0.14370562 -0.122413866 0.06590224 0.10608444 0.09329334 -0.20645763
-0.12200941 0.06370111 0.09037937 0.050848935 -0.08634273 -0.10250821 -0.03488583 -0.011688809
-0.028707981 -0.10064835 -0.10403454 0.0523177 0.115316205 0.054032963 -0.0076466836 0.017746659
-0.124988124 0.038731337 0.0814134 0.029499823 0.03359725 -0.06705437 -0.1383857 -0.097874224
-0.08177147 -0.030675678 0.11257083 -0.013412731 -0.0050727455 -0.00018980463 0.07752065 0.058515042
0.04251831 -0.039683536 0.08054186 0.16662273 0.23401448 0.1418749 -0.065390535 0.15035827
-0.018097116 -0.038991675 -0.10157302 -0.022144036 0.08848149 0.081963554 0.1470649 0.008002706
-0.06081718 -0.08373032 0.08374044 0.082000874 0.01067453 0.039824486 -0.035266433 -0.0018810075
0.0050018714 -0.009155714 0.026294785 -0.011425615 -0.13778229 -0.12707733 -0.076093175 -0.0076938397
0.15064888 0.0754872 -0.10571578 -0.059792645 -0.04218652 0.12511839 0.185181 0.0065624304
0.0426914 0.0027369026 0.03928934 0.0033596477 -0.025512107 -0.048485536 -0.032737188 -0.08735417
0.08374787 -0.019684266 -0.08288881 -0.10241332 0.015978053 -0.08631167 0.0020583107 0.017443158
-0.10221665 0.053009752 0.0141275255 -0.0037889902 0.05530275 -0.0151218185 -0.09255697 0.042011805
-0.026658371 -0.031951267 -0.04799697 0.059895087 -0.052178133 -0.04969467 0.06106672 -0.08838107
0.09757699 0.03382943 0.06535611 0.0011414664 0.02145293 -0.03732453 0.057688247 0.08636763
-0.054849405 0.09584981 -0.012577728 -0.1505782 -0.06881174 -0.109716155 -0.09321602 -0.01576428

conv2.bias f4 [16]
00000000: 87cf c43d 4a95 853d 2e4c cb3c 15d3 953d
00000010: c7df 86bd 47e1 f93c 7330 153d 8904 b03d
00000020: ee2e 2b3b c4ce 18bd 5a8a a8bc 738f 7d3d
00000030: 0a35 0abd ce60 8c3d 26b4 94bc 3cd4 1abd
0.09609895 0.06522615 0.024816599 0.07315651 -0.06585651 0.030502928 0.036423158 0.08594615
0.0026120502 -0.037306562 -0.020573784 0.061904382 -0.03374199 0.068544015 -0.018152308 -0.03780006

fc1.weight f4 [120, 256]
00000000: b45e 8b3d 787a 5db9 3581 513d e17c 06bc
00000010: fdd5 05bc c792 913d 6c7d 2abd e184 773c
00000020: d124 093d b43b 263d fc9a 583d 3c4a 183d
00000030: f61e 28bd fa91 27bb 6b66 12bd dc2f 383b
00000040: 7b76 263c af40 f73d aeb5 eabc 5545 bf3a
00000050: 3e28 49bc edc7 ca3d 8002 4f3b 0906 59bd
00000060: b259 98bd 0033 db3c d1b9 82bd 1c07 5b3c
00000070: 1af2 d93a 0327 0cbd 13a6 593c 910c a03c
00000080: 64ce 283b 0f9b 223d e54a bbbc 1d37 743d
00000090: f9d4 843c 6eae 063d 9d0b b43a 8da4 813c
000000a0: b626 923d a024 983d 87da 8b3c c3e4 4d3d
000000b0: 6e87 923c c356 463d 7e96 5a3d e90c 983d
000000c0: 612d 6bbd f11b 2dbd 4447 533c 828b 113d
000000d0: 1b1a f5ba ee1c cb3d 8882 d03c c668 6dbc
000000e0: 93e5 423d 9a99 cf3d b56f 9c3c 4bbb 853b
000000f0: 21b3 5cbd d2ce 623d a75b 0bbd 6775 a33d
00000100: ff25 ccbd 8e03 78bd c4c1 d3bb ff05 9d3c
00000110: b830 72bd 5765 04bd c2bd 8e3c 5e1c 08bd
00000120: da28 1b3c 4592 b5bb 85ad ab3b 8457 38bb
00000130: 42a1 8c3d b3b3 eebc 6601 653c 3aa2 3dbd
00000140: aa03 5a3d 571e 883d d0d3 8a3c 21ef 4abd
00000150: 183f 8abc 7abd 523d 0321 90bb 0976 07bb
00000160: 61f5 2f3d 5ea6 e53b 2cf8 093c d1e1 e1bc
00000170: 6571 c83b 99e3 14bd 5a01 4c3d fd8d 4e3d
00000180: 867c 7b3d b016 8c3d fb73 813d f00e 97bb
00000190: befa 443d 9fb7 66bd f64d 443c 5048 47bc
000001a0: 42ac 663d 018a 57bd 466e 71bd 3844 92bd
000001b0: ef08 793c dead d23c 548d 45bd d53e 213d
000001c0: 6afb 3d3d f226 6b3d 183e cfba 4a3c ea3c
000001d0: 97ef 723c d71f fa3c 7154 9cbd e1a4 44bd
000001e0: 8752 89bd 156e c1bc 2697 193d f8d2 fbbc
000001f0: acbd 14bd ef53 803d eb80 7fbd a98b 90bd
00000200: ec14 32bd 6a32 213d deca a83c 2b3b 3a3d
00000210: 6433 ae3a fc3a 8a3d 5d1d cebb 6458 12bd
00000220: f6f4 03bb dee3 083d 965e b43d 6b7c 763d
00000230: 30fb 673d e576 fabc eece 03bd bd14 6bbc
00000240: 47b0 163c 9172 d2bc bb49 4a3d 2354 7abc
00000250: 67e6 903c 97be 4a3d 679d 553d ac09 33bc
00000260: 7783 523d f14e 16bd 9325 febc 4bfa d4bc
00000270: 2065 0dbd 5875 33bd 128d c93c ee14 493d
00000280: 2b65 b73c fe41 c1bc cd11 07bc 84e9 40bc
00000290: 5a30 2b3d 7747 3abb 1046 67bd 1005 0fbd
000002a0: 354d 53bc baa1 6d3c f644 e03c 8964 aaba
000002b0: 92e9 e13c 6d8d b6bc 90b7 3b3d fc13 653b
000002c0: 9c54 013d 81a1 ce3c 9150 86bd 673e 9f3b
000002d0: cbcb 5b3d 17b7 84bb b108 8dbd 42e1 3dbd
000002e0: c492 99bd 0ac6 d5bc 599a b13c d6e1 31bd
000002f0: ce0f 283b d69f ccbc 5892 813c 3ccd 63bd
00000300: 47ba 79bd f2fb d3bc 72dc 983c 2b53 e3bc
00000310: 0655 983c dfae e83c 1def 40bd 10d3 f7bc
00000320: a233 793c 1922 f0bc 03d6 96bd 7620 0b3d
00000330: 6d49 203c 6717 65bd 81b4 a5bc d7b4 153d
00000340: 8601 f6bc 6125 3d3d 784d 35bd a704 77bd
00000350: f931 573b cf34 b23d c398 8e3b b585 143d
00000360: c50b 36bd f759 4ebb a3ee 9dbd bee9 853d
00000370: aa3f c73b 3544 2ebd 8ec9 89bc ba10 e33c
00000380: 36ff e0bc e6c4 ec3c 5c32 adbd b8a7 653c
00000390: 41d7 bf3c edfc 29bd 5889 5c3d 94e7 653d
000003a0: 5b7d 8a3c e509 29bb a125 34bd 74fc 723d
000003b0: 8e4e 98bb d2ba 5fbd ff58 813d cf01 803d
000003c0: 9cd7 79bc fb21 6abb 5f2a 54bd cf50 303d
000003d0: e245 083d 4025 78bc ad2e 863d 4850 393d
000003e0: 4818 68bc ad28 67bd 71a2 c3bd 791f 383d
000003f0: e96a f2bd d79c 28bc a146 64bd 3ad9 6fba
0.068051726 -0.00021121826 0.051148612 -0.008208484 -0.008168695 0.07108074 -0.041623518 0.015107364
0.033482376 0.04058428 0.05288218 0.03718017 -0.04104515 -0.0025569187 -0.035742205 0.0028104698
0.010160084 0.12072884 -0.028651085 0.0014592806 -0.012277661 0.09901414 0.0031587183 -0.05298427
-0.07438983 0.026757717 -0.06383098 0.013368394 0.0016627938 -0.034216892 0.013284224 0.019537242
0.0025757784 0.039698657 -0.022862861 0.059622873 0.016214835 0.032881193 0.0013736371 0.015825534
0.0713629 0.07428861 0.017071975 0.050266992 0.017886844 0.048422586 0.053366177 0.074243374
-0.057416324 -0.042262975 0.012895409 0.035533436 -0.0018699797 0.09917627 0.025452867 -0.014490312
0.04758222 0.10136719 0.019096235 0.004081165 -0.053881768 0.05537302 -0.034022953 0.07981377
-0.09968185 -0.060550265 -0.0064623076 0.019167898 -0.059128493 -0.032323208 0.017424468 -0.033230178
0.009470189 -0.0055411183 0.005239191 -0.0028128335 0.06866695 -0.029138422 0.013977384 -0.04629729
0.05322615 0.06646412 0.016946703 -0.049544457 -0.016875789 0.05145023 -0.0043984666 -0.002066972
0.04295862 0.007008358 0.008420985 -0.027573498 0.0061170333 -0.036349867 0.049805976 0.05042838
0.06139805 0.06840265 0.0632095 -0.004609935 0.04809069 -0.05632746 0.011981478 -0.012163237
0.05631662 -0.052621845 -0.058943056 -0.07141918 0.015199884 0.025717672 -0.048230484 0.039366562
0.046382345 0.057410188 -0.0015811352 0.028593201 0.0148276305 0.03053276 -0.076332934 -0.048008803
-0.06705194 -0.023612062 0.037497662 -0.030740246 -0.036313698 0.06266009 -0.062378805 -0.07057888
-0.043476984 0.03935472 0.020604547 0.045466583 0.0013290462 0.067495316 -0.0062901215 -0.035728827
-0.0020135022 0.033420436 0.08807103 0.060177248 0.056636035 -0.030574271 -0.032179765 -0.014348206
0.009197301 -0.025689395 0.04938672 -0.015278849 0.01768799 0.049498167 0.052152064 -0.010927599
0.051394906 -0.03669638 -0.031023776 -0.025998255 -0.03452027 -0.04381308 0.0246034 0.049092226
0.022387108 -0.023591038 -0.00824399 -0.011774424 0.04179416 -0.0028423944 -0.0564633 -0.034916937
-0.012896826 0.014503891 0.027376633 -0.0012999933 0.027577195 -0.022284234 0.045829356 0.0034954539
0.03157483 0.025223495 -0.065583356 0.004859734 0.05366115 -0.0040501463 -0.068864234 -0.0463574
-0.074986964 -0.026095409 0.021680044 -0.043428265 0.0025644186 -0.02497856 0.015816852 -0.05561565
-0.060968664 -0.025876973 0.018659804 -0.027749619 0.01859523 0.028403698 -0.047103036 -0.03025201
0.015210064 -0.029313134 -0.07365038 0.033966504 0.009783131 -0.05593052 -0.020227673 0.036549415
-0.030030023 0.046178225 -0.044263333 -0.06030717 0.0032836183 0.08701479 0.0043517067 0.036260325
-0.044444818 -0.0031486729 -0.07711532 0.065387234 0.0060805874 -0.042545516 -0.016819742 0.027717937
-0.027465444 0.028902482 -0.08456871 0.014017038 0.02341807 -0.041500974 0.05384192 0.056129053
0.016905477 -0.002579325 -0.0439812 0.05932279 -0.0046480363 -0.054621525 0.06315803 0.06250345
-0.015249159 -0.003572582 -0.05179822 0.043045815 0.03326977 -0.0151456 0.065518714 0.045242578
-0.014165945 -0.056435276 -0.095524676 0.04495189 -0.11836798 -0.0102913 -0.05573142 -0.0009149496

fc1.bias f4 [120]
00000000: 9957 6abc db41 1d3d 5df7 173d 7968 2f3c
00000010: acc6 603d 200c 08bd 70e2 1b3d 24f7 5cbd
00000020: 06fe 4ebd 12e5 5dbd 0c23 4f3c a5e9 733d
00000030: fa6f 24bd 65be 2cba f4b0 5cbd 6964 ddbb
00000040: 1046 19bd beca 5a3d 8db6 45bd c3af 3cbd
00000050: c4cd 7abd 9f73 c6bc 450b ff3c bd03 64bd
00000060: 0d86 ecbc 9874 9abc a9dd 03bd 2a2e e63c
00000070: c8b6 f73c 6667 a73c 65af 743c 9c15 553d
00000080: b4e2 31bd 7364 0e3d c73d 6dbd c02b 1dbd
00000090: 95ef 18bd 61e3 cb3b c153 573c 1420 16bd
000000a0: c122 88bc c25b e63c b50d e9b9 9889 513d
000000b0: 01e4 2a3d 9c4a 8d3c 323b 033b 524d 4a3d
000000c0: f1c2 a43c 5858 ba3c 6022 21bd 021c c4bc
000000d0: a04e fa3c 0445 0cbd f9ff ecbc b58a eb3c
000000e0: 530c 75bd f141 c53c 7b62 c4bc 0b55 253b
000000f0: 845a 803c 3ff2 20bd 4034 e83c 094b 1d3d
00000100: c43a 943c bf45 273d 94f9 0ebd 106d 03bd
00000110: ff1c d63a 0f88 6f3d d126 343d a41a 943c
00000120: 1339 72bb f382 84bd 980e 283d 4949 3fbd
00000130: 12f4 323d d356 c43c 8ff3 7e3d 2b77 de3c
00000140: 035a 64bc 609b 4e3d e841 5dbd bd6d 153c
00000150: 8140 46bd e380 86bc 1447 513d ad4a 753b
00000160: 24a1 a2bb baea cd3b 557d 63bd e419 e73c
00000170: 2824 57bc 5f3e 823d 6538 1f3d 406f 02bd
00000180: 6044 c33c d8d7 fb3c 45b2 c53c bd34 cabc
00000190: 23f4 a93c f1e9 16bd 99a1 f0bc ed3b 543b
000001a0: 0442 75bd 27bd 4ebd d142 47bd 71e2 edbc
000001b0: a026 0b3b 067d b23c d52e 09bd c2ea 8f3c
000001c0: 846a aebc 0673 3fbc 1a54 073d a0f1 a93c
000001d0: 2075 bfbc 0a2b 943c 0254 2bbd eb0f fb3c
-0.0143031115 0.038392883 0.03710114 0.010706061 0.05487697 -0.03321469 0.038057745 -0.05394663
-0.050535224 -0.054173537 0.012642633 0.059548993 -0.04014585 -0.00065896503 -0.053879693 -0.0067563546
-0.037420332 0.053416006 -0.048269797 -0.046066057 -0.06123139 -0.024225054 0.031133303 -0.055667628
-0.028872514 -0.018854424 -0.032193813 0.028098185 0.030238524 0.020435046 0.014934395 0.05202256
-0.04342909 0.034763765 -0.057920244 -0.0383718 -0.03733786 0.006222174 0.013142527 -0.036651686
-0.016618134 0.028119925 -0.00044451436 0.05115661 0.041721348 0.01724749 0.0020024297 0.049390145
0.020112487 0.022747204 -0.039339423 -0.023939136 0.03055507 -0.034245506 -0.028930651 0.028752664
-0.059826206 0.024079295 -0.02397274 0.0025227692 0.015668161 -0.039293524 0.028345227 0.038401637
0.018094428 0.040838 -0.034905985 -0.032086432 0.0016335546 0.058479365 0.04398233 0.01807911
-0.0036960288 -0.06470289 0.041029543 -0.04670075 0.043689795 0.023967182 0.062243994 0.027156433
-0.013937476 0.050441146 -0.05401793 0.009120402 -0.04840136 -0.01641888 0.051093176 0.0037428543
-0.004963057 0.006284085 -0.055539448 0.028210588 -0.013131179 0.063595526 0.03887214 -0.031844378
0.023836315 0.03074257 0.024132857 -0.02468335 0.020746296 -0.036844198 -0.02937393 0.0032384351
-0.05987741 -0.05047336 -0.048647705 -0.02903864 0.002123274 0.021788131 -0.033491928 0.017567996
-0.021291025 -0.011685139 0.03303919 0.020745099 -0.02337128 0.018086929 -0.041828163 0.030647239

fc2.weight f4 [84, 120]
00000000: 6a66 90bd f8d5 5fbd 1002 083d 46fb 153e
00000010: 199b 483d 80a3 ec3d d2a6 55bc 859e 50bd
00000020: ed10 a53d 75d5 bcbd 03a2 efba fca0 00bd
00000030: fbba a33c 9271 43bd 379d 0dbc 3771 d8bc
00000040: ec86 86bd 5dc3 a3bc 474c 2dbc 74a1 a93d
00000050: 9f66 9fbd 0aac 0b3d b6a4 323c 2c01 9d3d
00000060: 4bba a0bc 9a80 88bd 3ef1 97bd 8a61 413d
00000070: 6c12 82bd 795b 9bbc f40c da3d e36d 9b3d
00000080: 255b f4ba d6b0 b6bd 782e aabd a88e 8c3d
00000090: cae4 8a3c a70d 0cbe 1a6a 5cbd f32e dfbc
000000a0: 7c69 653d 685c 1abc fd11 86bd f6b1 4538
000000b0: 6ba8 86bd 05ef 0f3e b9b5 b1bd 4915 313d
000000c0: a892 773d 2c04 c5bc 0646 a93d ae81 acbc
000000d0: 42e7 23bd 228b d13d 8640 093d 379e 993c
000000e0: 6e83 bfbc 3f19 5dbd aeee 0b3c 4161 ff3d
000000f0: 4eb5 2d3e 45f1 bfbd 5a43 a53c 4ee3 33bc
00000100: 063e eabc a819 4e3d 1f0c 953c 9ae6 713c
00000110: 4d1a 773d bf29 6b3d 5982 28bd 568d ab3a
00000120: ee06 cd3d 6e73 3abd c2df ae3d 7152 dc3b
00000130: 9e51 fb3d 8c85 033d b973 7f3d 1b29 89bd
00000140: c08a b23c aa17 9b3d fbf7 6d3d 77b2 0abd
00000150: af01 d7bd 851e 41bd 98f0 983d 7833 6abd
00000160: abc4 7f3d 23a0 83bd 20be ccbd 7a48 9e3d
00000170: 3262 943d 3728 afbc e024 d0bd e227 b6bd
00000180: 043f bebc 594f 74bd d929 b93d 08ee 29bd
00000190: fa5b b6bd e2d0 093e cb8e af3d bea6 e93c
000001a0: 33f8 8cbd 9ccb ea3c 9315 19bd fa34 6fbb
000001b0: ab99 043d aadc 0cbe 428c 663d 2901 88bd
000001c0: df6a dd3c c2af 82bd ecc3 083d a3c9 07bc
000001d0: 087f 3e3c bb59 ad3d 71c2 81bd a969 9a3b
000001e0: fb01 953d 2b21 e03d 9395 883d ca9b 0a3d
000001f0: 2c07 cdbd e582 4abd 4d71 523d 725d 943c
00000200: 922d 8d3d f0ce 82bd 46b4 d9bc cb48 a2bd
00000210: e642 97bc 2ab2 7e3d 6246 cc3d 93d4 a43d
00000220: 9896 063d aff9 05bd 90ea 9cbd ab08 88bd
00000230: 66c1 583d 3399 a5bd 001c 7dbd cbf8 d63d
00000240: b0a4 cd3c 09cf dc3d 3ab7 eb3c ec57 a2bc
00000250: cd30 50bd 7ab0 9c3d d24b 14bd fa06 a7bd
00000260: 0c97 193d 44f2 8f3c 97ef 893d 8e0c e23d
00000270: 2862 ba3c 49a5 08be 9c1b bd3d f23b 33bd
00000280: 4226 d93b c9ba 0fbd 5594 20bd 81e1 3f3d
00000290: 2a73 f2bb f5ba b83d 889b d33d 049a 3c3d
000002a0: 142e b1bd 4893 d8bb d6e6 2d3e 7a23 a6bc
000002b0: 6ee5 5e38 d9f3 b3bd e244 04bc d8ac e23c
000002c0: b7c2 8b3d 1264 e53d d0ce c3bd 6b35 833b
000002d0: 2946 cd3d 62ad 9d3c 3e5d b2bd dd4d b1bd
000002e0: 786b 4c3d 5e5d 9a3d 8317 57bd 978a 6a3d
000002f0: f95f 943d 863c 843d 9818 ea3d 9b42 933d
00000300: de0e 9d3c 9266 163d 4bfa f63d 39a4 3fbc
00000310: 9bd1 d73d 987b 34bb 475b 11bd bcf1 c1bd
00000320: 404f ed3c ee15 ee3d 184a ffbd 10d8 b03b
00000330: 755c 8ebd 558d 63bd 1d31 623d 0f6b 313d
00000340: cd14 62bd 5f83 b83d 8e20 02bd 3f32 a53d
00000350: 2487 e83d 1323 2b3d 6f82 8b3c 60d2 693d
00000360: 4e57 aa3d fbca 873d ee74 a63d 689e 3cbd
00000370: 1de4 90bc 7047 c4bd cd48 7cbd 4e3d 933c
00000380: fb2a a6bd e749 04be 9ba2 d3bc e194 0a3d
00000390: bff5 b63c 6286 6e3d c4db 543b 5497 093d
000003a0: ab15 55bd 4506 833d 6052 71bc faa6 8abd
000003b0: 072a 833c 8472 2ebd f470 913d d3bd 9c3d
000003c0: 03af 023d 95f6 a4bd 4b4d a23d 8af0 79bd
000003d0: ce53 123d fc70 923d 8b42 2a3d e9bc 80bd
000003e0: dc24 343d 56ab a7bb 4c11 75bd 70f8 60bd
000003f0: 8005 e83c 82d5 a53b 98a5 5d3d 2a8b b5bd
-0.07050784 -0.054647416 0.033205092 0.14646634 0.048976038 0.11554623 -0.013040261 -0.050932426
0.08059869 -0.09220401 -0.0018282536 -0.031403527 0.01998662 -0.04771573 -0.00864344 -0.026421173
-0.06568703 -0.019990617 -0.010577268 0.08282748 -0.07783245 0.034099616 0.010903528 0.07666239
-0.019620081 -0.06665154 -0.0741906 0.04721216 -0.0635117 -0.018964516 0.10647002 0.075893186
-0.0018642886 -0.089204475 -0.083096445 0.06863147 0.016954798 -0.13677083 -0.053812124 -0.027244067
0.0560088 -0.009421445 -0.065464 4.71342e-05 -0.06575092 0.14056022 -0.08677239 0.04323319
0.060442597 -0.02404984 0.08265309 -0.02105793 -0.040015467 0.102316156 0.0335088 0.0187522
-0.0233781 -0.053979155 0.008540792 0.124697216 0.16963693 -0.093721904 0.020173717 -0.010979487
-0.028594028 0.050317436 0.018194256 0.014764452 0.060327817 0.05741286 -0.041139934 0.0013088386
0.10011087 -0.04552024 0.08538772 0.006723695 0.122714266 0.032109782 0.06236622 -0.06697293
0.021794677 0.07572873 0.05809782 -0.033861604 -0.10498368 -0.047148246 0.074677646 -0.05717799
0.062443417 -0.06427028 -0.09997201 0.077286676 0.07245292 -0.02138148 -0.10163283 -0.08894326
-0.023223408 -0.059645984 0.09041185 -0.04148677 -0.08904262 0.13458589 0.085721575 0.028521892
-0.06883278 0.028661542 -0.03737409 -0.0036500082 0.03237311 -0.13756052 0.056286104 -0.06640846
0.0270285 -0.063811794 0.03338997 -0.00828782 0.011626966 0.0846438 -0.06335915 0.0047123027
0.07275768 0.10943826 0.06669154 0.03383998 -0.100111336 -0.049441237 0.051377583 0.018110964
0.068934575 -0.063871264 -0.026575219 -0.079240404 -0.018464517 0.06218163 0.09974362 0.08048358
0.03285846 -0.03270882 -0.07661927 -0.06642278 0.052918814 -0.08085861 -0.06179428 0.10496672
0.025102943 0.10781676 0.028773893 -0.019817315 -0.05082779 0.07650848 -0.03620512 -0.081556275
0.037497565 0.017571576 0.06735151 0.11037551 0.022751883 -0.13344301 0.09233782 -0.04375834
0.006626875 -0.03509024 -0.03920396 0.046845917 -0.0073989825 0.09020034 0.103323996 0.04604532
-0.08651367 -0.006609354 0.16982588 -0.020280588 5.3142598e-05 -0.087867446 -0.008073064 0.027670309
0.06824248 0.112007275 -0.09560931 0.0040041707 0.100231476 0.019247714 -0.08709191 -0.08657429
0.049907178 0.0753734 -0.052512657 0.057261076 0.07244868 0.064568564 0.11430472 0.07190438
0.019172128 0.036718912 0.12059458 -0.011696869 0.10538026 -0.0027539488 -0.03548744 -0.09469935
0.028968453 0.116252765 -0.12465304 0.0053968504 -0.069512285 -0.055554707 0.05522262 0.04331499
-0.05519562 0.09009432 -0.031769328 0.08066224 0.11353901 0.041781496 0.017029969 0.057085395
0.08317433 0.06630512 0.08127771 -0.046049505 -0.017686898 -0.09583938 -0.061592866 0.017973568
-0.081136666 -0.12918817 -0.025834372 0.03383339 0.022333978 0.058233626 0.0032479623 0.033591583
-0.052022617 0.0639768 -0.014729112 -0.067701295 0.016011251 -0.04258968 0.07101622 0.076533936
0.031905185 -0.08054844 0.07924899 -0.06102041 0.035724454 0.07150456 0.041567367 -0.06286032
0.043980464 -0.0051168604 -0.05983095 -0.05492443 0.028322935 0.0050608525 0.054113 -0.08864434

fc2.bias f4 [84]
00000000: 399c b53d b9d9 923d 487d 2ebd 1191 fe3b
00000010: 9ab3 613b acff c9bc ad16 123d add5 ec3d
00000020: 3d56 3f3d fc18 cdbc 2159 933c b801 babc
00000030: 57cc 843d f625 0bbd 00ca b13d 79c1 423d
00000040: 6814 c93c 9327 84bd 6278 74bc c01e 5bbd
00000050: 11cb cabc 702d 60bd 7aaa 83bd 75d0 5d3d
00000060: 1be2 6d3d 4b78 903d b881 6b3d 3604 9e3c
00000070: 4b56 0a3d 000f 923d 6905 013d dfc2 a73d
00000080: b80a acbd f072 603c 2aae 58bc 3f88 823c
00000090: cfa7 bebc a3e1 dbbc 63a0 533d 98cf a9bb
000000a0: bd7a b7bd 31c5 a4bd dbbf 943d a781 af3b
000000b0: f55a 533d 3f92 123d 22ca 6bbd baa5 30bd
000000c0: d429 06bd 7190 cdbc b4e8 6b3b 26e2 95bd
000000d0: 59b2 cd3a b037 58bd 5604 d0bd cd98 cd3d
000000e0: b467 adbd 0e90 a43d fa2a 90bd 8538 a8bd
000000f0: 5b1f 123d 21ea 9bbd 4a29 3fbd f5db cabd
00000100: 777b 3e3d a152 be3d f8fe abbd da77 90bd
00000110: a13f 403c d66c 5abd 6e89 25bd 4ad7 5cbd
00000120: c98e ba3d 02a0 483d 7ef8 523d 7c9f af3d
00000130: 4e79 79bd 6f9b 12ba cc84 b33c eab7 313d
00000140: 71ff 52bc 4cda 513c e933 bbbc db79 33bd
0.08867688 0.071704336 -0.042599946 0.007768758 0.0034439326 -0.024658047 0.035666157 0.11564193
0.046713103 -0.025036328 0.017986836 -0.022705898 0.06484287 -0.03397175 0.086811066 0.04754779
0.024545863 -0.06452861 -0.01492128 -0.053496122 -0.024755033 -0.054730833 -0.06429 0.05415388
0.05807696 0.07054194 0.057496756 0.019289117 0.0337737 0.07131767 0.0314993 0.081914656
-0.08400482 0.013699278 -0.013225118 0.015934108 -0.023273377 -0.02684099 0.05166663 -0.005182218
-0.08958957 -0.08045424 0.07263156 0.005356032 0.051600415 0.035784002 -0.057565816 -0.0431268
-0.032754734 -0.02509329 0.0035996856 -0.07318525 0.001569341 -0.052787483 -0.10157077 0.1003891
-0.084670454 0.08035289 -0.07039447 -0.08213905 0.035674434 -0.07613016 -0.046670236 -0.09905235
0.046504464 0.09293104 -0.08398241 -0.0705411 0.01173392 -0.05332645 -0.040414266 -0.053916253
0.09109265 0.04898072 0.051506512 0.08575341 -0.0609067 -0.00055926194 0.021913908 0.043388285
-0.012878285 0.012808394 -0.022851901 -0.043817382

fc3.weight f4 [10, 84]
00000000: 1381 a63c 688b 633e ae19 5bbc c5a6 b9bd
00000010: a534 88bd 0d18 77bd 1672 043c 3b51 d6bd
00000020: 796c a93b 13ef 32be 1a0b 923d d348 c43d
00000030: 23e9 933e 1d38 c73d a330 36bd 719c 503e
00000040: 44eb 9cbe 4aa4 f0bd 8b58 52bd b5a2 893d
00000050: 80b3 81be 32f9 46bd 3c72 afbd 5281 89bc
00000060: 42e4 553e 7bf1 4d3d 27c5 d63d 3fc9 b03d
00000070: e854 36bd 9f82 103d c1d1 eabd 23a0 b9bd
00000080: 0857 78bd 3179 79bd 68aa 2a3d 9fbe 8d3d
00000090: 4a3d ccbc 49be 143e c026 da3b 7170 c2bd
000000a0: a1b1 4d3d 431f 1e3e 8698 19be fe66 ce3d
000000b0: 5bd2 a2bd d597 07be 6707 65bd 5c5b 1e3e
000000c0: f5e3 0f3c 9b33 b63b 7102 383e a3ea f83c
000000d0: 0439 77be 86ef f5bc 0a9d 863d d83c 0e3e
000000e0: 71cb 8a3d dfa1 fdbc e9f8 d2bc 9fdc 273c
000000f0: 8960 33bd c9b0 bdbb 0b9c e53d 80fc 29be
00000100: abe2 b33d bdd2 533e 337d d4bd 11e0 d33d
00000110: 30e4 febc fa72 4fbd a650 8e3c 8403 3f3c
00000120: debb 6e3d 65c9 b8bd 1b96 323e e072 823c
00000130: a40b c0bd a36a dd3d e43c ff3c 26b8 72bb
00000140: f0ea 813d 8957 96bd c9bb 33bd 7af0 5fbd
00000150: ff2c 84be 3286 8bbc c92a 8f3c 92b2 8bbd
00000160: cb7b e53c d144 cbbd 4c97 8c3d c694 c13e
00000170: 3a03 1ebe aebf 2b3d ee3a 55be 33c1 3c3d
00000180: ab29 2a3e 8d53 84bd 259e 813e b108 65bd
00000190: d51d f13c 1316 2bbd b9b7 b53c d4bc a03d
000001a0: 50e9 6a3d b8a7 6abd 5c18 cf3d 7776 b4bd
000001b0: 5a9d a1bd a37f ceba eaf8 bdbd 4778 00bc
000001c0: 481b 87bc d685 1cbe 7e10 05be 777a f83d
000001d0: c9ef b43d 4879 01bd e3d7 d5bd 095b a43d
000001e0: 4615 ed3d e6a4 75bd dd34 59be 9640 3cbd
000001f0: ef7e 69bd 06b3 7c3c 34a9 0a3e 9502 9a3d
00000200: 09ef babc a6dd 963e 9733 59bd 52c4 b3bd
00000210: df1e 93bd e46a c03d 641c 6a3d 53fe 32bd
00000220: d6ad 6b3e 39b3 4f3d 3312 81bb c079 283e
00000230: b8a1 e5bc 43d1 cbbd c1fc c43d c26a 213e
00000240: ce91 bbbd 3765 ba3d 62ee 5fbe 9519 7dbe
00000250: 8ff3 a5bc 52ce 1d3d da92 41bd 9833 e0bc
00000260: 8c1e be3d 13d3 2ebc e896 5ebd b04d febc
00000270: 6be9 1e3e 707f 82bd 98ba 953d ba5e 07be
00000280: c7be a4bd 8364 85be 2204 3bbd 96ec 803d
00000290: 3022 70bc 55ff 2f3e 9f58 71bd 9eb6 78bd
000002a0: 4689 ac3d 9e2f 5f3e 8d21 ceba a267 8f3e
000002b0: 08c6 2cbd 343b aa3d aabc da3b 1ccd febd
000002c0: 74ea cbbd 4896 5abe dad0 ab3d 558d 533d
000002d0: a500 ff3d 1513 803c be28 3ebc 24e0 063c
000002e0: 19a0 bcbd 8ee4 c1bd 5049 9abc c224 0f3d
000002f0: fd6b fc3d ae32 013e 1976 fd3d 4dec 093e
00000300: d1bf 0d3e bb25 c2bd 6c77 ab3c b2da 7c3b
00000310: ab3a 5ebd 02c4 98bd 64b6 033e 1f18 58be
00000320: c39d c13d 8cc2 83bc ac30 49bd c852 173e
00000330: c044 63be d1db 63be d4a5 0b3b 244f 473d
00000340: af3e 743c d56f 0a3d 14ad 9d3d 6825 d7bd
00000350: 5a57 713d 3a8e bc3d a7fb 8cbc c7e0 08be
00000360: f5cd 50be 9ae8 253d fea9 b5bd 334e 173d
00000370: 5c3f dd3d e022 eabd 1b21 4ebd 0627 bc3b
00000380: 40a3 b23c 8494 7a3e 1c84 df3c 2cef b93d
00000390: 9d6d 5cbd 2015 acbc fdeb e8bc 8a54 103c
000003a0: 935f 3cbe 639d 8e3d 35ee 38bd 30ee 173c
000003b0: 036e 173d e1ee 753b 32cf a73d 1bd1 af3d
000003c0: dddc 37bd cad5 803d 0e76 3c3e 06bf 39be
000003d0: e280 04bc 38b4 14be 206d 21bd c9f4 423e
000003e0: fa09 7ebc d6f3 ea3d 7452 82be 16ec 173d
000003f0: 88b9 623d 6bf4 f9bd 79f6 9b3b e366 9fbc
0.02032522 0.22221148 -0.013372822 -0.09065012 -0.06650666 -0.06032567 0.008083841 -0.10464712
0.0051704017 -0.17474012 0.07131024 0.095842026 0.28888807 0.097275 -0.044479977 0.20372178
-0.30648243 -0.11750086 -0.051353972 0.06720487 -0.2533226 -0.048577495 -0.0856671 -0.016785298
0.20887855 0.05027912 0.104868226 0.08632135 -0.044514567 0.03528082 -0.11465789 -0.09063747
-0.060629874 -0.060906593 0.04166642 0.06921124 -0.024931569 0.14525713 0.0066574514 -0.09494103
0.05021823 0.15441613 -0.1499959 0.10078238 -0.07950278 -0.13241513 -0.055915263 0.15464538
0.008782377 0.005560351 0.17969681 0.030385321 -0.24142843 -0.03002144 0.065729216 0.13890398
0.067770846 -0.030960975 -0.025753455 0.010245471 -0.043793235 -0.0057888967 0.112114035 -0.16600227
0.08783468 0.20685859 -0.10375442 0.10345472 -0.031114668 -0.05064676 0.01737244 0.011658553
0.058284633 -0.09022788 0.17440073 0.015923917 -0.0937722 0.10811355 0.031156965 -0.003703603
0.06343639 -0.07340915 -0.043880258 -0.054672696 -0.2581558 -0.017031763 0.017476456 -0.06821169
0.02801313 -0.09925235 0.06864795 0.37808818 -0.15430918 0.041930847 -0.20823261 0.046082687
0.16617458 -0.064612485 0.25315967 -0.055916492 0.02943317 -0.0417691 0.022182332 0.07848516
0.05735141 -0.057288855 0.10112068 -0.08811658 -0.078913406 -0.0015754591 -0.09275992 -0.007841176
-0.0164925 -0.1528543 -0.12994573 0.12132733 0.08834798 -0.031609803 -0.10441568 0.08025176
0.11576323 -0.059971713 -0.21211572 -0.04596003 -0.05700582 0.015423542 0.13541108 0.07520024
-0.022819059 0.2946598 -0.053027716 -0.087776795 -0.071836226 0.09395388 0.05715598 -0.043699574
0.23015532 0.05070803 -0.003938937 0.16452694 -0.028031215 -0.09952023 0.096185215 0.15763381
-0.091586694 0.091013364 -0.2186828 -0.2471679 -0.02025774 0.03852684 -0.04725919 -0.027368352
0.0928317 -0.010670441 -0.054343134 -0.031042904 0.1551873 -0.06371963 0.073109806 -0.13219729
-0.080442004 -0.26053247 -0.04565824 0.06295125 -0.014656588 0.17187245 -0.058922406 -0.060721032
0.0842462 0.21795508 -0.0015726552 0.28008753 -0.042181045 0.08312073 0.0066753225 -0.12441465
-0.09956828 -0.2134639 0.08389445 0.051648457 0.12451295 0.015634099 -0.011606393 0.00823215
-0.09210224 -0.094674215 -0.018833786 0.034947164 0.12325285 0.12616989 0.12376041 0.13469048
0.13842703 -0.09479853 0.020930968 0.00385825 -0.05425517 -0.074592605 0.12862545 -0.21102951
0.09453919 -0.016083978 -0.049118683 0.14777672 -0.22194195 -0.22251822 0.0021308558 0.04865946
0.014907523 0.033798058 0.07699028 -0.105051816 0.058921196 0.09206815 -0.017209841 -0.13366996
-0.20391066 0.04050503 -0.08870314 0.03693981 0.108031005 -0.11432433 -0.05032454 0.0057419566
0.02180636 0.24470717 0.027284674 0.090788215 -0.053815473 -0.021006167 -0.02843284 0.008809218
-0.18395834 0.06963613 -0.045149047 0.009273097 0.03697015 0.0037526416 0.08193816 0.085848056
-0.044888366 0.06290777 0.1840441 -0.18139276 -0.008087369 -0.14521873 -0.03941071 0.1903869
-0.015505308 0.11472289 -0.25453532 0.037090383 0.055352718 -0.12204822 0.0047596064 -0.01945824

fc3.bias f4 [10]
00000000: 6540 34bc 2ccf 273e 86ee edbd 76bd b1bd
00000010: 46ed 033c 24d8 d1bd 9dd4 b0bc 781e 0a3e
00000020: 63f4 8e3c 72a2 af3d
-0.011001681 0.16387624 -0.1161776 -0.08678715 0.008052176 -0.10246304 -0.021585757 0.13488185
0.017450517 0.08575906
